models/model_c_lr7e-4_wd2e-3.pth (torch, 462591 bytes, 20 tensors)

conv1.0.weight f4 [32, 6, 64]
0.20043105 0.064117976 0.18001641 0.03183125 0.12848137 0.03517389 0.046481848 0.09938581
0.038906798 0.0024401043 0.066576295 0.017985668 0.08433844 -0.05723737 0.10606893 -0.13542055
-0.01110428 0.08083891 0.08882532 -0.015754275 0.0131112505 -0.07148528 -0.055624228 0.039262068
-0.08855342 -0.05655331 0.12744541 0.02264223 0.09509031 0.19741043 0.08880716 0.18910041
0.049015537 -0.084134646 -0.0014266203 0.04909764 -0.0483494 0.20232779 -0.060459223 -0.00073288404
0.017102467 -0.039328087 -0.09282097 0.10040125 -0.06086543 -0.041791826 -0.08164181 -0.0030456467
0.034873053 0.05094145 0.039286748 0.13214616 -0.047297344 0.029557243 -0.020719536 -0.08148324
0.044182643 -0.15744305 -0.19171646 -0.09354271 -0.081285074 -0.047351427 -0.00075740006 -0.010304679
0.003321682 0.09289924 0.084864505 0.10159259 0.12628792 0.1771762 -0.07542756 0.030407757
0.077283666 -0.020412078 -0.19378643 -0.12872638 -0.18637948 -0.20655397 -0.25275204 -0.22980864
-0.11544504 -0.24664947 -0.27038157 -0.18551287 -0.12806849 -0.0019273789 0.11698702 0.00477504
0.057051543 0.13231003 0.14778155 0.17078689 0.17228232 0.06844986 0.028684583 -0.06598159
-0.1337542 -0.15955284 -0.19143131 -0.09825446 -0.23580691 -0.29109997 -0.26061663 -0.16620512
-0.1972934 0.023045497 0.08561492 0.0943032 0.18610719 0.27181628 0.303139 0.110920146
0.12766708 0.11789951 -0.015539468 0.07461963 -0.072009124 -0.04875437 -0.09176287 0.049080793
-0.13825369 -0.104451984 -0.08698053 0.02033767 -0.17824809 -0.08284539 0.17721277 0.22807817
0.08552752 -0.15430355 -0.3549794 -0.27488318 -0.39090842 -0.43672672 -0.15650058 -0.24696834
-0.34505427 0.0060303994 0.041396603 0.11349845 0.1204277 0.29300433 0.4160996 0.37388277
0.37289372 0.23313731 0.17761524 0.06353977 -0.05753097 -0.26543322 -0.21715799 -0.24718858
-0.34421527 -0.28133887 -0.44272724 -0.36274087 -0.2703164 -0.28347832 -0.14529712 0.015054479
0.03342138 0.13982838 0.19875608 0.3157938 0.44158494 0.21006154 0.22490183 0.07130581
0.15319891 -0.06681741 -0.00082705694 -0.13262181 -0.15601584 -0.27856177 -0.33563542 -0.2684306
-0.28602564 -0.23372686 -0.23344953 -0.14476144 0.10180933 0.12697572 0.30552664 0.34080008
0.26777682 0.1478534 0.25596112 -0.068366185 0.13471487 0.059574652 -0.031670794 -0.23039725
-0.00791357 -0.07609678 -0.063161515 -0.14042707 -0.0041571357 0.012710757 0.005961373 -0.03725787
0.113598235 0.019879296 0.009975924 0.1289564 0.054955415 0.015580101 0.02642353 0.094311
-0.16316241 -0.08824739 -0.020849936 0.08983489 0.13513477 -0.03154952 -0.05102918 -0.014222422
-0.031264085 -0.014703913 -0.06130285 -0.008651223 -0.007949971 0.049682237 0.054898873 -0.04483417
0.05931744 -0.06435227 0.08243075 0.08473896 0.00520383 0.066494115 -0.03084596 -0.01014654
0.06624735 -0.04455197 -0.092510365 0.03944576 -0.121620476 0.03921012 0.031849574 0.18552014
-0.07196607 -0.054940566 0.013147949 -0.10090375 0.052409835 -0.07984327 0.08298302 0.0834304
0.121854775 0.010815004 -0.15774436 0.060315125 0.015842153 -0.20407368 -0.037916653 -0.03656183
00000000: cc3d 4d3e 4950 833d 3956 383e 7c61 023d
00000010: 9f90 033e 7f12 103d c063 3e3d ca8a cb3d
00000020: bc5c 1f3d 28ea 1f3b 2759 883d ae56 933c
00000030: a2b9 ac3d bc71 6abd ab3a d93d afab 0abe
00000040: baee 35bc df8e a53d 0dea b53d 1c0f 81bc
00000050: 92d0 563c e066 92bd 3bd6 63bd 43d1 203d
00000060: 7f5b b5bd 72a4 67bd 0d81 023e 337c b93c
00000070: b5be c23d f625 4a3e 87e0 b53d 8aa3 413e
00000080: 84c4 483d c94e acbd 6ffd baba 9b1a 493d
00000090: 050a 46bd 042f 4f3e 17a4 77bd 041f 40ba
000000a0: 791a 8c3c 7d16 21bd ec18 bebd 2c9f cd3d
000000b0: 074e 79bd e82d 2bbd d233 a7bd 7999 47bb
000000c0: 0cd7 0e3d fba7 503d 24eb 203d 5351 073e
000000d0: dcba 41bd 0822 f23c 04bc a9bc afe0 a6bd
000000e0: dcf8 343d c038 21be 5251 44be 5293 bfbd
000000f0: ca78 a6bd 92f3 41bd 428c 46ba f5d4 28bc
00000100: 94b0 593b f541 be3d 71cd ad3d c70f d03d
00000110: 9f51 013e ae6d 353e c479 9abd b019 f93c
00000120: e646 9e3d 3b37 a7bc f36f 46be d9d0 03be
00000130: 43da 3ebe e282 53be b768 81be f552 6bbe
00000140: 736e ecbd ae91 7cbe 746f 8abe 16f7 3dbe
00000150: 6324 03be 1ba0 fcba e496 ef3d f077 9c3b
00000160: e1ae 693d 487c 073e 0c54 173e c2e2 2e3e
00000170: c76a 303e 712f 8c3d eefb ea3c 5b21 87bd
00000180: dcf6 08be d261 23be 9206 44be a239 c9bd
00000190: 5e77 71be 0e0b 95be 8b6f 85be ad31 2abe
000001a0: 4807 4abe e9c9 bc3c e056 af3d 0922 c13d
000001b0: e292 3e3e 812b 8b3e 0935 9b3e 1a2a e33d
000001c0: 29bb 023e 4c75 f13d 4199 7ebc 2dd2 983d
000001d0: 8579 93bd aab2 47bd 2cee bbbd f108 493d
000001e0: 6092 0dbe ecea d5bd d922 b2bd 2f9b a63c
000001f0: ab86 36be d8aa a9bd 4477 353e 538d 693e
00000200: 0d29 af3d c001 1ebe dcbf b5be 7dbd 8cbe
00000210: 2625 c8be a59a dfbe b041 20be 45e5 7cbe
00000220: f4aa b0be a89a c53b 7c8f 293d e071 e83d
00000230: cca2 f63d aa04 963e 020b d53e 906d bf3e
00000240: edeb be3e 8cbb 6e3e c5e0 353e 2421 823d
00000250: 98a5 6bbd dde6 87be aa5e 5ebe 011f 7dbe
00000260: fc3c b0be a60b 90be 25ad e2be 2cb9 b9be
00000270: e966 8abe 1224 91be c5c8 14be 10a7 763c
00000280: dbe4 083d 2c2f 0f3e b786 4b3e baaf a13e
00000290: 6c17 e23e 5f1a 573e aa4c 663e c808 923d
000002a0: 2de0 1c3e 91d7 88bd dace 58ba 03ce 07be
000002b0: 9ec2 1fbe a69f 8ebe 68d8 abbe bc6f 89be
000002c0: f471 92be 1856 6fbe 650d 6fbe 583c 14be
000002d0: 6981 d03d ec05 023e fd6d 9c3e 597d ae3e
000002e0: 0b1a 893e e266 173e 560d 833e 9203 8cbd
000002f0: b2f2 093e 8d04 743d 3cb9 01bd 42ed 6bbe
00000300: eba7 01bc a1d8 9bbd d35a 81bd 1dcc 0fbe
00000310: 9538 88bb c740 503c 9f57 c33b b59b 18bd
00000320: 31a6 e83d e8d9 a23c 0f72 233c 260d 043e
00000330: ee18 613d ae43 7f3c 2976 d83c 2026 c13d
00000340: 0c14 27be 0cbb b4bd 7ccd aabc 5bfb b73d
00000350: c560 0a3e 123a 01bd f903 51bd 2905 69bc
00000360: c50e 00bd aee8 70bc b218 7bbd dcbd 0dbc
00000370: 9840 02bc 9a7f 4b3d a4dd 603d 09a4 37bd
00000380: d8f6 723d 1fcb 83bd 74d1 a83d 9f8b ad3d
00000390: e484 aa3b 112e 883d abb0 fcbc ac3d 26bc
000003a0: b1ac 873d 207c 36bd 1376 bdbd e191 213d
000003b0: 2814 f9bd ca9a 203d b374 023d fef8 3d3e
000003c0: f262 93bd 5c09 61bd 7f6a 573c a0a6 cebd
000003d0: b2ab 563d de84 a3bd 00f3 a93d 8fdd aa3d
000003e0: ff8e f93d 6a31 313c bd87 21be fe0c 773d
000003f0: 67c7 813c b1f8 50be 7e4e 1bbd dcc1 15bd

conv1.1.weight f4 [32]
0.8251865 0.9805722 0.88507915 1.0750546 1.2002366 1.0249097 0.76473457 1.0378538
1.3240609 1.2760899 1.2805243 1.0636494 1.3166618 1.1858171 0.7533858 1.095488
0.97831357 1.0986502 1.2171835 1.0168835 1.0971076 1.1187325 0.81011367 1.614412
0.784097 1.3209144 0.87468493 0.85388 0.72480524 0.89008677 0.9523921 1.2480038
00000000: 6c3f 533f c806 7b3f 8c94 623f 649b 893f
00000010: 5aa1 993f 3e30 833f a5c5 433f 65d8 843f
00000020: d47a a93f ea56 a33f 38e8 a33f aa25 883f
00000030: 6088 a83f dbc8 973f e4dd 403f f338 8c3f
00000040: c272 7a3f 92a0 8c3f abcc 9b3f 3d29 823f
00000050: 066e 8c3f a032 8f3f 9c63 4f3f 0da5 ce3f
00000060: 95ba 483f b913 a93f 5aeb 5f3f e197 5a3f
00000070: d68c 393f badc 633f f8cf 733f 97be 9f3f

conv1.1.bias f4 [32]
-0.02414364 -0.15380284 -0.052305594 0.027548488 -0.1404508 -0.09425443 -0.12247886 -0.0007590023
-0.31154403 -0.1680407 -0.28325972 -0.22611713 -0.4195466 -0.06771925 -0.036268074 -0.108625904
-0.07266177 -0.08493418 -0.35907018 -0.17023893 -0.31782204 -0.12445767 -0.09429421 -0.42490166
-0.12074994 -0.18737529 -0.03958065 -0.13602573 -0.101221584 -0.20430765 -0.149838 -0.16664551
00000000: e2c8 c5bc 7e7e 1dbe 643e 56bd 5ead e13c
00000010: 56d2 0fbe 7708 c1bd 32d6 fabd c8f7 46ba
00000020: b382 9fbe dc12 2cbe 6b07 91be 408b 67be
00000030: d0ce d6be 64b0 8abd d58d 14bd 4277 debd
00000040: b2cf 94bd f9f1 adbd 0cd8 b7be 1d53 2ebe
00000050: 92b9 a2be aae3 febd 531d c1bd b68c d9be
00000060: bf4b f7bd 4fdf 3fbe 521f 22bd 544a 0bbe
00000070: 434d cfbd 0636 51be 226f 19be 1fa5 2abe

conv1.1.running_mean f4 [32]
-0.0025035157 -0.0022495058 -0.006890195 0.011338942 -0.013072826 0.00035884732 -0.003902433 -0.0004340093
0.0073315464 -0.0022513506 -0.009462543 -0.014799934 0.005892284 -0.0020655943 -0.0037405528 -0.004438613
-0.008724091 -0.0026916456 0.0021988272 0.0015960438 0.0053311987 0.011756292 0.00943413 0.0021283764
-0.0025038787 -0.01318551 -0.0034361244 0.010786357 0.0081626875 0.007316485 0.0050251437 0.007805321
00000000: 0612 24bb 726c 13bb 25c7 e1bb f8c6 393c
00000010: 682f 56bc ac23 bc39 f6bf 7fbb be8b e3b9
00000020: 783d f03b 658b 13bb c808 1bbc 6c7b 72bc
00000030: 1014 c13b ec5e 07bb 1024 75bb c971 91bb
00000040: 7def 0ebc 5266 30bb 331a 103b 5832 d13a
00000050: 56b1 ae3b 769d 403c 9c91 1a3c 3b7c 0b3b
00000060: 1d18 24bb 0a08 58bc 9a30 61bb 43b9 303c
00000070: cbbc 053c 20bf ef3b f6a9 a43b c7c3 ff3b

conv1.1.running_var f4 [32]
5.9326425 9.189462 10.035309 19.137178 16.578184 7.807364 9.296369 9.793096
24.276405 24.71203 15.667671 17.48953 11.053061 28.709929 7.098174 14.824665
19.97274 21.279259 22.888058 17.89013 10.328985 27.24506 19.830189 10.82752
13.5282345 27.580706 15.344873 9.847489 20.685411 23.409222 17.799927 9.662059
00000000: 35d8 bd40 0908 1341 a090 2041 f118 9941
00000010: 1fa0 8441 edd5 f940 edbd 1441 85b0 1c41
00000020: 1436 c241 3db2 c541 c8ae 7a41 8fea 8b41
00000030: 56d9 3041 efad e541 3e24 e340 d431 6d41
00000040: 2cc8 9f41 ec3b aa41 be1a b741 fc1e 8f41
00000050: 8643 2541 e2f5 d941 3aa4 9e41 863d 2d41
00000060: a673 5841 49a5 dc41 9a84 7541 518f 1d41
00000070: b97b a541 1646 bb41 4066 8e41 cb97 1a41

depth_conv.0.weight f4 [64, 1, 16]
-0.21071525 0.39075848 -0.023509026 0.88016415 -0.54978013 -0.0274449 -0.0660031 0.3359816
-0.07416079 -0.18673505 -0.034957 -0.06635265 0.19152209 0.38544703 -0.28902826 -0.18746439
-0.29654843 -0.13517004 0.56157845 0.40835032 -0.28505608 -0.5017576 0.27901042 -0.008436302
0.42285326 -0.5432298 -0.23107125 0.5023893 0.09794008 0.3126609 0.16017349 -0.6676375
-0.60068035 -0.28343064 0.3494464 -0.008260846 -0.7232792 0.38762254 0.34406012 0.6692294
0.42665288 -0.22504774 -0.58722925 -0.16280687 0.009196548 0.1839148 0.37867752 0.1306023
0.60654396 -0.13599607 0.0690563 0.15112752 0.12861331 0.21084784 -0.04398261 -0.1651358
-0.25884876 -0.1543828 0.10097879 -0.49437296 0.34250373 0.12601388 -0.4774836 -0.21550654
-0.28005406 0.31050706 0.16387917 0.72169757 0.06958975 -0.42257977 -0.30045286 -0.27913997
-0.51880074 0.38870072 0.53660244 1.00883 -0.5669652 0.09770016 0.23567143 -0.7114394
0.6345346 0.17217055 -0.056685593 -0.011776117 0.014316388 0.21307197 -0.15882176 -0.42980778
0.4455928 -0.42090297 -0.29232135 0.018393485 0.43551895 0.34409225 -0.21902345 -0.41336784
0.81354916 -0.061669864 -0.08565104 0.34798434 -0.30354154 -0.08571684 -0.16551676 -0.6111094
-0.38584632 -0.31871566 0.03668951 0.12523796 0.16230017 -0.43968925 0.4520881 0.014066395
0.12587827 0.12311738 -0.34598204 0.5158112 0.10030871 -1.2226633 0.23892039 -0.41647172
0.091839634 -0.17800955 0.25527728 0.43658537 0.6287979 -0.28141123 0.0994834 0.046670422
-0.7045518 -0.45214424 -0.15605068 0.3689715 0.44824988 -0.4979256 -0.01432803 -0.6750272
0.0014590491 0.009218931 0.33863404 0.48626485 0.13848521 0.34616137 -0.119656 0.76082593
0.13101225 -0.25632 -0.06577691 -0.3141622 -0.2672998 -0.15379849 -0.031294707 -0.028055755
0.33301362 -0.26634884 0.66848177 0.040889405 0.06705693 -0.4163049 0.51533186 0.19382632
-0.1040445 0.5889304 0.12358352 -0.42293933 -0.3507258 0.03346443 0.28613815 -0.12282149
-0.017695077 0.08946158 -0.68713564 0.27616835 -0.12505196 0.38814455 0.4305424 -0.69966793
0.18870981 0.1421468 0.53916943 -0.10211999 -0.04926383 -0.14610691 0.098778784 0.20149274
-0.044169653 0.07727414 -0.28086698 -0.68693686 0.57311934 -0.37462178 -0.15208168 0.22320303
-0.16083126 -0.21501419 0.14405513 0.7046129 -0.020171132 -0.07462045 -0.37159827 0.8604183
-0.31920865 -0.34509248 -0.26839253 -0.50003994 0.11669828 0.14650905 -0.12814167 0.075264394
-0.24471289 0.12657239 0.6997967 -0.20961745 -0.5463077 -0.0014623576 -0.12543818 -0.04684201
0.5721074 0.2342915 -0.68250257 -0.16463691 0.81802297 -0.015866999 0.119927764 -0.81299734
0.4269126 -0.60833085 -0.39367855 0.054412544 0.16432153 0.1258064 0.23037621 0.44829112
-0.7818162 -0.14266211 0.023944002 -0.118322454 -0.10909118 0.32051983 -0.38108873 -0.0837176
-0.93402624 -0.38641515 -0.3802851 -0.39740762 0.07412324 0.27623123 0.24961989 0.048345063
0.08532353 -0.065974355 0.3710659 0.061085407 -0.75817096 -0.37694493 0.49185383 0.32405156
00000000: bdc5 57be 7f11 c83e 0096 c0bc 7052 613f
00000010: 64be 0cbf 20d4 e0bc a22c 87bd c805 ac3e
00000020: 9de1 97bd 7937 3fbe 122f 0fbd e6e3 87bd
00000030: 5e1e 443e 5059 c53e 83fb 93be aaf6 3fbe
00000040: 32d5 97be 046a 0abe 9bc3 0f3f 4b13 d13e
00000050: dff2 91be 3073 00bf 74da 8e3e 6a38 0abc
00000060: 3980 d83e 1c11 0bbf f19d 6cbe 969c 003f
00000070: cf94 c83d 1715 a03e 8504 243e 4bea 2abf
00000080: 30c6 19bf d21d 91be a3ea b23e 8058 07bc
00000090: d328 39bf 7676 c63e a628 b03e 9e52 2b3f
000000a0: 3f72 da3e ea72 66be a854 16bf d8b6 26be
000000b0: 1ead 163c 2954 3c3e 05e2 c13e 9cbc 053e
000000c0: 7746 1b3f 8e42 0bbe 646d 8d3d 2cc1 1a3e
000000d0: 35b3 033e 7fe8 573e 1c27 34bd 5c19 29be
000000e0: d387 84be 8616 1ebe f8cd ce3d 741e fdbe
000000f0: a65c af3e c809 013e bb78 f4be bfad 5cbe
00000100: 3f63 8fbe c8fa 9e3e f1cf 273e 2cc1 383f
00000110: 1285 8e3d 605c d8be f5d4 99be 6feb 8ebe
00000120: 20d0 04bf c803 c73e c75e 093f 5721 813f
00000130: a224 11bf 0617 c83d da53 713e e420 36bf
00000140: dc70 223f 7a4d 303e 272f 68bd 9df0 40bc
00000150: 498f 6a3c 8a2f 5a3e 2ca2 22be c40f dcbe
00000160: bd24 e43e 9880 d7be 25ab 95be efad 963c
00000170: 57fc de3e dc2c b03e af47 60be f3a4 d3be
00000180: c244 503f 8a99 7cbd d069 afbd 012b b23e
00000190: cc69 9bbe 508c afbd 3a7d 29be aa71 1cbf
000001a0: a68d c5be b32e a3be bd47 163d 613e 003e
000001b0: 0432 263e f31e e1be 1778 e73e bd76 663c
000001c0: 3ce6 003e f724 fc3d 8f24 b1be 340c 043f
000001d0: a76e cd3d 3b80 9cbf 8ca7 743e c83b d5be
000001e0: 6b16 bc3d 2348 36be b4b3 823e 1e88 df3e
000001f0: e6f8 203f 2215 90be f4bd cb3d 7c29 3f3d
00000200: 825d 34bf 737f e7be c0cb 1fbe d5e9 bc3e
00000210: 0281 e53e 1bf0 febe 1dc0 6abc 95ce 2cbf
00000220: 903d bf3a 000b 173c 7161 ad3e b5f7 f83e
00000230: 11cf 0d3e 103c b13e 340e f5bd 7dc5 423f
00000240: 1328 063e 603c 83be 0bb6 86bd ded9 a0be
00000250: 85db 88be 5a7d 1dbe e12e 00bd 2fd5 e5bc
00000260: c380 aa3e e05e 88be 9f21 2b3f a67b 273d
00000270: 2555 893d ea25 d5be caec 033f 687a 463e
00000280: 4815 d5bd 25c4 163f 5b19 fd3d 818b d8be
00000290: 5592 b3be 0012 093d b380 923e d589 fbbd
000002a0: 44f5 90bc a237 b73d 1fe8 2fbf f065 8d3e
000002b0: 9f0d 00be e2ba c63e 0e70 dc3e 701d 33bf
000002c0: 253d 413e ee8e 113e 0207 0a3f 4924 d1bd
000002d0: dfc8 49bd 0d9d 15be 884c ca3d 1d54 4e3e
000002e0: 3deb 34bd e841 9e3d cccd 8fbe 18db 2fbf
000002f0: f3b7 123f 6dce bfbe 4dbb 1bbe 568f 643e
00000300: f3b0 24be ae2c 5cbe 3083 133e 8361 343f
00000310: ee3d a5bc 9bd2 98bd 2142 bebe 6044 5c3f
00000320: 516f a3be f6af b0be bf6a 89be 9e02 00bf
00000330: 82ff ee3d 7806 163e 9237 03be 3824 9a3d
00000340: 0496 7abe 319c 013e e025 333f f5a5 56be
00000350: d2da 0bbf 94ac bfba de72 00be 68dd 3fbd
00000360: a175 123f 1cea 6f3e 7db8 2ebf 9496 28be
00000370: f469 513f 82fb 81bc b09c f53d 9820 50bf
00000380: 4a94 da3e 92bb 1bbf 3c90 c9be b0df 5e3d
00000390: e743 283e 65d3 003e bee7 6b3e 6a86 e53e
000003a0: 1b25 48bf 0416 12be 3626 c43c 0b53 f2bd
000003b0: 326b dfbd 2d1b a43e 101e c3be 2274 abbd
000003c0: 581c 6fbf 35d8 c5be bbb4 c2be 0379 cbbe
000003d0: edcd 973d 2e6e 8d3e 5b9c 7f3e 7905 463d
000003e0: 1abe ae3d 901d 87bd 5afc bd3e b134 7a3d
000003f0: 7e17 42bf edfe c0be 44d4 fb3e 16ea a53e

depth_conv.1.weight f4 [64]
1.3642468 1.3924944 1.0477146 0.98449147 1.1894549 1.1890621 0.9585863 0.9930119
1.2063044 1.1034282 1.1914647 1.0396061 1.2567273 1.3380928 1.0600969 1.0073482
0.97989583 1.0338267 0.9637593 0.93923396 1.1178848 1.1238673 0.72905076 1.2079515
1.335323 0.97021854 0.9219274 0.94174254 1.3004864 1.3798103 0.98379195 0.7747745
0.97323585 1.0121161 1.0007311 1.1444117 0.90470296 1.1601721 0.9882545 1.0961552
1.0508107 0.9658357 1.0508915 0.9333311 1.0890129 0.9352561 1.1165382 0.75698996
1.2217788 1.096908 1.0223471 1.0627929 1.0553722 1.1904123 1.2089305 1.393466
1.2501211 1.1322137 1.1933112 1.2165489 1.4674903 1.3861477 1.1122638 1.1749488
00000000: a49f ae3f 423d b23f 831b 863f a207 7c3f
00000010: 0f40 983f 3033 983f e965 753f 0736 7e3f
00000020: 2f68 9a3f 233d 8d3f ea81 983f d011 853f
00000030: 71dc a03f a046 ab3f 41b1 873f c9f0 803f
00000040: 74da 7a3f 6f54 843f eeb8 763f a371 703f
00000050: d916 8f3f e2da 8f3f 12a3 3a3f 289e 9a3f
00000060: ddeb aa3f 3e60 783f 6f03 6c3f 0a16 713f
00000070: 5776 a63f a09d b03f cad9 7b3f 9f57 463f
00000080: fc25 793f 058d 813f f517 803f 157c 923f
00000090: 9d9a 673f 8580 943f 3ffe 7c3f d04e 8c3f
000000a0: f780 863f 0241 773f 9d83 863f c9ee 6e3f
000000b0: c664 8b3f f26c 6f3f b9ea 8e3f 18ca 413f
000000c0: 3f63 9c3f 7b67 8c3f 45dc 823f 9909 883f
000000d0: 7016 873f 6e5f 983f 3cbe 9a3f 185d b23f
000000e0: f803 a03f 61ec 903f 6cbe 983f e0b7 9b3f
000000f0: b9d6 bb3f 4a6d b13f a95e 8e3f b964 963f

depth_conv.1.bias f4 [64]
-0.27689204 -0.36491638 -0.13886802 0.057110205 -0.07939906 -0.14766422 0.12111775 -0.035535667
-0.1401771 -0.13367423 -0.21919407 -0.22479247 -0.077728696 -0.37592053 -0.032930057 -0.22308007
-0.041091364 -0.15982236 0.04997442 0.003272723 0.25028282 0.012720865 -0.17015623 0.20196399
-0.36582574 -0.12752965 0.22366226 0.13293077 -0.42769176 -0.25777513 0.046103355 -0.1881086
0.10655841 0.18626972 -0.0885808 -0.10757736 -0.5063352 -0.16511518 0.16878943 -0.003952226
-0.026152868 -0.094084725 -0.08082538 -0.24676776 0.17646125 0.06665853 -0.17281514 -0.06413309
-0.217649 -0.3490766 -0.30513617 0.02460121 0.07333732 0.13280399 -0.13230541 -0.330437
0.14818472 -0.23808964 0.108013906 0.21293773 -0.29532775 -0.061576836 -0.08855538 -0.18571448
00000000: cbc4 8dbe 52d6 babe 6b33 0ebe 64ec 693d
00000010: f99b a2bd 4a35 17be 950c f83d d98d 11bd
00000020: 968a 0fbe e6e1 08be 6974 60be ff2f 66be
00000030: 3930 9fbd a878 c0be abe1 06bd 1a6f 64be
00000040: 6b4f 28bd 79a8 23be fab1 4c3d 2e7b 563b
00000050: 1225 803e 2d6b 503c 6f3d 2ebe a6cf 4e3e
00000060: 834d bbbe 2297 02be b807 653e 011f 083e
00000070: 6afa dabe 1afb 83be dfd6 3c3d 8a9f 40be
00000080: 4c3b da3d 7dbd 3e3e da69 b5bd 8551 dcbd
00000090: 2f9f 01bf f413 29be 23d7 2c3e ad81 81bb
000000a0: 8a3e d6bc 7eaf c0bd c787 a5bd b0b0 7cbe
000000b0: 42b2 343e 4484 883d 74f6 30be 3658 83bd
000000c0: 61df 5ebe 2bba b2be cf3a 9cbe 7a88 c93c
000000d0: e031 963d c5fd 073e 127b 07be 0a2f a9be
000000e0: bcbd 173e c5cd 73be 6536 dd3d 590c 5a3e
000000f0: 3335 97be fe37 7cbd 865c b5bd f02b 3ebe

depth_conv.1.running_mean f4 [64]
0.03629407 0.00033874746 0.008841498 -0.009330958 0.028663632 0.014414416 -0.10534717 0.024543198
0.017186472 0.0111502195 -0.021819586 0.016553592 -0.00016268666 -0.000354261 -0.12537712 -0.19485766
-0.01178916 -0.009556683 -0.02526788 0.010310182 -0.023294175 -0.026972182 0.002147152 -0.0026831708
-0.019139923 -0.043727644 -0.07935303 0.061128147 0.017250447 -0.014028192 0.06099858 -0.17632578
0.10415323 -0.02435955 -0.09531131 -0.077410445 -0.11215677 -0.017600358 -0.024120029 0.019388529
-0.021234972 -0.05116823 -0.099124 -0.12385656 0.0010590379 -0.011123771 0.022492498 -0.03770492
-0.0010233425 -0.010153388 0.110759966 0.10663028 -0.024067435 0.02786333 0.0018485211 -0.0034778714
0.009772807 0.0018669626 0.049329717 -0.02339973 -0.009540967 -0.009027113 0.14924248 0.017701302
00000000: 17a9 143d ea99 b139 eedb 103c e0e0 18bc
00000010: fecf ea3c 712a 6c3c 42c0 d7bd d10e c93c
00000020: a5ca 8c3c 69af 363c fdbe b2bc 669b 873c
00000030: de96 2ab9 1bbc b9b9 dc62 00be c488 47be
00000040: 5227 41bc a293 1cbc 96fe cebc 0aec 283c
00000050: 6dd3 bebc c4f4 dcbc 3cb7 0c3b 23d8 2fbb
00000060: 54cb 9cbc c21b 33bd d783 a2bd 8261 7a3d
00000070: cf50 8d3c 80d6 65bc a6d9 793d bf8e 34be
00000080: 4a4e d53d ae8d c7bc 9332 c3bd 5e89 9ebd
00000090: 73b2 e5bd a02e 90bc 5e97 c5bc b1d4 9e3c
000000a0: f7f4 adbc c795 51bd 8601 cbbd 82a8 fdbd
000000b0: 6acf 8a3a 7a40 36bc 3042 b83c 7970 1abd
000000c0: ad21 86ba 655a 26bc 1fd6 e23d fa60 da3d
000000d0: 1229 c5bc a341 e43c 134a f23a 00ed 63bb
000000e0: 201e 203c dfb4 f43a f50d 4a3d cab0 bfbc
000000f0: b751 1cbc 75e6 13bc 05d3 183e 5202 913c

depth_conv.1.running_var f4 [64]
1.3090616 2.1569626 2.0043314 1.0268161 2.6743045 1.1992035 2.3059866 2.446431
4.8811336 1.9529561 2.253267 1.513183 1.2396035 2.2132568 1.785874 3.3550336
1.6979766 2.1769638 4.1576123 2.937389 2.0498827 5.3102646 2.8482995 2.0075092
2.7824326 1.2832273 1.9768226 2.696709 1.5272224 1.2347981 3.1421356 5.2483497
1.6662302 1.0639261 4.062274 2.192305 2.1836438 2.293525 3.7691264 2.6762404
0.91099125 1.6186975 2.432001 2.320923 1.6529948 1.15915 6.3623867 3.723915
1.1075236 1.0376081 3.6684 5.3287487 3.666977 2.435553 1.9267974 1.5937052
1.671586 0.75415343 1.3792717 1.199182 2.0693138 1.1888987 7.2610064 2.9345226
00000000: 558f a73f ad0b 0a40 f746 0040 b66e 833f
00000010: ce27 2b40 807f 993f 4995 1340 5392 1c40
00000020: 3f32 9c40 77fa f93f 8735 1040 fbaf c13f
00000030: 54ab 9e3f 00a6 0d40 8597 e43f dfb8 5640
00000040: 4c57 d93f 6053 0b40 290b 8540 2efe 3b40
00000050: 4731 0340 b0ed a940 8a4a 3640 087b 0040
00000060: 6013 3240 cb40 a43f 8608 fd3f e196 2c40
00000070: 067c c33f dd0d 9e3f c018 4940 7bf2 a740
00000080: 0847 d53f bb2e 883f 26fe 8140 ba4e 0c40
00000090: d2c0 0b40 1dc9 1240 5e39 7140 8647 2b40
000000a0: b936 693f 7b31 cf3f e8a5 1b40 018a 1440
000000b0: 5595 d33f 075f 943f ac98 cb40 a054 6e40
000000c0: 55c3 8d3f 58d0 843f 11c7 6a40 1c85 aa40
000000d0: c0af 6a40 1ae0 1b40 4ca1 f63f 88fe cb3f
000000e0: 88f6 d53f 3310 413f fa8b b03f cc7e 993f
000000f0: a36f 0440 d52d 983f 2a5a e840 38cf 3b40

point_conv1.0.weight f4 [128, 64, 8]
-0.009536662 -0.0069904467 0.06629281 -0.14536211 0.122888006 0.033437185 0.11824377 0.09753985
-0.074119665 -0.05720917 0.00891393 -0.009369922 -0.0015522413 -0.0016021038 -0.2096509 -0.02378289
-0.07009229 -0.054855775 -0.06722536 0.0840526 -0.059626065 0.016341893 -0.048366994 -0.19893481
0.050902754 0.005554395 0.03789812 0.03415927 0.03290876 -0.07173514 0.009625204 0.043804526
-0.14419343 -0.09827987 -0.05904217 -0.07436507 0.1042987 0.035249636 -0.046020016 -0.0009239367
-0.017789373 -0.19624072 -0.17206606 -0.072829634 -0.12206986 -0.11990877 0.07127851 0.02364876
-0.061545853 -0.026829286 -0.006799025 0.052866586 -0.037139457 0.09257644 0.04449374 0.11837584
0.079612225 0.07847886 0.14540409 0.119627155 -0.026280295 -0.15439327 -0.12154002 -0.15340716
0.096761025 -0.08455252 -0.2780989 -0.16266379 -0.08821959 -0.18952546 -0.09958266 -0.053709682
0.046695173 -0.0005326213 -0.13737606 -0.013803636 -0.098843746 -0.013864592 -0.009422466 0.02561439
0.08140665 0.04891003 0.018861972 -0.12343512 0.021478413 0.075791 -0.08305164 -0.12883267
0.07406089 0.07723017 -0.1291111 -0.057444163 -0.014849582 -0.081100814 -0.07709552 -0.04814902
0.14513087 0.03754297 0.0007917154 -0.16651925 -0.0099663725 -0.12691192 -0.12174041 0.031492498
0.16526979 0.03289817 -0.05853702 0.049472764 0.022618862 0.096475 0.023072481 0.06688491
-0.11478514 -0.04577652 0.027950121 -0.044044644 -0.06648221 -0.078593895 0.025680078 0.018510839
0.10134755 -0.08938162 -0.084677815 -0.025354864 -0.05766726 0.0024619144 -0.053897895 -0.0114979185
0.04241594 -0.012634183 0.0013186539 0.08548509 -0.073477514 -0.03798749 -0.07443192 0.027187
-0.027031599 -0.017004287 -0.018250095 -0.08793316 -0.0081713665 -0.020482719 -0.012128246 -0.10021097
0.046217065 0.07705408 0.101741314 0.028054263 -0.01941603 0.015243187 -0.06153249 0.08403334
-0.07766261 0.003954306 0.0069495095 0.1318616 0.06461202 0.04898551 -0.0064147855 -0.00062853174
0.018530775 -0.009169247 -0.08599305 0.009519737 -0.084390946 -0.03437382 -0.039372656 0.092750564
0.0049416944 -0.11152358 0.13396753 -0.06698896 0.07519904 -0.006108789 -0.10418862 -0.07536597
0.0126742 0.024216792 0.035903696 -0.1356314 0.027631536 0.022405187 -0.003546432 0.0941131
0.076923184 0.17628418 -0.055559907 -0.009390287 -0.00040441868 -0.14623412 0.028255425 -0.09164813
-0.041798353 -0.082010336 0.02812732 0.09943108 -0.04170001 0.0667005 0.0043321825 -0.11015255
0.042929158 0.022210905 0.100177765 0.0011540345 -0.07564205 -0.052347936 -0.058928374 -0.056916047
-0.01490773 0.062230576 -0.009650503 0.085655995 -0.10689679 0.15932703 0.032219265 0.06352835
-0.09627865 0.11342817 0.03850814 -0.04290102 0.023321327 -0.017113669 0.0110167675 0.034517746
0.16992699 0.07558653 0.05256858 0.0022061362 0.012659843 -0.013160714 0.05979156 -0.019348616
0.0779137 0.27398387 -0.0035585843 -0.002896176 0.07206352 0.15176888 0.008594485 0.04786795
0.13669126 -0.22628747 -0.017658653 -0.071766905 0.003812897 -0.053769402 -0.09541544 0.048341822
-0.052634962 -0.0150875505 -0.040827043 0.017542534 0.055095896 -0.050334103 -0.045520376 -0.1566974
00000000: a93f 1cbc 1e10 e5bb 86c4 873d ced9 14be
00000010: b5ac fb3d 6ef5 083d ca29 f23d f9c2 c73d
00000020: 0dcc 97bd 2a54 6abd bb0b 123c 4d84 19bc
00000030: 9374 cbba affd d1ba baae 56be 56d4 c2bc
00000040: 8c8c 8fbd 73b0 60bd 73ad 89bd c523 ac3d
00000050: 763a 74bd 6fdf 853c 781c 46bd 91b5 4bbe
00000060: 687f 503d a401 b63b 0f3b 1b3d 97ea 0b3d
00000070: 56cb 063d e0e9 92bd 08b3 1d3c 606c 333d
00000080: 71a7 13be f546 c9bd 34d6 71bd b74c 98bd
00000090: 8f9a d53d ec61 103d 7c7f 3cbd 5834 72ba
000000a0: 05bb 91bc 54f3 48be 1632 30be b427 95bd
000000b0: c3ff f9bd bb92 f5bd 78fa 913d 0bbb c13c
000000c0: 8117 7cbd 17c9 dbbc 5bca debb a28a 583d
000000d0: 8b1f 18bd b798 bd3d 113f 363d 086f f23d
000000e0: bc0b a33d 86b9 a03d cfe4 143e 15ff f43d
000000f0: c649 d7bc 4519 1ebe f9e9 f8bd c416 1dbe
00000100: a52a c63d df29 adbd fb62 8ebe 5691 26be
00000110: 79ac b4bd f612 42be fef1 cbbd affe 5bbd
00000120: 7043 3f3d 9c9f 0bba 4fac 0cbe a528 62bc
00000130: 976e cabd 5028 63bc b060 1abc 45d5 d13c
00000140: 88b8 a63d e255 483d 6c84 9a3c 8dcb fcbd
00000150: 7ff3 af3c 5038 9b3d fa16 aabd b6ec 03be
00000160: 3cad 973d da2a 9e3d b335 04be 924a 6bbd
00000170: a94b 73bc 2f18 a6bd 42e4 9dbd e837 45bd
00000180: 309d 143e a8c6 193d 1f8b 4f3a 0684 2abe
00000190: ff49 23bc 33f5 01be 0953 f9bd 47fe 003d
000001a0: 7c3c 293e 3bc0 063d 84c4 6fbd f4a3 4a3d
000001b0: 314b b93c af94 c53d 8002 bd3c f5fa 883d
000001c0: 7914 ebbd 2980 3bbd a7f7 e43c 2868 34bd
000001d0: d327 88bd d6f5 a0bd 075f d23c 0ba4 973c
000001e0: 4e8f cf3d b60d b7bd 906b adbd 01b5 cfbc
000001f0: 8134 6cbd 1258 213b 0ac4 5cbd c461 3cbc
00000200: 56bc 2d3d 9bff 4ebc afd6 ac3a cf12 af3d
00000210: 617b 96bd c598 1bbd c36f 98bd 45b7 de3c
00000220: 5f71 ddbc 934c 8bbc 3981 95bc 4d16 b4bd
00000230: 32e1 05bc 60cb a7bc 8db5 46bc 693b cdbd
00000240: 1b4e 3d3d 88ce 9d3d c05d d03d 0ed2 e53c
00000250: 5e0e 9fbc 8fbe 793c 7e09 7cbd ac19 ac3d
00000260: 930d 9fbd 1f93 813b b6b8 e33b ba06 073e
00000270: 4f53 843d 08a5 483d 1f33 d2bb 0dc4 24ba
00000280: dacd 973c 9c3a 16bc 201d b0bd acf8 1b3c
00000290: 29d5 acbd 90cb 0cbd 3945 21bd 02f4 bd3d
000002a0: f0ed a13b 7a66 e4bd c92e 093e 8231 89bd
000002b0: f401 9a3d 3c2c c8bb d860 d5bd 7959 9abd
000002c0: 73a7 4f3c 4b62 c63c c10f 133d f5e2 0abe
000002d0: 885b e23c 158b b73c 416b 68bb 5ebe c03d
000002e0: e789 9d3d d783 343e c992 63bd b8d9 19bc
000002f0: 2808 d4b9 66be 15be ec77 e73c 04b2 bbbd
00000300: c034 2bbd 09f5 a7bd 446b e63c 86a2 cb3d
00000310: a1cd 2abd 469a 883d fbf4 8d3b a997 e1bd
00000320: 7cd6 2f3d a5f3 b53c 002a cd3d f942 973a
00000330: 38ea 9abd ca6a 56bd e15e 71bd cd20 69bd
00000340: 8d3f 74bc 7de5 7e3d 251d 1ebc 696c af3d
00000350: b4ec dabd a026 233e 59f8 033d 271b 823d
00000360: be2d c5bd 074d e83d b6ba 1d3d fbb8 2fbd
00000370: 5e0c bf3c f731 8cbc ac7f 343c 7b62 0d3d
00000380: 5701 2e3e 1ccd 9a3d 2752 573d d394 103b
00000390: 3b6b 4f3c 09a0 57bc ffe7 743d fd80 9ebc
000003a0: 3891 9f3d 9d47 8c3e 2337 69bb c5cd 3dbb
000003b0: 0a96 933d 4d69 1b3e e2cf 0c3c 2f11 443d
000003c0: cbf8 0b3e e7b7 67be e1a8 90bc 87fa 92bd
000003d0: cce1 793b 4e3d 5cbd 2c69 c3bd 1302 463d
000003e0: c297 57bd c631 77bc 423a 27bd 5cb5 8f3c
000003f0: 3cac 613d 222b 4ebd 9373 3abd 4975 20be

point_conv1.1.weight f4 [128]
0.7496009 0.82552284 0.7296043 0.7676304 0.65500915 0.8527168 0.77270085 0.726176
0.8207531 0.77916527 0.9582623 0.70272547 1.1728055 0.8264065 0.7654378 0.720173
0.7793514 0.874344 0.9825303 0.7464483 0.75762725 0.6874841 0.84317416 0.7653124
0.7455956 0.80439717 0.74184877 0.7827644 0.86362946 0.821421 0.70454276 0.8464316
0.7939583 0.74586624 0.8332632 0.7091686 0.9049521 0.72836095 0.75779 0.87698454
1.0756044 0.6820627 0.7887696 0.8522136 0.72079355 0.679611 0.7240622 0.72265595
0.7173046 0.789093 0.8270736 0.7839315 0.89115894 0.7731986 0.82325727 0.8456317
0.7103894 0.97351575 0.68696284 0.5676352 0.9569794 0.86294454 0.82663715 0.8489525
0.8136132 0.69571555 0.7629785 0.6579088 0.7541455 0.75714177 0.77055734 0.8081522
0.70668256 0.7724088 0.70998645 1.0893465 0.76038873 0.8208809 0.87406254 0.93617046
0.8072509 0.74541354 0.8202859 0.800373 0.82561374 0.77253395 0.82150495 0.6622439
0.9330356 0.6985296 0.8464228 0.880447 0.80990714 0.7458028 0.9429299 0.9088148
0.8225835 0.816724 0.74232584 0.62907934 0.8282277 0.6971115 1.0261226 0.8338335
0.8986227 0.8750624 0.7439349 0.6505355 0.80570585 0.7370522 0.84362644 0.78892523
0.76451474 0.73759043 0.7156063 0.7260827 0.83402514 0.84274846 0.8243494 0.65177965
0.7514985 0.70052254 0.6547321 0.6978846 0.7020107 0.65396386 0.7404558 0.8310347
00000000: d8e5 3f3f 7755 533f 59c7 3a3f 6d83 443f
00000010: aeae 273f a64b 5a3f b9cf 453f ace6 393f
00000020: e01c 523f 6077 473f ae50 753f d1e5 333f
00000030: 7e1e 963f 608f 533f bbf3 433f 425d 383f
00000040: 9383 473f 02d5 5f3f 1b87 7b3f 3c17 3f3f
00000050: dcf3 413f f5fe 2f3f 43da 573f 83eb 433f
00000060: 5adf 3e3f f9ec 4d3f cde9 3d3f 3f63 483f
00000070: d216 5d3f a648 523f ea5c 343f beaf 583f
00000080: da40 4b3f 17f1 3e3f bd50 553f 138c 353f
00000090: f1aa 673f dd75 3a3f 87fe 413f 0f82 603f
000000a0: 68ad 893f a99b 2e3f ceec 493f ac2a 5a3f
000000b0: ed85 383f fdfa 2d3f 245c 393f fbff 383f
000000c0: 46a1 373f 0002 4a3f 18bb 533f bcaf 483f
000000d0: fe22 643f 58f0 453f fdc0 523f 527b 583f
000000e0: 14dc 353f 5438 793f ccdc 2f3f 8a50 113f
000000f0: 9afc 743f efe9 5c3f 7e9e 533f f354 593f
00000100: f448 503f 6a1a 323f 8f52 433f b66c 283f
00000110: ae0f 413f 0bd4 413f 3f43 453f 10e3 4e3f
00000120: 26e9 343f 95bc 453f acc1 353f b56f 8b3f
00000130: d6a8 423f 4025 523f 90c2 5f3f dea8 6f3f
00000140: ffa7 4e3f 6cd3 3e3f 42fe 513f 3fe5 4c3f
00000150: 6c5b 533f c9c4 453f 264e 523f d188 293f
00000160: 6cdb 6e3f d6d2 323f 2aaf 583f f964 613f
00000170: 1356 4f3f efec 3e3f db63 713f 16a8 683f
00000180: d594 523f d314 513f 1109 3e3f 580b 213f
00000190: bb06 543f e675 323f fc57 833f 1d76 553f
000001a0: 230c 663f 1704 603f 8572 3e3f 7f89 263f
000001b0: bd42 4e3f 74af 3c3f e7f7 573f 01f7 493f
000001c0: 3db7 433f bad2 3c3f f931 373f 8ee0 393f
000001d0: ac82 553f 5dbe 573f 9008 533f 08db 263f
000001e0: 3562 403f 7255 333f 869c 273f 91a8 323f
000001f0: f9b6 333f 2d6a 273f 838e 3d3f b1be 543f

point_conv1.1.bias f4 [128]
-0.21765532 0.09400613 -0.22959788 -0.047633518 -0.12209641 -0.053475946 -0.04236674 -0.18196785
-0.09065484 0.1441447 -0.119262785 -0.0639304 0.056973554 -0.13316792 0.049715094 -0.037797347
-0.07659786 -0.068079546 0.016017292 0.021483537 0.109475985 0.01353204 -0.029362058 -0.13505442
-0.15564579 -0.069416285 -0.11167604 -0.044102248 0.049642593 0.06826184 -0.067339316 -0.065358356
0.03704353 -0.20307693 0.13360877 -0.08950635 -0.075161114 -0.26097035 -0.045721468 -0.047420684
0.06075541 -0.094879635 0.00023201926 0.07801372 0.05109024 -0.045034625 0.049359836 0.05651014
-0.029131236 0.09821304 -0.019186743 -0.020332262 0.031577174 0.020548142 0.11146906 0.1342943
0.009020127 -0.10257926 -0.13892351 -0.2770849 -0.012474438 -0.0034453005 -0.037318688 0.04899619
-0.025476394 -0.0772011 0.060357396 -0.19582625 -0.030805446 -0.018631257 -0.075702794 -0.15736416
0.04137343 0.004409137 -0.037280485 -0.06515974 -0.051844627 0.019264255 0.08280291 0.029677331
-0.00204478 -0.05854413 0.10232355 0.0497851 -0.06843092 -0.03733349 -0.046547942 -0.07687021
0.045541074 -0.0459788 -0.05127462 -0.03457634 0.16148932 -0.19152074 -0.04889534 0.027351677
0.12845393 -0.1350645 -0.22332218 -0.2000838 0.13850304 -0.2104751 0.051815584 -0.06006516
0.011898328 -0.008932539 -0.117723115 -0.1332721 0.07597369 -0.21673222 0.12459727 -0.030178118
-0.16732101 -0.1112309 -0.2597548 0.026546977 -0.15281667 0.009330319 -0.04466369 -0.22594702
-0.04369643 0.09328826 -0.1781446 0.024496008 0.0045756456 -0.14990896 -0.036171116 0.011316877
00000000: 09e1 5ebe 4986 c03d b51b 6bbe 5d1b 43bd
00000010: af0d fabd 9809 5bbd bf88 2dbd c855 3abe
00000020: 3fa9 b9bd ab9a 133e 0c40 f4bd f1ed 82bd
00000030: 1a5d 693d 2c5d 08be 0ea2 4b3d 64d1 1abd
00000040: 57df 9cbd 4a6d 8bbd b236 833c 3efe af3c
00000050: f234 e03d 7db5 5d3c b388 f0bc b54b 0abe
00000060: 9c61 1fbe 202a 8ebd 68b6 e4bd 8fa4 34bd
00000070: 0856 4b3d ddcc 8b3d 32e9 89bd 9ada 85bd
00000080: f5ba 173d 66f3 4fbe bdd0 083e 1b4f b7bd
00000090: 12ee 99bd e89d 85be 6f46 3bbd 313c 42bd
000000a0: aada 783d 4150 c2bd 324a 7339 a8c5 9f3d
000000b0: 0044 513d 3a76 38bd 8a2d 4a3d 2d77 673d
000000c0: a1a4 eebc eb23 c93d 842d 9dbc d88f a6bc
000000d0: 1157 013d 9454 a83c e449 e43d 7284 093e
000000e0: 28c9 133c 1315 d2bd f741 0ebe 12de 8dbe
000000f0: 9661 4cbc 8dca 61bb 7bdb 18bd 3bb0 483d
00000100: dfb3 d0bc 9c1b 9ebd 5139 773d ad86 48be
00000110: b45b fcbc 94a0 98bc 110a 9bbd 1224 21be
00000120: 3077 293d 867a 903b 6cb3 18bd 7872 85bd
00000130: 085b 54bd 12d0 9d3c 9294 a93d e01d f33c
00000140: b701 06bb f8cb 6fbd 028f d13d 76eb 4b3d
00000150: 8325 8cbd 00eb 18bd 0ea9 3ebd 216e 9dbd
00000160: 4789 3a3d 4454 3cbd 5605 52bd ec9f 0dbd
00000170: 755d 253e 031e 44be 7b46 48bd a010 e03c
00000180: 6d89 033e 594e 0abe 92ae 64be c5e2 4cbe
00000190: bed3 0d3e c986 57be 943c 543d e306 76bd
000001a0: 34f1 423c c959 12bc d118 f1bd 7b78 08be
000001b0: 1898 9b3d 0def 5dbe da2c ff3d 1a38 f7bc
000001c0: 3356 2bbe 07cd e3bd 95fe 84be 0c79 d93c
000001d0: f97b 1cbe 32de 183c 46f1 36bd a85e 67be
000001e0: 07fb 32bd ea0d bf3d 8a6b 36be daab c83c
000001f0: 4cef 953b bc81 19be 2a28 14bd 6c6a 393c

point_conv1.1.running_mean f4 [128]
-1.0263112 -0.31274015 -0.7080782 -0.99274385 0.5798047 -0.23234858 -0.59835505 0.019621264
-0.2540222 -0.57790536 -0.9749386 0.35937688 -0.7151302 -0.35568562 -0.3565498 -0.70172364
-0.021681977 -0.7334069 -0.1947822 0.3775787 -0.61108005 -1.0744908 0.6378605 0.56903654
-1.1973823 -0.27204254 -0.6128253 -0.43811435 -0.6745188 -0.56214744 -0.42387205 -0.14915234
-0.28737205 0.2991143 -1.0779537 0.12517945 -0.46157128 -0.21497506 0.40767574 0.6554403
-0.7351487 -0.116208814 -0.80570453 -1.2357615 -0.096812785 -0.3184245 -0.80795515 -0.9876889
1.039263 -1.006708 0.16361487 -0.5143737 -1.7801604 -0.28192705 -0.39628866 -0.47033447
-0.4416031 -1.774818 -0.2628061 1.2834575 -0.7540483 -1.0919346 -0.7597662 -0.1088173
0.29670998 -0.33384082 -0.7804569 -0.2700307 0.6140776 -0.191452 0.3200637 -0.15685414
0.06882713 0.32195365 0.054580607 -1.056112 0.33250102 -0.43684465 0.10380896 -0.9019118
0.27272254 -0.50895286 -0.38106814 -0.75275695 -1.1174289 -0.015255781 -0.61107177 -0.7360286
-1.4006845 -0.74166954 -0.43596697 -0.1594148 -0.28453338 -0.86082387 -1.2673199 -0.17464049
-0.047259092 -0.22019745 0.22649696 0.5562045 -0.7034349 0.08334844 -0.4771874 -1.1442648
0.56286126 -0.21392582 0.43170753 -0.01588061 -0.7033538 -0.110821046 -0.67615837 0.3319137
0.049661793 -0.78881836 -0.07119887 -0.9958126 -0.5148289 -0.52191544 0.4443464 -1.0354146
0.016043704 -0.14385901 -1.0317249 -0.51279444 -0.048771445 -0.19616014 -0.45822382 0.33123127
00000000: 2a5e 83bf 7a1f a0be 9d44 35bf 7624 7ebf
00000010: 156e 143f c9ec 6dbe cc2d 19bf c6bc a03c
00000020: 330f 82be 9bf1 13bf 9395 79bf 3f00 b83e
00000030: c612 37bf 6d1c b6be b28d b6be 29a4 33bf
00000040: 679e b1bc 8ec0 3bbf fc74 47be ff51 c13e
00000050: be6f 1cbf ea88 89bf d34a 233f 61ac 113f
00000060: d343 99bf 2949 8bbe 1ee2 1cbf 8650 e0be
00000070: 44ad 2cbf e5e8 0fbf c205 d9be 64bb 18be
00000080: 6e22 93be 8225 993e 63fa 89bf 0b2f 003e
00000090: 1253 ecbe 6c22 5cbe e0ba d03e efca 273f
000000a0: b532 3cbf e3fe edbd a742 4ebf 6f2d 9ebf
000000b0: c845 c6bd 8908 a3be 26d6 4ebf 2ed9 7cbf
000000c0: 9206 853f cfdb 80bf a88a 273e ffad 03bf
000000d0: 4cdc e3bf be58 90be 59e6 cabe aecf f0be
000000e0: cd19 e2be 3c2d e3bf 858e 86be 5648 a43f
000000f0: 4f09 41bf 83c4 8bbf 0a80 42bf 9bdb debd
00000100: 5fea 973e 2fed aabe 06cc 47bf 7741 8abe
00000110: 3134 1d3f fe0b 44be 64df a33e 5f9e 20be
00000120: 3df5 8c3d 1cd7 a43e ea8f 5f3d ae2e 87bf
00000130: 933d aa3e 1aaa dfbe cb99 d43d b1e3 66bf
00000140: 4aa2 8b3e bc4a 02bf 5d1b c3be aeb4 40bf
00000150: e907 8fbf 62f3 79bc 336f 1cbf 5f6c 3cbf
00000160: a149 b3bf 0ede 3dbf 1037 dfbe a23d 23be
00000170: 5cae 91be f45e 5cbf 8a37 a2bf f5d4 32be
00000180: c092 41bd 717b 61be d2ee 673e 6b63 0e3f
00000190: 4f14 34bf 96b2 aa3d e851 f4be 4577 92bf
000001a0: ad17 103f 5f0f 5bbe c508 dd3e 0e18 82bc
000001b0: ff0e 34bf 25f6 e2bd b718 2dbf 98f0 a93e
000001c0: 2a6a 4b3d 00f0 49bf b7d0 91bd 93ed 7ebf
000001d0: d4cb 03bf 409c 05bf 5f81 e33e 7788 84bf
000001e0: 166e 833c c74f 13be 900f 84bf 7f46 03bf
000001f0: 91c4 47bd 34de 48be 509c eabe 2597 a93e

point_conv1.1.running_var f4 [128]
4.9254675 7.5435567 6.0309553 4.369182 4.4434123 8.708289 3.2905524 3.3903317
4.897078 6.1375184 7.8509207 7.9885426 12.547157 6.2792463 6.7580914 4.060492
3.232192 4.899875 8.440537 5.9645057 7.558808 4.8919263 11.092126 5.506666
9.350755 6.8012156 3.5533059 6.4633856 9.85274 6.813684 5.045088 9.0461645
4.081158 5.2458415 6.132548 4.534703 9.027919 7.286952 6.483732 9.075922
15.69901 3.552987 4.998927 9.790623 5.7238393 4.270599 6.16154 4.6895323
4.2418036 5.31089 6.664005 4.934065 8.234253 3.5912416 8.700977 6.0549355
5.3690233 8.026248 2.8887908 8.5597105 9.245266 4.920151 7.2437057 9.763636
7.5379863 4.3112216 7.259367 4.6302 8.111935 3.5952194 7.3195586 8.145245
4.984003 4.0763855 4.7783356 9.749286 4.8693085 7.242372 6.19495 7.034672
9.218707 4.7700934 9.8527 6.0539646 10.799267 7.2620316 6.737468 4.844586
8.423508 5.8497353 11.018748 7.487659 5.7086215 6.822651 8.201149 9.680429
8.043894 5.2936935 5.5108438 4.0089087 7.757937 6.4063306 10.407533 9.005485
16.118876 2.6631238 3.5491326 2.8388555 5.971448 6.258238 7.806468 6.485176
8.650809 5.422051 8.849483 5.1649585 6.2640386 7.8944254 4.07061 5.671625
9.9037485 5.4597125 6.9113245 5.4945936 4.3538303 4.2272573 3.6649954 9.83057
00000000: 6e9d 9d40 d164 f140 96fd c040 57d0 8b40
00000010: 6f30 8e40 2755 0b41 6998 5240 32fb 5840
00000020: ddb4 9c40 8d66 c440 be3a fb40 24a2 ff40
00000030: 28c1 4841 96ef c840 4942 d840 8def 8140
00000040: 3cdc 4e40 c7cb 9c40 710c 0741 3bdd be40
00000050: c1e1 f140 a98a 9c40 5979 3141 9c36 b040
00000060: b19c 1541 8fa3 d940 5d69 6340 0ed4 ce40
00000070: d3a4 1d41 b309 da40 5c71 a140 17bd 1041
00000080: d998 8240 efdd a740 d53d c440 491c 9140
00000090: 5b72 1041 b62e e940 bc7a cf40 fa36 1141
000000a0: 252f 7b41 2464 6340 36f7 9f40 64a6 1c41
000000b0: b129 b740 bfa8 8840 562b c540 a610 9640
000000c0: dbbc 8740 d0f2 a940 873f d540 dce3 9d40
000000d0: 80bf 0341 e7d6 6540 3437 0b41 08c2 c140
000000e0: 0acf ab40 836b 0041 f3e1 3840 93f4 0841
000000f0: 9cec 1341 e171 9d40 70cc e740 da37 1c41
00000100: 2f37 f140 87f5 8940 bc4c e840 992a 9440
00000110: 7cca 0141 1318 6640 d339 ea40 ec52 0241
00000120: f47c 9f40 c071 8240 20e8 9840 13fd 1b41
00000130: 60d1 9b40 83c1 e740 083d c640 081c e140
00000140: d37f 1341 9ba4 9840 a9a4 1d41 14ba c140
00000150: ccc9 2c41 9062 e840 5699 d740 d906 9b40
00000160: b0c6 0641 0831 bb40 cb4c 3041 e79a ef40
00000170: 07ad b640 2853 da40 e837 0341 0ae3 1a41
00000180: cab3 0041 f065 a940 d558 b040 fb48 8040
00000190: 0541 f840 a900 cd40 4185 2641 7716 1041
000001a0: 75f3 8041 9f70 2a40 fd24 6340 cfaf 3540
000001b0: 1a16 bf40 7c43 c840 96ce f940 9086 cf40
000001c0: b769 0a41 7181 ad40 7b97 0d41 5747 a540
000001d0: 0173 c840 229f fc40 7042 8240 f47d b540
000001e0: c175 1e41 f7b5 ae40 9229 dd40 b6d3 af40
000001f0: 9452 8b40 b145 8740 498f 6a40 044a 1d41

attention.0.weight f4 [1, 128, 1]
0.07265793 -0.1484347 0.08605314 0.018626913 0.026603946 -0.06223819 -0.026256207 0.048153255
-0.020121856 -0.07726041 -0.03842655 -0.010650081 -0.1437218 0.06529504 -0.059158266 -0.005181468
0.026276499 0.0048413402 -0.123388626 -0.080346204 -0.12766376 -0.022511508 -0.081708156 0.073678866
-0.020601565 -0.056000132 -0.014180726 0.027012436 -0.17098467 -0.0726776 -0.0037202951 -0.06608708
-0.0017732456 0.122786 -0.17490885 -0.0054383096 -0.021855827 0.10006294 -0.0069155404 -0.0808147
-0.19890422 -0.010317781 -0.01639717 -0.09214642 -0.04913899 -0.025572347 -0.025175842 -0.031647224
-0.06108459 -0.042407986 -0.05530723 -0.02045372 -0.10179562 -0.03951392 -0.11829919 -0.11451171
-0.015678411 -0.036655094 9.091804e-06 0.21979305 -0.087288074 -0.06770932 -0.081814945 -0.038537152
-0.032104913 -0.02029342 -0.07018176 0.07979677 -0.051396247 -0.01662149 -0.03787333 0.049053222
-0.057081714 -0.040388558 -0.004729582 -0.0641439 -0.03611681 -0.040295463 -0.07599353 -0.08757702
-0.05019488 -0.03343529 -0.07085725 -0.077714875 -0.047411773 -0.025541665 -0.068412445 0.025427712
-0.09901528 -0.002541422 -0.062441356 -0.04604486 -0.11977887 0.06626879 -0.05160177 -0.13061956
-0.112318665 0.026329339 0.1296615 0.08846424 -0.11627811 0.10329823 -0.14142546 -0.09164723
-0.10601566 -0.04075296 0.046929196 0.027570577 -0.06740661 0.15781927 -0.08828087 -0.04884073
0.064351514 0.0062906914 0.16216946 -0.059467714 0.076443575 -0.10207822 -0.045346662 0.057363868
-0.008380954 -0.023582019 -0.017264895 -0.06240311 -0.033553664 0.003974977 -0.03602162 -0.06363986
00000000: aecd 943d 44ff 17be a13c b03d 7897 983c
00000010: 85f0 d93c 79ed 7ebd 4217 d7bc 593c 453d
00000020: 97d6 a4bc b53a 9ebd 2865 1dbd ad7d 2ebc
00000030: cf2b 13be 68b9 853d f04f 72bd 4ec9 a9bb
00000040: d041 d73c 1ba4 9e3b 2db3 fcbd 8d8c a4bd
00000050: 4aba 02be 0e6a b8bc 9b56 a7bd f2e4 963d
00000060: 9dc4 a8bc 6560 65bd 4756 68bc 2f49 dd3c
00000070: 9b16 2fbe fed7 94bd 32d0 73bb aa58 87bd
00000080: 406c e8ba 3a77 fb3d 4e1b 33be d933 b2bb
00000090: fe0a b3bc cced cc3d c29b e2bb 2d82 a5bd
000000a0: 8cad 4bbe e90b 29bc 5c53 86bc 43b7 bcbd
000000b0: f745 49bd 197d d1bc 913d cebc 85a0 01bd
000000c0: d633 7abd ffb3 2dbd d689 62bd 8f8e a7bc
000000d0: 397a d0bd 59d9 21bd d946 f2bd 1e85 eabd
000000e0: 0370 80bc a723 16bd 0089 1837 6e11 613e
000000f0: 17c4 b2bd 2fab 8abd 988e a7bd 22d9 1dbd
00000100: 7180 03bd 633e a6bc 74bb 8fbd 7d6c a33d
00000110: df84 52bd ca29 88bc 1121 1bbd 08ec 483d
00000120: 84ce 69bd 796e 25bd 9cfa 9abb e15d 83bd
00000130: 38ef 13bd db0c 25bd 7fa2 9bbd 955b b3bd
00000140: 2699 4dbd 71f3 08bd 9b1d 91bd fa28 9fbd
00000150: d932 42bd c13c d1bc d31b 8cbd c74d d03c
00000160: 86c8 cabd fc8d 26bb 82c2 7fbd 8999 3cbd
00000170: a04e f5bd eeb7 873d 615c 53bd 22c1 05be
00000180: 5407 e6bd a0b0 d73c fcc5 043e bd2c b53d
00000190: 3823 eebd 068e d33d d6d1 10be 8bb1 bbbd
000001a0: bd1e d9bd 93ec 26bd d438 403d b1db e13c
000001b0: 7a0c 8abd 609b 213e 9acc b4bd 380d 48bd
000001c0: baca 833d 2522 ce3b c00f 263e 6b94 73bd
000001d0: 738e 9c3d 630e d1bd 6cbd 39bd 60f6 6a3d
000001e0: 4550 09bc 142f c1bc 1c6f 8dbc 679a 7fbd
000001f0: 916f 09bd 8640 823b 688b 13bd 9d55 82bd

classifier.0.weight f4 [256, 128]
-0.000110714915 0.034088127 0.004628268 -0.069910996 -0.12629251 0.11524237 -0.00514694 -0.045233935
0.030789504 0.1196014 0.027147079 0.15619725 -0.041252866 -0.07719702 0.12561522 0.0053139105
0.03258712 0.07423572 0.112212844 -0.0025909492 -0.059568584 -0.047447868 -0.045762125 -0.054436095
-0.02283068 0.030166956 0.102543876 -0.039007507 0.07465797 -0.057655524 0.030682057 -0.0030026822
-0.1202177 0.0947665 -0.022176165 -0.04148399 -0.024821373 0.04181913 0.06625204 -0.012744639
0.08995589 0.010165132 -0.1254703 0.1280708 -0.011737146 -0.0022400275 0.064097986 0.11033509
-0.043888636 0.06991964 -0.034414176 -0.068427525 -0.032949496 0.05650582 0.0845006 -0.025922634
0.13207208 -0.042333268 -0.012712512 -0.0722021 0.0025771395 0.033129208 -0.07643063 0.015002538
0.0705604 0.06893306 -0.022721644 0.12462755 -0.031822383 0.06530891 0.0069296006 0.03275734
0.057719328 -0.013418966 -0.11572465 0.030524382 -0.001910891 0.05889941 -0.06317111 0.07108997
-0.013579248 0.019675419 -0.02297651 -0.09331052 0.053325437 -0.042362623 0.0082741175 -0.018419895
0.026796974 -0.0576687 0.0017053875 0.011229718 -0.13366942 0.027355013 -0.081310146 0.015171293
-0.031444944 0.00904435 0.07347448 -0.12770066 -0.04562936 -0.0029240118 0.03750401 0.028635575
-0.053539913 0.03451348 -0.040973786 -0.007153941 -0.06659611 -0.15502167 0.01186973 -0.042858835
0.092776336 -0.11093589 -0.14362031 -0.14216681 -0.021212094 -0.036033656 0.1207387 0.013034827
0.050853778 0.0028092274 0.05332423 0.022999354 0.08678069 -0.0038552305 -0.00092680566 -0.06947057
-0.11038681 -0.042484462 -0.004843713 -0.026858862 0.014488317 0.08223363 -0.05391884 0.049852766
0.10490276 -0.025147453 -0.08168372 -0.07841721 -0.04448069 -0.06903487 -0.0034344017 -0.05286337
0.10955767 -0.10662047 0.07197126 0.007456418 -0.04655398 -0.023841886 0.060764853 0.08896829
0.09221819 -0.03655089 0.04455308 0.031956725 -0.11673889 -0.03910434 0.090751134 0.042381488
0.105290465 0.010561376 -0.03248802 0.021602495 -0.041027382 0.007636283 -0.087793596 0.008951593
-0.0574542 -0.04428444 -0.10064907 -0.15520558 0.04160619 -0.010567557 0.01959761 -0.01981896
0.044866066 -0.06864869 0.015153005 0.00070975244 -0.07596282 0.05548701 -0.07571451 0.0158225
0.1358687 0.015987515 -0.01489126 -0.017683307 0.013583398 0.029037936 -0.018475804 0.056695905
0.021211574 -0.020539593 -0.14488152 -0.09868249 -0.022762047 0.11498561 -0.03780576 -0.001851134
0.07831666 -0.01169785 0.065156944 0.029801637 -0.030418519 0.03503032 -0.0047849035 -0.013222078
0.0030901788 0.07621042 0.075091556 -0.037661705 0.07574143 0.1058124 0.01899932 0.11845401
-0.080404565 -0.028647602 0.10748419 0.14528859 0.005282614 -0.06395185 0.00028878078 -0.085807815
0.06479866 -0.030755978 0.061248567 -0.0021402133 -0.008097807 -0.034436807 -0.14133346 0.09393827
-0.07641546 0.023679767 -0.042622976 0.025950097 0.048914067 -0.06334874 0.0141424835 0.01286436
-0.09938756 -0.023554133 -0.09490404 0.018810365 -0.024067624 0.12162821 0.010354382 -0.0006098426
0.0036206625 0.078731366 -0.08172296 -0.07288755 -0.11293797 -0.052363213 -0.08680838 0.066242896
00000000: 9e2f e8b8 fe9f 0b3d baa8 973b 7f2d 8fbd
00000010: d352 01be 3104 ec3d a9a7 a8bb 3847 39bd
00000020: 453a fc3c 94f1 f43d 8d63 de3c 2cf2 1f3e
00000030: c4f8 28bd 7919 9ebd 47a1 003e 5020 ae3b
00000040: 127a 053d e608 983d d9cf e53d eacc 29bb
00000050: 30fe 73bd b258 42bd 1171 3bbd 62f8 5ebd
00000060: 6807 bbbc b120 f73c 8602 d23d 56c6 1fbd
00000070: 47e6 983d 3328 6cbd f058 fb3c a6c8 44bb
00000080: b334 f6bd f014 c23d caaa b5bc 1eeb 29bd
00000090: 3156 cbbc 894a 2b3d 26af 873d e4ce 50bc
000000a0: cb3a b83d a78b 263c 497b 00be fe24 033e
000000b0: 294d 40bc 6dcd 12bb ce45 833d 5df7 e13d
000000c0: 92c4 33bd 0732 8f3d e1f5 0cbd bb23 8cbd
000000d0: 0df6 06bd a672 673d a70e ad3d b45b d4bc
000000e0: e73d 073e a665 2dbd 2448 50bc b2de 93bd
000000f0: 3ae5 283b 7eb2 073d aa87 9cbd 35cd 753c
00000100: f981 903d c72c 8d3d be22 babc bb3c ff3d
00000110: 3058 02bd aec0 853d b411 e33b 902c 063d
00000120: 1a6b 6c3d 39db 5bbc 0c01 edbd 450e fa3c
00000130: dd76 faba 8240 713d db5f 81bd 9e97 913d
00000140: 7f7b 5ebc 582e a13c 3c39 bcbc 9619 bfbd
00000150: c66b 5a3d 6e84 2dbd 2a90 073c 52e5 96bc
00000160: 5485 db3c 0436 6cbd 4f87 df3a dafc 373c
00000170: a3e0 08be 9f17 e03c ef85 a6bd 0491 783c
00000180: 6acc 00bd c12e 143c ca79 963d f6c3 02be
00000190: dae5 3abd c7a0 3fbb ce9d 193d 2795 ea3c
000001a0: ab4c 5bbd 025e 0d3d 21d4 27bd 9b6b eabb
000001b0: 8b63 88bd 00be 1ebe 4279 423c bf8c 2fbd
000001c0: 8501 be3d 5b32 e3bd 3411 13be 2d94 11be
000001d0: fcc4 adbc 0798 13bd da45 f73d 0790 553c
000001e0: 0d4c 503d 041b 383b 826a 5a3d 2469 bc3c
000001f0: 13ba b13d 09a8 7cbb e0f4 72ba 9646 8ebd
00000200: 7b12 e2bd 3004 2ebd 02b8 9ebb 1e07 dcbc
00000210: 6860 6d3c 1b6a a83d 00da 5cbd 6a32 4c3d
00000220: 42d7 d63d 0802 cebc cb49 a7bd 3499 a0bd
00000230: 6231 36bd 2762 8dbd b313 61bb 4387 58bd
00000240: c65f e03d d55b dabd ab65 933d f854 f43b
00000250: 63af 3ebd 0f50 c3bc 91e4 783d 0235 b63d
00000260: e4dc bc3d 63b6 15bd 4a7d 363d 0ee5 023d
00000270: cd14 efbd df2b 20bd bbdb b93d 3698 2d3d
00000280: 87a2 d73d 9f09 2d3c 2812 05bd b7f7 b03c
00000290: 540c 28bd c939 fa3b 21cd b3bd b4a9 123c
000002a0: 1855 6bbd 9a63 35bd 1a21 cebd 36ee 1ebe
000002b0: 416b 2a3d 8c23 2dbc 2b8b a03c 5f5b a2bc
000002c0: 7bc5 373d af97 8cbd 4f44 783c ae0e 3a3a
000002d0: 6592 9bbd 5946 633d 3610 9bbd 309e 813c
000002e0: 2a21 0b3e 40f8 823c 79fa 73bc 95dc 90bc
000002f0: e78c 5e3c f7e0 ed3c 925a 97bc f739 683d
00000300: e5c3 ad3c a642 a8bc d25b 14be 0c1a cabd
00000310: 7977 babc 937d eb3d 36da 1abd c0a1 f2ba
00000320: 7c64 a03d 57a8 3fbc 0171 853d 9022 f43c
00000330: 4230 f9bc f47b 0f3d aeca 9cbb 6aa1 58bc
00000340: 9984 4a3b 3514 9c3d 9ac9 993d 2943 1abd
00000350: 531e 9b3d 2cb4 d83d 76a4 9b3c 0498 f23d
00000360: 26ab a4bd 60ae eabc ac20 dc3d 88c6 143e
00000370: c719 ad3b 30f9 82bd 8067 9739 02bc afbd
00000380: 29b5 843d f6f3 fbbc c7df 7a3d d242 0cbb
00000390: aaac 04bc 9c0d 0dbd b8b9 10be b562 c03d
000003a0: b57f 9cbd 12fc c13c 6e95 2ebd 4c95 d43c
000003b0: 1e5a 483d fcbc 81bd e0b5 673c 09c5 523c
000003c0: b48b cbbd 99f4 c0bc 0d5d c2bd 3218 9a3c
000003d0: 7729 c5bc 3618 f93d 6da5 293c d8dd 1fba
000003e0: a348 6d3b e93d a13d 5e5e a7bd 1146 95bd
000003f0: 064c e7bd cf7a 56bd 98c8 b1bd 5baa 873d
