models/model_b_lr3e-4_wd1e-3.pth (torch, 462591 bytes, 20 tensors)

conv1.0.weight f4 [32, 6, 64]
-0.016800625 0.053588495 -0.073171146 -0.03047356 0.07277194 -0.009252264 -0.013741669 0.037293456
0.069494635 -0.11310101 -0.03878669 0.0182787 -0.027024362 -0.06638108 -0.019416075 0.09641649
-0.035108272 0.08189359 0.033076953 0.07982911 -0.12856527 0.03261434 0.03279338 0.16656244
0.014735013 -0.09647637 -0.031650376 0.04871403 0.08163123 0.0147238085 -0.042217746 -0.06303492
-0.05036583 -0.11594373 -0.072736576 0.040742014 0.08339726 -0.02543787 -0.104798 0.13212013
-0.0042072595 -0.123164035 0.06268674 0.13107695 -0.043916214 0.033512507 0.08173717 0.14746237
0.12131663 -0.009116737 0.055511285 0.07414954 -0.008150765 0.007930435 -0.039942008 0.053760443
0.034909327 -0.13082387 0.04433574 0.016663382 -0.003697208 -0.038239416 0.04954076 -0.061528746
0.012038901 0.08304967 0.15924652 0.047710884 0.026427321 0.03811471 -0.06782073 -0.051028337
-0.066055976 -0.021888476 -0.1353081 -0.2037948 -0.09256063 -0.06171722 -0.1224709 -0.042966824
-0.066170245 0.061117653 0.006089511 0.09207762 0.13167691 0.11317968 0.069433 0.16218746
0.032945674 -0.09724801 -0.12891151 -0.18469036 -0.0049381927 -0.057408344 -0.22919492 -0.123652585
-0.027437426 0.007477268 -0.12391632 -0.17803486 -0.13476963 0.10362185 0.10625032 -0.05836341
-0.028648693 0.1302701 0.054165844 -0.0068230336 0.20522726 0.0051091304 0.004589227 -0.005466428
0.049824856 -0.078688234 -0.0150220245 -0.04755392 -0.13770509 -0.08346466 -0.15962455 -0.049786214
0.009352185 -0.089380376 0.03118386 0.08405585 0.042426392 0.16623372 0.1035458 0.114730954
-0.22986485 -0.25128222 -0.32961792 -0.22310632 0.029172936 -0.042478964 0.07579328 0.026960839
0.066505075 0.13560021 0.40059924 0.17346661 0.18824835 0.12173736 0.032828253 -0.010688596
0.08789861 -0.02984548 -0.15900482 -0.17489657 -0.12253318 -0.22501078 -0.2714617 -0.15071778
-0.14130506 -0.17321664 -0.078159355 0.0035947103 0.15894137 0.16279519 0.22347364 0.18249315
0.37792796 0.29562208 0.12505448 0.08028062 0.089315 0.064986005 -0.1687025 -0.03402857
-0.16041829 -0.057935003 -0.34570894 -0.172804 -0.1841902 -0.28696594 -0.088967256 -0.23225884
-0.033641625 -0.04749769 0.03657445 0.22556911 0.13890477 0.28509128 0.090714395 0.16039485
0.032619793 0.06309622 -0.013845498 0.02283028 -0.09564425 -0.07097119 -0.16967903 -0.19436513
-0.04502955 0.022080738 0.024159651 0.09068377 0.05833615 0.21120392 0.06899018 0.08990211
0.06572005 0.15256667 0.12610304 -0.008733024 -0.07084379 -0.016194668 -0.045485597 -0.03910243
0.005803862 -0.018915229 -0.050561737 -0.02762377 -0.0082218945 -0.004388266 0.049770217 0.045614984
-0.1421999 0.05176086 0.018284183 -0.04916591 -0.026053227 0.06218038 0.07460301 -0.04799909
0.051941995 0.092727005 -0.086291 -0.010762145 -0.06350378 0.03444027 -0.11381069 0.10378005
0.124206565 -0.07520533 -0.04839825 0.1251757 -0.13001122 -0.08787005 0.066907346 -0.17460492
0.008776271 0.03420546 0.05743045 0.09283991 0.110983096 0.004716238 0.009578025 0.041101385
-0.013579934 -0.050499476 -0.0125398375 -0.039813075 0.09638765 -0.06362497 -0.06694722 -0.22233579
00000000: 77a1 89bc 9c7f 5b3d c1da 95bd b0a3 f9bc
00000010: 7409 953d cf96 17bc bd24 61bc 06c1 183d
00000020: 3453 8e3d 81a1 e7bd cbde 1ebd 36bd 953c
00000030: 3262 ddbc cef2 87bd 760e 9fbc 0276 c53d
00000040: b1cd 0fbd d4b7 a73d b37b 073d 727d a33d
00000050: 9da6 03be 9d96 053d 5a52 063d 588f 2a3e
00000060: 206b 713c 6795 c5bd d3a3 01bd 5d88 473d
00000070: 462e a73d 213c 713c 84ec 2cbd 7418 81bd
00000080: 674c 4ebd e873 edbd eaf6 94bd 19e1 263d
00000090: 2fcc aa3d 1463 d0bc 55a0 d6bd 804a 073e
000000a0: 0ddd 89bb 6d3d fcbd e861 803d 0939 063e
000000b0: 7de1 33bd 6944 093d d165 a73d 6000 173e
000000c0: da74 f83d 5e5e 15bc cd5f 633d b7db 973d
000000d0: c98a 05bc a8ee 013c 3b9a 23bd e933 5c3d
000000e0: 15fd 0e3d b1f6 05be 6599 353d a581 883c
000000f0: db4c 72bb efa0 1cbd 41eb 4a3d 9105 7cbd
00000100: d03e 453c f215 aa3d 8511 233e 7d6c 433d
00000110: 1c7e d83c 2c1e 1c3d 98e5 8abd 1703 51bd
00000120: 5b48 87bd 764f b3bc 358e 0abe 96af 50be
00000130: 6d90 bdbd 32cb 7cbd 06d2 fabd fbfd 2fbd
00000140: 4484 87bd 8156 7a3d 858a c73b 3193 bc3d
00000150: 50d6 063e c0ca e73d e432 8e3d 7814 263e
00000160: 0bf2 063d f729 c7bd 6101 04be 781f 3dbe
00000170: 90d0 a1bb 0325 6bbd 13b2 6abe 913d fdbd
00000180: 74c4 e0bc df03 f53b d7c7 fdbd c54e 36be
00000190: 0d01 0abe b137 d43d c599 d93d 790e 6fbd
000001a0: aab0 eabc 8665 053e 01dd 5d3d c193 dfbb
000001b0: 1827 523e 7e6a a73b 3a61 963b b91f b3bb
000001c0: 2615 4c3d 4c27 a1bd f01e 76bc e6c7 42bd
000001d0: 9002 0dbe 85ef aabd 9e74 23be a1ec 4bbd
000001e0: e839 193c 0f0d b7bd 4b75 ff3c 7925 ac3d
000001f0: 4cc7 2d3d 2c39 2a3e d20f d43d 10f8 ea3d
00000200: b161 6bbe 10a8 80be aec3 a8be fc75 64be
00000210: 15fc ee3c 6cfe 2dbd 8239 9b3d fadc dc3c
00000220: d033 883d c8da 0a3e 581b cd3e 3ba1 313e
00000230: 2dc4 403e 7051 f93d eb76 063d 391f 2fbc
00000240: 3004 b43d 827e f4bc 29d2 22be 1618 33be
00000250: adf2 fabd 3a69 66be 07fd 8abe c355 1abe
00000260: 46b2 10be b45f 31be 0312 a0bd 3b95 6b3b
00000270: 87c1 223e c8b3 263e 46d6 643e 7cdf 3a3e
00000280: c67f c13e c75b 973e 480e 003e 2a6a a43d
00000290: c8ea b63d 6217 853d 59c0 2cbe 8b61 0bbd
000002a0: b144 24be 414d 6dbd c300 b1be 88f3 30be
000002b0: 5b9c 3cbe 33ed 92be 7734 b6bd 43d5 6dbe
000002c0: cdcb 09bd f08c 42bd 17cf 153d 97fb 663e
000002d0: 0d3d 0e3e 7cf7 913e 78c8 b93d 8c3e 243e
000002e0: 559c 053d 9738 813d 3ad8 62bc 9106 bb3c
000002f0: 22e1 c3bd 5859 91bd 57c0 2dbe a707 47be
00000300: e870 38bd aae2 b43c 76ea c53c 6ab8 b93d
00000310: e3f1 6e3d d745 583e b94a 8d3d 991e b83d
00000320: 3c98 863d 703a 1c3e 2821 013e f514 0fbc
00000330: 8d16 91bd aeaa 84bc 1b4f 3abd df29 20bd
00000340: 532e be3b 1cf4 9abc d319 4fbd 3f4b e2bc
00000350: 20b5 06bc 71cb 8fbb dbdb 4b3d c7d6 3a3d
00000360: da9c 11be 3203 543d b6c8 953c 3162 49bd
00000370: 946d d5bc dbb0 7e3d 77c9 983d b29a 44bd
00000380: 21c1 543d a8e7 bd3d 56b9 b0bd b553 30bc
00000390: 450e 82bd 3e11 0d3d 9415 e9bd a38a d43d
000003a0: 0360 fe3d 4105 9abd 3e3d 46bd 0f2e 003e
000003b0: a921 05be 36f5 b3bd b806 893d a2cb 32be
000003c0: 59ca 0f3c 061b 0c3d 313c 6b3d da22 be3d
000003d0: 1b4b e33d ac8a 9a3b 26ed 1c3c ed59 283d
000003e0: 5f7e 5ebc 8ad8 4ebd e473 4dbc 0913 23bd
000003f0: e366 c53d cf4d 82bd a01b 89bd feab 63be

conv1.1.weight f4 [32]
0.8951441 1.0846804 0.9890345 0.8781145 1.1845521 1.1095049 1.1905992 1.2092819
1.0470184 1.0172296 1.0272783 1.1578317 1.0278605 0.81773347 1.1826481 1.1028852
1.062328 1.0490324 1.1720169 1.1743455 1.0794387 1.0133611 1.0333787 1.1385542
1.1633732 1.0228794 0.98908067 1.0685811 1.0894488 1.0136409 1.0418549 1.1482785
00000000: 2a28 653f cfd6 8a3f 5d31 7d3f 1dcc 603f
00000010: 679f 973f 4204 8e3f 8e65 983f c0c9 9a3f
00000020: b304 863f 9434 823f db7d 833f d433 943f
00000030: ef90 833f fb56 513f 0361 973f 582b 8d3f
00000040: 5dfa 873f b246 863f a604 963f f450 963f
00000050: 0c2b 8a3f d1b5 813f c145 843f 25bc 913f
00000060: 6ae9 943f b6ed 823f 6434 7d3f 44c7 883f
00000070: 0f73 8b3f fcbe 813f 805b 853f cafa 923f

conv1.1.bias f4 [32]
-0.11136354 -0.16153881 -0.09176821 0.06762344 -0.12032884 -0.03816644 -0.2951557 -0.21687469
-0.002958473 -0.006447902 0.063107334 -0.13242693 -0.033521146 -0.17346734 0.09279408 -0.04014731
-0.05599645 -0.06070943 -0.07984229 -0.22428201 -0.19581099 -0.19055875 0.015038693 -0.11565717
-0.1730894 -0.010303152 -0.081369415 -0.11695808 -0.14328243 -0.020866565 -0.16543959 -0.19182941
00000000: 9112 e4bd 6e6a 25be f9f0 bbbd 287e 8a3d
00000010: f86e f6bd 6a54 1cbd a61e 97be 6614 5ebe
00000020: f1e2 41bb ec48 d3bb 6b3e 813d ed9a 07be
00000030: 784d 09bd 6ca1 31be d30a be3d 8171 24bd
00000040: 895c 65bd 74aa 78bd 5b84 a3bd 2faa 65be
00000050: ad82 48be d521 43be da64 763c abdd ecbd
00000060: 593e 31be 8dce 28bc 02a5 a6bd b887 efbd
00000070: a1b8 12be 5cf0 aabc ff68 29be ee6e 44be

conv1.1.running_mean f4 [32]
0.0034692173 -0.01171872 0.00021703367 -0.0014047078 0.0010643844 -0.001015278 -0.00024438917 -0.010213053
-0.0048309574 -0.0026775156 0.0011966447 -0.00022197887 -0.0035779488 -0.0025535584 -0.008401401 0.0027760926
0.0038958667 -0.004747439 0.0051396126 -0.0016424637 0.0048202137 -0.0053395284 -0.008241225 -0.0020551737
-0.0037791042 0.0009943522 0.002877513 -0.007134745 -0.00031943142 0.0024376062 3.7549937e-05 0.0011731137
00000000: cf5b 633b e0ff 3fbc 8893 6339 2c1e b8ba
00000010: d082 8b3a 1413 85ba 5c21 80b9 a654 27bc
00000020: 024d 9ebb 4279 2fbb bcd8 9c3a 00c3 68b9
00000030: 057c 6abb 9a59 27bb 08a6 09bc 1bef 353b
00000040: cc51 7f3b 6890 9bbb 326a a83b f047 d7ba
00000050: e2f2 9d3b 36f7 aebb 3406 07bc 18b0 06bb
00000060: d9aa 77bb ec54 823a a894 3c3b 94ca e9bb
00000070: 5c79 a7b9 3fc0 1f3b f07e 1d38 2ac3 993a

conv1.1.running_var f4 [32]
3.7098334 7.771434 6.6536493 11.594053 10.496046 8.094724 6.404318 8.495737
6.1577883 12.947595 4.7568994 13.132595 5.528565 3.3344889 7.0511637 16.551432
14.285255 7.8080955 4.938529 3.147161 17.873827 8.026529 6.0499506 4.712659
14.055688 6.665891 3.176447 8.190635 6.000232 10.367976 7.615034 6.2275963
00000000: e96d 6d40 96af f840 b2ea d440 3e81 3941
00000010: ceef 2741 fd83 0141 2cf0 cc40 8aee 0741
00000020: 9a0c c540 5929 4f41 8538 9840 1c1f 5241
00000030: 01ea b040 4468 5540 22a3 e140 5569 8441
00000040: 6890 6441 ebdb f940 6e08 9e40 166b 4940
00000050: 99fd 8e41 aa6c 0041 3299 c140 1ace 9640
00000060: 19e4 6041 fb4e d540 e84a 4b40 d70c 0341
00000070: e701 c040 3be3 2541 5cae f340 7848 c740

depth_conv.0.weight f4 [64, 1, 16]
0.16925679 0.4273716 -0.6452905 -0.22551274 0.16488136 0.600814 -0.26544848 -0.5550045
-0.1490288 0.2214823 -0.08392598 0.18446064 -0.46265155 0.3778277 -0.31152147 0.36812562
0.017647915 0.37102535 -0.088400796 0.08176529 -0.065869436 -0.056115784 -0.011668693 0.12619992
-0.14291777 -0.0012341556 1.0006294 -0.9540986 -0.2705295 0.05620763 0.23437601 0.16085218
-0.406822 -0.24993 0.03932282 0.15181428 -0.3835265 0.7022442 -0.4847898 0.1835538
-0.42784032 -0.46551317 0.46423718 -0.019399863 0.07442282 0.36510384 0.31282908 0.19316661
0.23468216 0.14553961 -0.08526156 -0.3861287 0.45003286 -0.36805496 0.42948976 -0.5428444
-0.3533323 -0.0470864 0.14189076 0.24530861 0.05246426 0.32819426 0.24018808 0.23890722
0.41015205 0.051702525 -0.35244256 -0.16162181 0.1760969 -0.0041786265 -0.44877484 -0.33361003
0.0066412757 0.37782198 0.2437342 0.51371366 -0.61857504 -0.12320675 -0.7726047 -0.38606834
0.16088317 -0.30072007 -0.44608614 0.26817548 -0.28171295 0.00987741 0.085243955 -0.10220965
-0.25789595 0.41116583 0.41444266 0.37422875 -0.18899474 0.15288946 -0.48392758 -0.1364857
0.32727605 0.8448865 0.16131854 -0.3756316 -0.39214894 -0.2842719 -0.15872698 -0.40556833
-0.047552824 0.24591267 -0.64851564 -0.4255429 -0.5395611 -0.5116868 0.6604755 -0.054304518
-0.21106693 -0.27402142 -0.0690072 -0.12038646 0.43262565 -0.050153725 0.4663552 -0.10334894
-0.093750805 0.22579035 0.47586295 0.33832204 0.10417413 -0.22518942 -0.60302305 -0.72701615
-0.4429359 -0.038927466 -0.39796823 0.0047675865 0.5285079 0.02710772 0.3657438 -0.29200864
-0.106453955 -0.36720213 0.1696279 0.03947352 0.2737147 -0.09789269 -0.014580967 -0.23646554
0.35795796 0.4061648 -0.006428657 0.3136062 -0.2196466 -0.005025667 0.3445868 0.52825576
-0.064719506 -0.032256342 -0.19268109 -0.18657835 0.43667695 0.21199614 -0.015922613 0.25059745
-0.21760897 -0.052738544 -0.08035452 -0.10137611 0.032898903 -0.016298471 -0.2691198 0.34790617
0.41543788 0.0067530395 0.20169578 -0.7133205 -0.35121918 -0.1509811 0.051076815 -0.1576091
0.0072824005 0.06828669 -0.0862372 0.028169582 0.18182355 -0.66812557 0.15546204 -0.4997967
0.3156693 0.040016234 -0.2157501 0.4199625 -0.64438343 0.10879264 0.49808684 1.0450865
-0.20617008 0.6276527 0.31473604 -0.70031047 0.5241193 -0.11113214 -0.0026672257 -0.08705075
0.25134745 0.10509121 0.07434525 0.3254617 0.30711854 0.3942987 -0.099524245 0.52103925
0.26794797 0.21971573 -0.320375 0.46034545 0.20988446 0.26334935 0.3301891 -0.26413345
-0.3045961 0.15933868 -0.62166005 0.39168486 0.29663214 0.1450139 -0.13319597 -0.27967334
0.37900224 -0.7734296 0.4974949 0.21994492 0.29397365 0.44319013 -0.26862475 -0.14408936
0.18320797 -0.16902195 -0.34916002 -0.009637494 0.53763896 -0.42136043 0.03740941 0.39157516
-0.18092197 -0.6312668 -0.3116187 0.06642471 -0.16679615 -0.02646508 0.46626568 -0.22698422
0.3883184 0.3438236 0.09214275 1.017639 -0.21866998 0.15310133 0.16554216 -0.13997076
00000000: a751 2d3e 73d0 da3e c231 25bf d0ec 66be
00000010: a9d6 283e f2ce 193f dde8 87be c614 0ebf
00000020: 019b 18be 42cc 623e 62e1 abbd 40e3 3c3e
00000030: aae0 ecbe a272 c13e be7f 9fbe f67a bc3e
00000040: 5c92 903c 09f7 bd3e 7a0b b5bd 8f74 a73d
00000050: 8ee6 86bd aad9 65bd 0c2e 3fbc 8d3a 013e
00000060: 0959 12be 64c3 a1ba a014 803f ce3f 74bf
00000070: d882 8abe f939 663d 4400 703e 6fb6 243e
00000080: f94a d0be a6ed 7fbe f710 213d 3475 1b3e
00000090: 965d c4be 47c6 333f 5e36 f8be 87f5 3b3e
000000a0: e30d dbbe be57 eebe 7fb0 ed3e 76ec 9ebc
000000b0: fe6a 983d e4ee ba3e 222b a03e 78cd 453e
000000c0: 8550 703e 5608 153e 9d9d aebd a9b2 c5be
000000d0: b56a e63e b371 bcbe 15e6 db3e daf7 0abf
000000e0: f9e7 b4be abdd 40bd d04b 113e 2e32 7b3e
000000f0: c4e4 563d 1409 a83e ddf3 753e 18a4 743e
00000100: 73ff d13e 07c6 533d 5a73 b4be 3080 25be
00000110: bf52 343e dcec 88bb d1c5 e5be efce aabe
00000120: 0f9f d93b e271 c13e 7595 793e bd82 033f
00000130: ef5a 1ebf d253 fcbd 6cc9 45bf c0aa c5be
00000140: 8fbe 243e fbf7 99be 6765 e4be 4c4e 893e
00000150: ae3c 90be dcd4 213c 6294 ae3d 4b53 d1bd
00000160: f00a 84be 5484 d23e d431 d43e e99a bf3e
00000170: d687 41be 0e8f 1c3e 5bc5 f7be e8c2 0bbe
00000180: ba90 a73e 7b4a 583f b030 253e c952 c0be
00000190: bfc7 c8be 168c 91be 5389 22be a7a6 cfbe
000001a0: c0c6 42bd 88d0 7b3e 1f05 26bf c2e0 d9be
000001b0: ad20 0abf e8fd 02bf ec14 293f 6a6e 5ebd
000001c0: ee21 58be 894c 8cbe a653 8dbd 2d8d f6bd
000001d0: 1c81 dd3e fe6d 4dbd 1cc6 ee3e 9ca8 d3bd
000001e0: 6c00 c0bd 9635 673e 4fa4 f33e 8c38 ad3e
000001f0: 3f59 d53d 0e98 66be b85f 1abf bb1d 3abf
00000200: 7fc8 e2be 6872 1fbd 7ec2 cbbe 6a39 9c3b
00000210: 4b4c 073f 0211 de3c c542 bb3e 2882 95be
00000220: 8804 dabd eb01 bcbe f0b2 2d3e fcae 213d
00000230: 5524 8c3e f67b c8bd 02e5 6ebc 0624 72be
00000240: 4446 b73e d5f4 cf3e 7ca7 d2bb fe90 a03e
00000250: 0aeb 60be 5aae a4bb ae6d b03e c53b 073f
00000260: a98b 84bd 3a1f 04bd 314e 45be 650e 3fbe
00000270: 1f94 df3e 8415 593e 2470 82bc 4f4e 803e
00000280: e3d4 5ebe 5f04 58bd e990 a4bd 479e cfbd
00000290: 00c1 063d 5f84 85bc 12ca 89be c220 b23e
000002a0: 46b4 d43e 9a48 dd3b 5789 4e3e 2c9c 36bf
000002b0: 00d3 b3be ca9a 1abe ec35 513d 4864 21be
000002c0: 34a1 ee3b e4d9 8b3d 219d b0bd e5c3 e63c
000002d0: f42f 3a3e 470a 2bbf 7131 1f3e 5ae5 ffbe
000002e0: 689f a13e 10e8 233d 98ed 5cbe 5305 d73e
000002f0: 50f6 24bf adce de3d 3d05 ff3e 65c5 853f
00000300: 401e 53be d9ad 203f 1525 a13e 8c47 33bf
00000310: af2c 063f 3f99 e3bd 9fcc 2ebb aa47 b2bd
00000320: 9db0 803e 0f3a d73d 5342 983d eaa2 a63e
00000330: a43e 9d3e 85e1 c93e 5ed3 cbbd d462 053f
00000340: 7a30 893e 29fd 603e 3108 a4be 66b2 eb3e
00000350: f4eb 563e bad5 863e 8c0e a93e 803c 87be
00000360: 05f4 9bbe ae29 233e 1d25 1fbf eb8a c83e
00000370: 2be0 973e 867e 143e 8664 08be 5831 8fbe
00000380: 950c c23e 7bff 45bf a7b7 fe3e 3e39 613e
00000390: b783 963e d1e9 e23e 2f89 89be 298c 13be
000003a0: df9a 3b3e 1714 2dbe 1ac5 b2be 94e6 1dbc
000003b0: b5a2 093f 8ebc d7be 9c3a 193d 8a7c c83e
000003c0: 9c43 39be b39a 21bf 7c8c 9fbe ae09 883d
000003d0: 9ccc 2abe 4ccd d8bc 60ba ee3e 8d6e 68be
000003e0: abd1 c63e a609 b03e 57b5 bc3d ff41 823f
000003f0: 06eb 5fbe 98c6 1c3e e283 293e 7f54 0fbe

depth_conv.1.weight f4 [64]
1.3806173 1.1318983 1.2093812 1.0638582 1.0549839 1.0656797 1.1354476 1.1459999
1.123865 0.90080976 1.0122329 1.067948 1.0072393 1.0073524 1.1472049 1.152985
0.9312214 0.9906942 0.96264565 1.0141926 1.055322 0.96134645 1.0344037 1.0210886
0.9599118 0.95880204 1.2343185 1.3236316 0.911771 0.88643587 1.1331815 1.1362686
0.96324444 1.0431467 0.98718524 1.0842816 0.8937065 0.94829595 1.1669043 1.1122394
0.95160645 0.90434843 0.97346395 1.1203914 0.86946803 0.9343671 0.9731466 0.9926843
1.0184792 0.8600942 0.90163445 1.0084339 1.1975243 1.3240014 1.0101316 0.9335997
0.93146753 1.1764543 1.1425465 1.1070069 1.0646353 1.0971863 1.0568104 1.0576558
00000000: 11b8 b03f 0be2 903f 01cd 9a3f 812c 883f
00000010: b609 873f 3168 883f 5956 913f 20b0 923f
00000020: cfda 8f3f 789b 663f d990 813f 85b2 883f
00000030: 38ed 803f ecf0 803f 9cd7 923f 0395 933f
00000040: 8764 6e3f 239e 7d3f f26f 763f 10d1 813f
00000050: cb14 873f cd1a 763f 5767 843f 08b3 823f
00000060: c8bc 753f 0d74 753f 26fe 9d3f c36c a93f
00000070: d369 693f 76ed 623f 170c 913f 4071 913f
00000080: 3097 763f d585 853f 2cb8 7c3f bdc9 8a3f
00000090: f3c9 643f 86c3 723f 1f5d 953f dc5d 8e3f
000000a0: 7b9c 733f 6183 673f ef34 793f fc68 8f3f
000000b0: 7595 5e3f af32 6f3f 2320 793f 8f20 7e3f
000000c0: 875d 823f 222f 5c3f 84d1 663f 5d14 813f
000000d0: 7a48 993f e178 a93f fe4b 813f 6400 6f3f
000000e0: a874 6e3f 0e96 963f f73e 923f 67b2 8d3f
000000f0: f845 883f 9a70 8c3f 9045 873f 4461 873f

depth_conv.1.bias f4 [64]
-0.2849131 -0.25212476 -0.009573817 -0.032322854 -0.078963116 -0.23057653 -0.15066303 -0.14012054
-0.17462268 -0.30248234 -0.05129648 0.014939422 0.05899902 -0.021954808 0.03801271 0.062250648
-0.14740238 -0.11402334 0.008271838 0.068889126 -0.015707674 -0.06875271 -0.24137618 -0.14676894
0.034044314 -0.00943864 -0.25484213 -0.2821244 0.066940114 0.03951843 0.07948189 0.117461056
-0.019128589 -0.10138209 0.042372152 -0.07159352 -0.04359807 0.06363087 -0.06534881 -0.114740096
-0.1734142 -0.16815042 0.062149346 0.05818127 -0.12645902 0.030075697 -0.080839105 -0.028748121
-0.06640352 -0.004628555 -0.100252405 -0.1225768 -0.2841342 -0.3568366 0.03568135 -0.14584501
-0.014889461 -0.1423274 -0.03398274 -0.090983704 -0.09645457 -0.1402676 -0.16786194 -0.10831077
00000000: 21e0 91be 7f16 81be 80db 1cbc f864 04bd
00000010: 6ab7 a1bd 411c 6cbe 6947 1abe c27b 0fbe
00000020: 4ad0 32be f7de 9abe 421c 52bd 7ac4 743c
00000030: f5a8 713d 92da b3bc 37b3 1b3d 89fa 7e3d
00000040: a6f0 16be 1285 e9bd 9a86 073c be15 8d3d
00000050: 61ad 80bc 39ce 8cbd 512b 77be 994a 16be
00000060: 0d72 0b3d 87a4 1abc ab7a 82be 9c72 90be
00000070: e617 893d 14de 213d 67c7 a23d 6c8f f03d
00000080: 8fb3 9cbc 6aa1 cfbd 6c8e 2d3d a09f 92bd
00000090: e493 32bd e750 823d 99d5 85bd dbfc eabd
000000a0: 7e93 31be a02f 2cbe 5090 7e3d 7c4f 6e3d
000000b0: 797e 01be 4f61 f63c f98e a5bd 2e81 ebbc
000000c0: 92fe 87bd 22ab 97bb 2251 cdbd 8c09 fbbd
000000d0: 0a7a 91be 49b3 b6be 9b26 123d 6558 15be
000000e0: edf2 73bc 46be 11be 7c31 0bbd aa55 babd
000000f0: f989 c5bd 4fa2 0fbe 00e4 2bbe 09d2 ddbd

depth_conv.1.running_mean f4 [64]
-0.0070303427 0.019151444 0.005195764 0.015700812 -0.07331989 -0.015447856 -0.26134053 -0.070031956
-0.04777996 0.18288043 -0.12266058 0.09057513 -0.10436184 -0.041774247 0.008669995 0.016204422
-0.11369756 0.12982017 -0.276369 -0.078313395 -0.1044833 0.029475866 0.055773515 0.065311454
0.099054895 0.009405467 -0.012955607 -0.0026081533 -0.66873556 -0.15346868 -0.078079894 -0.11328306
-0.025686704 -0.10211327 0.036162864 -0.021663064 0.2477387 -0.027156759 0.013996687 0.009723871
0.014457175 0.028907312 -0.0063805548 -0.0007080297 -0.11618662 -0.0082230065 -0.016187506 0.051461034
0.08888609 -0.09081864 -0.35151693 -0.08898362 0.008489518 -0.0073649557 -0.09115966 -0.06688945
-0.049347807 -0.002174404 -0.07893337 -0.23589918 0.0052701025 0.01624895 0.022935411 0.02758302
00000000: ca5e e6bb 7de3 9c3c 3a41 aa3b fd9e 803c
00000010: bd28 96bd 0119 7dbc 6dce 85be ea6c 8fbd
00000020: ebb4 43bd 0245 3b3e 7835 fbbd 747f b93d
00000030: a9bb d5bd 791b 2bbd 980c 0e3c 23bf 843c
00000040: 44da e8bd 94ef 043e 3d80 8dbe c662 a0bd
00000050: 57fb d5bd 5f77 f13c c572 643d 03c2 853d
00000060: 4bdd ca3d 6319 1a3c c143 54bc 8ded 2abb
00000070: 4132 2bbf e526 1dbe 5ae8 9fbd f300 e8bd
00000080: ec6c d2bc c320 d1bd 831f 143d bd76 b1bc
00000090: 37af 7d3e da77 debc 5c52 653c df50 1f3c
000000a0: c9dd 6c3c 07cf ec3c f913 d1bb 129b 39ba
000000b0: 40f3 edbd cab9 06bc a99b 84bc cec8 523d
000000c0: e909 b63d 20ff b9bd 07fa b3be 0b3d b6bd
000000d0: 9f17 0b3c ba55 f1bb eab1 babd 56fd 88bd
000000e0: ed20 4abd 7280 0ebb d2a7 a1bd 8e8f 71be
000000f0: d3b0 ac3b 851c 853c 0be3 bb3c c9f5 e13c

depth_conv.1.running_var f4 [64]
1.8182951 1.4350508 1.8934624 1.3902539 2.337194 1.1727096 3.5543735 1.6070594
1.0719861 2.9547021 1.3928705 3.4335265 3.269773 1.8558867 1.9753897 4.492268
1.0165185 2.033252 3.3343148 1.7599831 1.5559613 2.1263528 1.8992493 2.354451
2.174225 0.92589813 1.3612553 2.3996947 9.317094 3.4701974 1.7041076 2.775972
3.0142379 3.2354825 1.0452346 1.731464 3.3935938 2.2519348 3.4116802 1.616746
1.9847722 5.878629 3.036359 1.0951543 2.0143452 2.6719158 1.763116 1.3816116
3.981711 4.483199 5.085796 2.6737099 1.7598634 2.1950178 1.6447133 1.146558
2.2298536 1.8157346 1.4372253 6.568037 1.8255479 2.8855753 1.5616418 2.3520753
00000000: e5bd e83f bfaf b73f fa5c f23f d7f3 b13f
00000010: 9694 1540 591b 963f db7a 6340 1fb4 cd3f
00000020: d736 893f d719 3d40 9549 b23f e6be 5b40
00000030: f643 5140 b28d ed3f 92d9 fc3f a9c0 8f40
00000040: 471d 823f cd20 0240 6a65 5540 2047 e13f
00000050: bd29 c73f 2a16 0840 9a1a f33f 53af 1640
00000060: 8126 0b40 a907 6d3f 9d3d ae3f 9994 1940
00000070: d112 1541 b717 5e40 3320 da3f 86a9 3140
00000080: 46e9 4040 2512 4f40 3fca 853f 9da0 dd3f
00000090: a430 5940 b31f 1040 f858 5a40 88f1 ce3f
000000a0: 040d fe3f bb1d bc40 b553 4240 042e 8c3f
000000b0: 08eb 0040 ab00 2b40 c9ad e13f a6d8 b03f
000000c0: 5ad4 7e40 5e76 8f40 d7be a240 101e 2b40
000000d0: 3443 e13f 2c7b 0c40 f785 d23f 6ac2 923f
000000e0: ecb5 0e40 fe69 e83f 00f7 b73f 5c2d d240
000000f0: 8eab e93f 44ad 3840 e1e3 c73f 6788 1640

point_conv1.0.weight f4 [128, 64, 8]
0.096341655 0.029077077 0.07483801 0.1171993 0.037024874 0.048692685 0.08451767 -0.04303201
-0.029626755 0.08060961 0.033213157 0.09553164 -0.00041430027 0.056786843 -0.049518056 0.036163222
-0.00079437904 -0.02959819 -0.046984058 0.035543527 -0.084804535 0.011026833 0.001704004 0.12252946
-0.05978096 -0.18385479 0.023147112 -0.005873497 0.03977369 -0.05405756 0.12927566 -0.013007581
0.0044835187 0.061897326 0.06400715 0.05351595 0.12244786 -0.046440713 0.13237448 -0.063863516
-0.034233578 -0.06580562 0.1450506 0.025474321 -0.074757345 -0.018495653 0.05171246 -0.03573677
0.064581744 -0.08589976 -0.016217623 -0.0651847 0.05839456 0.005281719 0.11440681 0.059850357
-0.011165723 -0.09447128 0.0026864565 0.19929728 0.06568419 -0.08749562 -0.049919058 -0.1459339
0.27868268 0.019809287 0.0074869967 0.10256292 0.055826336 -0.17581663 -0.025933787 0.008736992
-0.009363872 0.0043496783 0.042309426 -0.032552756 -0.003157181 0.022428315 0.06261553 0.031387992
0.07304923 0.041285466 0.11936582 0.011310759 0.08312619 0.047680438 0.070668295 0.04414524
0.054779604 -0.0049681575 -0.009350841 -0.079963885 -0.1340011 -0.0033231913 -0.040216405 -0.10240254
-0.19400217 -0.040247854 -0.08143263 -0.14437741 -0.10020526 -0.00082445156 -0.010172078 -0.008322006
0.010246514 -0.08586197 -0.08413514 -0.08018686 0.013439384 -0.1038645 0.020493455 -0.0839431
-0.0672702 -0.106574304 -0.032902863 -0.069159776 -0.11761695 0.07540862 0.02743886 0.087083675
-0.12224838 -0.015010659 -0.12378589 -0.036331203 0.012688756 -0.112030245 -0.0053235954 0.10557032
-0.02419431 0.065026924 0.0541285 -0.031895548 0.08202711 -0.07309872 0.09429559 0.09996118
-0.03734558 0.08421358 -0.047072634 0.016059168 0.007130804 -0.05334294 0.024260392 -0.0022269625
-0.025969772 0.07285033 0.13311546 -0.023022631 -0.10740159 -0.06173119 0.050734673 0.0566681
-0.06635306 0.06809963 0.011835441 0.024305342 -0.16327307 -0.063709594 0.0036155318 0.14395131
-0.054051682 -0.046352435 0.14653379 -0.08152345 0.043281123 -0.02529961 0.07431934 0.17812578
-0.08590484 0.0020805039 -0.09522241 0.10060999 0.06171245 -0.006034395 0.0064049796 -0.03158191
-0.14581612 -0.043736055 -0.107746996 0.015513965 0.04020909 0.04864069 0.060626835 0.1496046
0.03781038 0.07424666 -0.05684874 -0.03568216 0.030196313 0.058252282 -0.036775716 0.02703211
-0.047791444 0.028663844 -0.008486102 -0.0008745373 -0.10497948 0.08606829 0.10420534 -0.01436713
0.025824664 0.014979344 0.03790623 0.06815663 0.075753234 -0.016944978 -0.039062288 0.06869628
0.10336767 0.06786258 0.044816058 -0.0052512866 0.08340849 0.042953573 -0.08336673 -0.03943682
0.018745223 0.04588119 -0.022313923 -0.053452846 0.014170567 0.19403718 0.07332959 0.09276586
-0.077022664 -0.048094407 -0.096388616 0.0071567916 -0.01619607 0.04496379 -0.023687141 -0.15358958
-0.007897238 -0.058904298 0.10701051 -0.025325522 0.0875271 -0.057731517 -0.030735381 -0.023428584
-0.010841981 -0.043871053 0.044179313 -0.034303077 -0.08902257 -0.091719314 0.119384766 0.09394388
0.022497252 0.09698066 0.043339673 -0.09757215 -0.008652531 0.060916115 0.26428244 -0.019228201
00000000: c64e c53d 0d33 ee3c ac44 993d 3006 f03d
00000010: 65a7 173d fb71 473d 9a17 ad3d 5542 30bd
00000020: cfb3 f2bc a716 a53d 850a 083d 18a6 c33d
00000030: 7136 d9b9 5299 683d 72d3 4abd e31f 143d
00000040: e03d 50ba e777 f2bc 5b72 40bd 1796 113d
00000050: 00ae adbd e4a9 343c e358 df3a baf0 fa3d
00000060: e1dc 74bd 6e44 3cbe 039f bd3c 7776 c0bb
00000070: bde9 223d 766b 5dbd d760 043e c01d 55bc
00000080: 7bea 923b 0d88 7d3d 2e16 833d 8a33 5b3d
00000090: f2c5 fa3d 9e38 3ebd 2d8d 073e e0ca 82bd
000000a0: 8238 0cbd 19c5 86bd 2588 143e 86af d03c
000000b0: 611a 99bd 3284 97bc 72d0 533d b860 12bd
000000c0: 6f43 843d 37ec afbd d2da 84bc 8e7f 85bd
000000d0: 222f 6f3d 4512 ad3b 1e4e ea3d a625 753d
000000e0: 70f0 36bc 297a c1bd 430f 303b 9614 4c3e
000000f0: 6f85 863d e730 b3bd ed77 4cbd b26f 15be
00000100: 7faf 8e3e 1647 a23c 7b55 f53b 820c d23d
00000110: 28aa 643d 4609 34be 1873 d4bc 9a25 0f3c
00000120: ed6a 19bc bf87 8e3b a64c 2d3d 0a56 05bd
00000130: b5e8 4ebb 96bb b73c 923c 803d b290 003d
00000140: d69a 953d f31a 293d 1176 f43d c350 393c
00000150: 103e aa3d 904c 433d 8aba 903d a4d1 343d
00000160: 9460 603d edcb a2bb 4534 19bc 1bc4 a3bd
00000170: 9637 09be e6c9 59bb f5b9 24bd 6cb8 d1bd
00000180: 81a8 46be efda 24bd 27c6 a6bd acd7 13be
00000190: 6a38 cdbd 0220 58ba caa8 26bc 0659 08bc
000001a0: ffe0 273c 67d8 afbd 0b4f acbd 0239 a4bd
000001b0: dd30 5c3c e9b6 d4bd e4e1 a73c 5cea abbd
000001c0: f5c4 89bd a143 dabd 27c5 06bd a4a3 8dbd
000001d0: 28e1 f0bd d66f 9a3d 76c7 e03c ed58 b23d
000001e0: 5c5d fabd 44ef 75bc 7583 fdbd 07d0 14bd
000001f0: 80e4 4f3c 1d70 e5bd 8e71 aebb 4035 d83d
00000200: 2533 c6bc d62c 853d d9b5 5d3d e8a4 02bd
00000210: d4fd a73d c8b4 95bd 0c1e c13d 72b8 cc3d
00000220: aef7 18bd 2b78 ac3d 3ccf 40bd 848e 833c
00000230: 85a9 e93b 207e 5abd bbbd c63c 3bf2 11bb
00000240: 8fbe d4bc 8e32 953d 6b4f 083e f599 bcbc
00000250: 5df5 dbbd d8d9 7cbd 29cf 4f3d cf1c 683d
00000260: 1de4 87bd d277 8b3d 70e9 413c ff1b c73c
00000270: 0e31 27be 2d7a 82bd 8ff2 6c3b f967 133e
00000280: 4c65 5dbd 0ddc 3dbd f40c 163e c4f5 a6bd
00000290: 8c47 313d 2141 cfbc bd34 983d 9b66 363e
000002a0: e0ee afbd 1059 083b f803 c3bd 9c0c ce3d
000002b0: 32c6 7c3d 2dbc c5bb dde0 d13b 085c 01bd
000002c0: d250 15be 9424 33bd 75aa dcbd 492e 7e3c
000002d0: 49b2 243d 763b 473d d853 783d f331 193e
000002e0: 0fdf 1a3d a20e 983d 39da 68bd 7527 12bd
000002f0: 425e f73c f299 6e3d 22a2 16bd 7272 dd3c
00000300: f6c0 43bd 70d0 ea3c 4b09 0bbc 3441 65ba
00000310: 7bff d6bd 9244 b03d 9c69 d53d 1c64 6bbc
00000320: 3f8e d33c ec6b 753c 9043 1b3d b495 8b3d
00000330: 8324 9b3d 32d0 8abc c7ff 1fbd a3b0 8c3d
00000340: 6eb2 d33d 89fb 8a3d 0b91 373d fc12 acbb
00000350: 12d2 aa3d 16f0 2f3d 2dbc aabd 8188 21bd
00000360: 958f 993c eaed 3b3d b0cb b6bc 5ff1 5abd
00000370: aa2b 683c afb1 463e d32d 963d 07fc bd3d
00000380: 0fbe 9dbd a4fe 44bd 6567 c5bd 8583 ea3b
00000390: 9fad 84bc f32b 383d 890b c2bc 9646 1dbe
000003a0: 6b63 01bc a245 71bd 5428 db3d 7877 cfbc
000003b0: 6941 b33d e277 6cbd c4c8 fbbc 4ded bfbc
000003c0: 90a2 31bc 22b2 33bd 5ef5 343d 6281 0cbd
000003d0: 7751 b6bd 56d7 bbbd 0080 f43d a665 c03d
000003e0: 284c b83c cc9d c63d f184 313d e8d3 c7bd
000003f0: 58c3 0dbc 2d83 793d 0750 873e 7684 9dbc

point_conv1.1.weight f4 [128]
0.99235666 0.84480387 0.9291804 0.8879626 0.9504279 0.9565387 0.8572718 0.84843445
0.94691855 0.8189895 1.0821438 0.910516 0.93524903 0.86067337 0.8623613 0.88744587
0.923432 0.97581965 1.0565771 0.9922826 0.8309814 0.8500423 0.97262573 1.0087253
0.91705465 0.99327695 0.9297229 0.9127404 0.8681756 0.81399375 0.99527365 0.9242853
0.9618491 0.87650084 0.9090035 0.92688 0.937348 0.9078547 0.897747 0.8555993
0.8630237 0.88731164 0.86030585 0.9096766 0.88893086 1.0188183 0.93425816 0.9006768
0.9077729 0.925776 0.93506855 0.8853733 0.8756603 0.8877673 0.8967628 0.8594134
0.92498696 0.9981859 1.0444388 0.9343821 0.98928934 0.8202606 0.98245037 0.9680307
0.8248788 1.0226012 0.98549473 0.9144437 0.7794474 0.98203033 0.9122593 0.8984669
0.9943772 0.91322976 0.91359633 1.0011351 0.9223701 0.85803425 0.9770827 0.8186788
0.9413762 0.87097406 0.95733255 0.85517585 0.88201237 0.8820316 0.91882515 0.8818127
0.9588369 0.98186886 0.8640731 0.9330713 0.95659894 0.85776675 0.8421884 0.8317988
0.8597255 0.8201234 0.99560124 0.87329197 1.0171859 0.8930055 0.954332 0.81889975
1.0123801 0.85366327 0.93020666 0.89310175 0.9851354 0.82837975 1.0683669 0.91919076
0.95314455 0.92155623 0.9077791 0.9237041 0.9447106 0.8636424 0.9267393 0.85713184
0.8921974 0.91060734 0.8412733 0.87156224 0.88918906 0.8918118 0.9932255 0.9534026
00000000: 160b 7e3f 1145 583f c4de 6d3f 8451 633f
00000010: 3e4f 733f b8df 743f 2a76 5b3f 0033 593f
00000020: 4169 723f 4ca9 513f b083 8a3f 9417 693f
00000030: 7b6c 6f3f 1755 5c3f b6c3 5c3f a72f 633f
00000040: 0a66 6c3f 51cf 793f eb3d 873f 3c06 7e3f
00000050: 32bb 543f 5f9c 593f 00fe 783f e91d 813f
00000060: 18c4 6a3f 6647 7e3f 5202 6e3f 5ba9 693f
00000070: c240 5e3f e561 503f 41ca 7e3f f69d 6c3f
00000080: be3b 763f 5c62 603f 74b4 683f 0248 6d3f
00000090: 0af6 6f3f 2a69 683f bfd2 653f 8e08 5b3f
000000a0: 1fef 5c3f db26 633f 013d 5c3f 91e0 683f
000000b0: f990 633f a368 823f 8b2b 6f3f c192 663f
000000c0: ce63 683f a8ff 6c3f a760 6f3f d3a7 623f
000000d0: 462b 603f b844 633f 3f92 653f 8402 5c3f
000000e0: f2cb 6c3f 1c89 7f3f 2cb0 853f aa33 6f3f
000000f0: 1142 7d3f 99fc 513f de81 7b3f dcd0 773f
00000100: 422b 533f 99e4 823f 6249 7c3f fb18 6a3f
00000110: dd89 473f 5766 7b3f d389 693f ed01 663f
00000120: 818f 7e3f 6dc9 693f 73e1 693f 3225 803f
00000130: 7220 6c3f 22a8 5b3f 1822 7a3f ef94 513f
00000140: 08fe 703f 28f8 5e3f bf13 753f ceec 5a3f
00000150: 90cb 613f d3cc 613f 2038 6b3f 7abe 613f
00000160: 5676 753f c25b 7b3f e533 5d3f c3dd 6e3f
00000170: abe3 743f 9a96 5b3f a999 573f c4f0 543f
00000180: f816 5c3f 9bf3 513f b9df 7e3f 1090 5f3f
00000190: 2633 823f 029c 643f 1a4f 743f 6aa3 513f
000001a0: ac95 813f ad89 5a3f 0622 6e3f 51a2 643f
000001b0: d531 7c3f b210 543f 3fc0 883f 1650 6b3f
000001c0: 4801 743f 1ceb 6b3f 3664 683f df77 6c3f
000001d0: 8ed8 713f ab17 5d3f c93e 6d3f fe6c 5b3f
000001e0: 0c67 643f 901d 693f b05d 573f b41e 5f3f
000001f0: e5a1 633f c74d 643f 0744 7e3f 3112 743f

point_conv1.1.bias f4 [128]
-0.00013851507 -0.025009055 0.05513802 -0.02219812 0.015816666 -0.043760676 -0.05575759 -0.13897207
-0.0048044045 -0.09891008 0.007186189 -0.04947086 0.04759534 -0.05702259 -0.04118862 -0.03636486
0.020550596 0.009747941 -0.022428086 -0.018718634 -0.01985454 -0.10081628 0.036834188 0.013735672
-0.035492763 -0.02898563 -0.044869278 -0.11754781 -0.029841967 -0.08430587 -0.039603703 0.018630961
0.007980303 -0.04708991 -0.013305494 -0.042695288 -0.021019384 0.008234703 -0.042042222 -0.117923416
-0.06478346 0.015429211 -0.04974037 -0.03392663 -0.0556199 -0.05104714 0.0049585477 -0.0165732
-0.06466659 -0.040728483 -0.008516855 0.057664067 -0.01947806 -0.017405568 -0.021921342 -0.10507375
-0.05053969 -0.046934806 -0.038733903 0.01120024 -0.040434856 -0.10155913 -0.02576991 -0.019802239
-0.10309587 0.019766556 0.009385017 0.008809253 -0.15441093 0.007744902 -0.03126891 -0.06566081
-0.07694856 -0.10254561 -0.06690289 -0.025861554 -0.03179034 -0.040575292 -0.015149242 -0.08770859
0.0183826 -0.04907417 0.023109805 -0.025646765 -0.05043625 -0.06671126 -0.045833834 -0.072140925
0.01331494 0.03253743 -0.04780124 -0.009774091 0.034847774 -0.046162095 -0.044252608 -0.1542384
-0.12990296 -0.12980543 -0.012069708 -0.05811805 0.0074037723 -0.06546169 0.0043367376 -0.12638615
-0.019617012 -0.10534827 0.039964054 -0.004432177 -0.00969944 -0.03093376 0.0045362427 0.011350336
0.01881757 -0.057735097 -0.056926094 -0.06375013 -0.014438341 -0.10662119 0.0034172677 -0.044024784
-0.07224323 0.053180996 -0.09785975 -0.064663455 0.0048625907 -0.049644314 0.00548784 -0.009953138
00000000: 5b3e 11b9 cadf ccbc 68d8 613d d5d8 b5bc
00000010: f491 813c 653e 33bd 1262 64bd b24e 0ebe
00000020: 446e 9dbb 5e91 cabd 1f7a eb3b f5a1 4abd
00000030: 55f3 423d 8590 69bd 66b5 28bd 52f3 14bd
00000040: b959 a83c d4b5 1f3c 1bbb b7bc d257 99bc
00000050: fda5 a2bc c478 cebd 72df 163d 960b 613c
00000060: dc60 11bd 4673 edbc d9c8 37bd e8bc f0bd
00000070: 2477 f4bc 8ea8 acbd 7e37 22bd f59f 983c
00000080: d1bf 023c 59e1 40bd 49ff 59bc 41e1 2ebd
00000090: d830 acbc d9ea 063c 7734 2cbd d581 f1bd
000000a0: 31ad 84bd cdca 7c3c 8fbc 4bbd a6f6 0abd
000000b0: b1d1 63bd ce16 51bd 507b a23b 85c4 87bc
000000c0: eb6f 84bd e9d2 26bd 478a 0bbc 2831 6c3d
000000d0: 7490 9fbc 1f96 8ebc 6394 b3bc e830 d7bd
000000e0: b502 4fbd b63e 40bd 71a7 1ebd 3681 373c
000000f0: 059f 25bd 3cfe cfbd 6b1b d3bc 4e38 a2bc
00000100: ed23 d3bd 79ed a13c 9dc3 193c af54 103c
00000110: e61d 1ebe f2c8 fd3b d413 00bd 2d79 86bd
00000120: 3597 9dbd 6f03 d2bd 6204 89bd 9cdb d3bc
00000130: 9636 02bd 4732 26bd 8734 78bc 90a0 b3bd
00000140: 1b97 963c ff01 49bd c650 bd3c 2a19 d2bc
00000150: 3e96 4ebd ea9f 88bd 42bc 3bbd 9fbe 93bd
00000160: e826 5a3c f845 053d 3ccb 43bd 8223 20bc
00000170: 8abc 0e3d 7714 3dbd 3942 35bd acf0 1dbe
00000180: 4805 05be b7eb 04be 06c0 45bc 310d 6ebd
00000190: 589b f23b c710 86bd 311b 8e3b 5f6b 01be
000001a0: dbb3 a0bc d5c0 d7bd 59b1 233d cc3b 91bb
000001b0: 66ea 1ebc cc68 fdbc c3a4 943b c2f6 393c
000001c0: 4e27 9a3c a37b 6cbd 562b 69bd 6e8f 82bd
000001d0: cb8e 6cbc 365c dabd 3df4 5f3b 5553 34bd
000001e0: 42f4 93bd 51d4 593d b16a c8bd 466e 84bd
000001f0: 5e56 9f3b d657 4bbd 57d3 b33b 7d12 23bc

point_conv1.1.running_mean f4 [128]
-0.5375253 -0.0925563 -0.40206644 0.11680694 -0.35967356 0.39908364 -0.10625064 0.21032675
-0.27119187 0.3315257 -0.65583694 -0.45475265 -0.43397278 -0.12927033 -0.28173688 0.32312992
-0.13589558 -0.31148145 -0.4134488 -0.4407499 -0.24749729 -0.7637422 -0.16361614 0.18766999
-0.12740314 -0.17604725 -0.10939013 -0.8793082 -0.06755889 0.039912254 -0.5436086 -0.040242888
-0.07494253 -0.13526742 -0.3841998 -0.1816684 -0.26338315 0.013516912 0.15187569 -0.59694177
-0.01068625 0.0051919236 0.25094154 -0.46628404 -0.11982298 -0.5067598 -0.09200373 0.034718726
0.13011613 0.30431244 0.42219743 -0.091442116 -0.123967744 -0.2042503 0.5188566 -0.13163038
-0.27977997 -0.76786923 -0.50537705 0.18698922 -0.24602865 0.3636362 -0.20522422 0.055618953
-0.20313028 -0.41925338 -0.048531935 -0.19778152 -0.28886336 -0.46450105 0.43131572 0.019121071
-0.31993234 -0.4439367 -0.20047033 -0.4159002 -0.050724465 -0.08502205 -0.5323482 -0.07666917
-0.29617804 0.052089214 -0.11332364 0.25472894 -0.14939816 -0.2223434 0.2010703 -0.16480845
-0.35010383 -0.17192185 -0.20612107 -0.18187416 -0.3414042 0.11924714 0.26045844 0.25701237
-0.42670995 -0.3166184 0.22419755 0.014103524 -0.35848638 -0.10130769 0.15858993 -0.38577345
-0.24206933 -0.31480443 -0.09276228 -0.27804518 -0.340164 -0.2261799 -0.0023417019 -0.4231779
-0.0006600047 -0.30163604 0.29431793 0.08031988 -0.6042246 -0.3447788 0.15418567 0.32399192
0.073811 -0.077682644 -0.07546806 0.100653455 -0.30671653 -0.123430565 0.004330986 -0.4883633
00000000: 429b 09bf 288e bdbd a7db cdbe 7a38 ef3d
00000010: 2227 b8be b154 cc3e ef99 d9bd e55f 573e
00000020: a9d9 8abe bdbd a93e eee4 27bf 57d5 e8be
00000030: ae31 debe 715f 04be d13f 90be 4971 a53e
00000040: 3628 0bbe 7f7a 9fbe 90af d3be f9a9 e1be
00000050: ee6f 7dbe 9c84 43bf fd8a 27be 902c 403e
00000060: f875 02be bb45 34be ef07 e0bd 581a 61bf
00000070: 515c 8abd 087b 233d ef29 0bbf bad5 24bd
00000080: 787b 99bd 8b83 0abe d6b5 c4be 4807 3abe
00000090: 28da 86be 0a76 5d3c 4d85 1b3e 2dd1 18bf
000000a0: 6215 2fbc 0321 aa3b 697b 803e c8bc eebe
000000b0: c065 f5bd 03bb 01bf 746c bcbd 3935 0e3d
000000c0: 2a3d 053e d7ce 9b3e 432a d83e 0146 bbbd
000000d0: cde2 fdbd fe26 51be c9d3 043f 1dca 06be
000000e0: 523f 8fbe 1493 44bf 6460 01bf 1a7a 3f3e
000000f0: efee 7bbe 862e ba3e 4c26 52be b3d0 633d
00000100: 6201 50be 61a8 d6be 6cc9 46bd 3d87 4abe
00000110: e6e5 93be 15d3 edbe 6ad5 dc3e cba3 9c3c
00000120: 2cce a3be ac4b e3be 1848 4dbe dff0 d4be
00000130: 75c4 4fbd 0a20 aebd f947 08bf ba04 9dbd
00000140: a6a4 97be 805b 553d 3916 e8bd d56b 823e
00000150: d5fb 18be fdad 63be 5fe5 4d3e 8cc3 28be
00000160: cf40 b3be 480c 30be 6711 53be 383d 3abe
00000170: 88cc aebe d837 f43d cf5a 853e 2097 833e
00000180: ba79 dabe cf1b a2be 0b94 653e 7812 673c
00000190: 878b b7be 687a cfbd 6665 223e 1984 c5be
000001a0: 06e1 77be 0c2e a1be 26fa bdbd f05b 8ebe
000001b0: fa29 aebe b49b 67be 3d77 19bb c6aa d8be
000001c0: 2a04 2dba 0a70 9abe d7b0 963e c07e a43d
000001d0: 77ae 1abf d986 b0be d9e2 1d3e 45e2 a53e
000001e0: 392a 973d 1418 9fbd 008f 9abd 6623 ce3d
000001f0: f309 9dbe 2ac9 fcbd f2ea 8d3b c10a fabe

point_conv1.1.running_var f4 [128]
4.7598243 3.205527 3.0975404 2.5397444 4.714994 2.9612906 1.6793976 3.0140126
3.720131 2.4512115 4.462036 2.6354039 2.8896012 2.369253 2.2419848 2.3295667
2.08662 2.8778138 4.3979254 4.5277715 2.7298813 4.129951 4.62368 4.2786775
2.295786 4.824826 3.755125 4.4764433 1.995908 2.546535 3.4024348 3.8620024
3.1741426 3.097284 2.9828343 3.626637 2.2342534 2.1677787 1.6224891 4.8647013
3.4656973 2.3083303 2.082708 3.428314 2.7182565 3.8212674 2.809436 2.654466
2.7584426 3.3159928 3.3378026 3.6103885 1.8028971 3.1355813 3.270523 2.258793
4.060025 4.0277085 5.0668707 4.699627 4.2499585 2.15743 4.6244493 4.055668
1.8570204 3.7077725 4.0238853 4.048069 3.3784134 3.1281543 4.670499 4.5656366
4.0963764 4.0528784 2.4878707 3.730973 3.327659 3.2133281 4.102533 1.7269255
5.2780685 2.93355 3.97954 2.4368992 2.4002666 3.3291888 3.5105944 3.520387
3.5019758 4.677575 2.189709 2.3293567 3.8643906 2.173811 2.1421173 2.8235562
4.257223 3.959061 5.0575027 2.5737739 5.134437 2.4367235 3.6299324 2.1162858
3.6072626 2.8452344 3.6471202 2.0882936 4.4989977 3.1631134 4.1870003 3.782019
3.9615717 3.7948132 4.8611813 3.883703 3.1745992 3.6042051 4.0991015 3.7399068
3.7654672 3.0168903 3.1150439 2.6911693 4.2267585 3.323122 4.950172 3.284332
00000000: 7b50 9840 5b27 4d40 1a3e 4640 2c8b 2240
00000010: 3be1 9640 c985 3d40 80f6 d63f 95e5 4040
00000020: a016 6e40 a6e0 1c40 00c9 8e40 75aa 2840
00000030: 3aef 3840 d7a1 1740 ae7c 0f40 9f17 1540
00000040: 2f8b 0540 1a2e 3840 cebb 8c40 81e3 9040
00000050: 60b6 2e40 8f28 8440 30f5 9340 edea 8840
00000060: 28ee 1240 f964 9a40 f853 7040 063f 8f40
00000070: ea79 ff3f 6efa 2240 7ec1 5940 0c2b 7740
00000080: 2725 4b40 e739 4640 c2e6 3e40 d21a 6840
00000090: 02fe 0e40 e3bc 0a40 b9ad cf3f a2ab 9b40
000000a0: fccd 5d40 afbb 1340 164b 0540 7f69 5b40
000000b0: eaf7 2d40 a58f 7440 cdcd 3340 c5e2 2940
000000c0: 538a 3040 3a39 5440 8f9e 5540 9b10 6740
000000d0: 55c5 e63f 5dad 4840 4050 5140 1190 1040
000000e0: baeb 8140 fde2 8040 ce23 a240 5863 9640
000000f0: a9ff 8740 5513 0a40 7dfb 9340 08c8 8140
00000100: d8b2 ed3f 254c 6d40 abc3 8040 c889 8140
00000110: ed37 5840 ae33 4840 ba74 9540 b219 9240
00000120: 8415 8340 2eb1 8140 4639 1f40 43c8 6e40
00000130: 5df8 5440 2ba7 4d40 f347 8340 e50b dd3f
00000140: f0e5 a840 48bf 3b40 c9b0 7e40 28f6 1b40
00000150: f89d 1940 6e11 5540 94ad 6040 054e 6140
00000160: 5f20 6040 b2ae 9540 3124 0c40 2e14 1540
00000170: 2d52 7740 b81f 0b40 7318 0940 25b5 3440
00000180: 2c3b 8840 4161 7d40 10d7 a140 b6b8 2440
00000190: 4f4d a440 47f3 1b40 d050 6840 3a71 0740
000001a0: 64dd 6640 5218 3640 6b6a 6940 9aa6 0540
000001b0: caf7 8f40 7370 4a40 e8fb 8540 990c 7240
000001c0: 648a 7d40 38de 7240 cc8e 9b40 978e 7840
000001d0: a22c 4b40 4cab 6640 d72b 8340 a25a 6f40
000001e0: 6afd 7040 bb14 4140 e15c 4740 1e3c 2c40
000001f0: 9b41 8740 08ae 5440 cf67 9e40 7f32 5240

attention.0.weight f4 [1, 128, 1]
-0.11290295 -0.034154173 -0.13310835 0.0005958058 -0.090783164 -0.06592627 0.022855813 0.1486951
-0.093094595 0.049743734 -0.13084339 -0.050962586 -0.13460693 -0.011005166 -0.04123415 -0.0010596144
-0.0914844 -0.10928249 -0.09837934 -0.11491872 -0.032630093 0.09705674 -0.14448677 -0.08632329
-0.033344936 -0.070346646 -0.014796326 0.1541629 0.009758804 0.043861195 -0.022417229 -0.03040218
-0.103392236 -0.004277578 -0.17236051 -0.029737355 -0.13117835 -0.040918857 0.018191703 0.092306785
-0.09122478 -0.07338915 -0.013796008 -0.1802446 0.03211119 -0.11395434 -0.12563878 -0.0015306531
-0.0026101926 -0.0038104996 -0.008946471 -0.09117327 0.004082083 -0.08413896 -0.0013561603 0.056611635
-0.03055916 -0.048652586 -0.11508248 -0.10840201 -0.09922645 0.068272494 -0.026085993 -0.09082126
0.070865154 -0.17381608 -0.08114565 -0.03326127 0.23948114 -0.11909343 -0.06868638 -0.05344413
-0.03764694 0.09941818 0.047284774 -0.065949425 0.001978972 0.03154036 -0.08767071 0.008371282
-0.18536548 -0.005353985 -0.2419468 0.023777798 -0.06988107 -0.1576573 0.021791097 0.078959934
-0.21857569 -0.17838477 0.0021350333 -0.03646742 -0.11961507 -0.010552612 0.008544902 0.15875214
0.13868265 0.16628109 -0.20854324 -0.0024079264 -0.15771002 0.020524777 -0.066737816 0.09461899
-0.08674449 0.06100549 -0.052301884 -0.049310703 -0.063298404 -0.010710446 -0.062356424 -0.08502076
-0.09480707 0.0022052026 -0.03708954 -0.0028567445 0.0040812264 0.011396504 -0.11459156 -0.035873763
-0.049136225 -0.08230639 0.07999194 0.03300576 -0.030305995 -0.07678092 -0.11018552 -0.0955104
00000000: a939 e7bd 3fe5 0bbd 8e4d 08be da2f 1c3a
00000010: 86ec b9bd 5a04 87bd 1d3c bb3c 8743 183e
00000020: 61a8 bebd 16c0 4b3d cffb 05be 25be 50bd
00000030: 66d6 09be 034f 34bc 24e5 28bd c2e2 8aba
00000040: 2c5c bbbd 80cf dfbd 1b7b c9bd 825a ebbd
00000050: 22a7 05bd afc5 c63d 57f4 13be 44ca b0bd
00000060: b394 08bd e711 90bd 4a6c 72bc e1dc 1d3e
00000070: 64e3 1f3c cca7 333d 56a4 b7bc fe0d f9bc
00000080: 4fbf d3bd ed2a 8cbb 467f 30be c19b f3bc
00000090: 9e53 06be 889a 27bd c406 953c 570b bd3d
000000a0: 0fd4 babd 0d4d 96bd a708 62bc 0a92 38be
000000b0: 0687 033d e560 e9bd 74a7 00be 32a0 c8ba
000000c0: c40f 2bbb 93b9 79bb 3894 12bc 0db9 babd
000000d0: fec2 853b 0c51 acbd 30c1 b1ba 9ae1 673d
000000e0: 3457 fabc ef47 47bd 5db0 ebbd df01 debd
000000f0: 3d37 cbbd 73d2 8b3d 4bb2 d5bc 7f00 babd
00000100: c021 913d d8fc 31be b12f a6bd f83c 08bd
00000110: 8b3a 753e 42e7 f3bd 72ab 8cbd 3be8 5abd
00000120: ae33 1abd c29b cb3d aead 413d 7e10 87bd
00000130: a4b1 013b 7730 013d b48c b3bd b427 093c
00000140: 73d0 3dbe 7b70 afbb e7c0 77be a8c9 c23c
00000150: ce1d 8fbd ea70 21be 3e83 b23c bfb5 a13d
00000160: 4ed2 5fbe 7faa 36be eaeb 0b3b dd5e 15bd
00000170: bff8 f4bd dde4 2cbc ebff 0b3c ec8f 223e
00000180: d302 0e3e 9745 2a3e 5c8c 55be 4dce 1dbb
00000190: bc7e 21be 9423 a83c d6ad 88bd 9ac7 c13d
000001a0: 18a7 b1bd e5e0 793d 803a 56bd 05fa 49bd
000001b0: 98a2 81bd de7a 2fbc 7369 7fbd 5d1f aebd
000001c0: 362a c2bd 2985 103b 34eb 17bd 3838 3bbb
000001d0: cfbb 853b 67b8 3a3c fbae eabd 5ef0 12bd
000001e0: 1143 49bd 4190 a8bd d0d2 a33d 0c31 073d
000001f0: 4744 f8bc 513f 9dbd f2a8 e1bd f59a c3bd

classifier.0.weight f4 [256, 128]
0.0027183578 -0.02766079 0.01541325 -0.021592028 0.12418599 0.04103072 0.08269543 -0.062078886
-0.0686942 0.00044976655 0.11605392 -0.09543785 -0.044260465 0.050391622 0.004720838 -0.029771015
-0.056043126 0.06813817 0.11236505 -0.06370722 0.08734136 0.15161486 -0.14240666 0.020165438
0.019517578 0.07117716 0.039242227 -0.09721652 -0.09967458 -0.13512316 0.10157919 0.10481731
0.039499268 0.055155333 -0.08324444 -0.024239674 -0.08750274 -0.01892643 0.064224124 -0.01835633
0.12141722 0.07408755 -0.0015257336 -0.026753578 -0.057836093 0.03285652 -0.13188012 0.010238587
0.044038504 0.03678357 0.08716125 -0.101123914 -0.110721044 0.0689659 -0.015243513 0.11341284
0.05161569 0.014228384 -0.068453215 0.023211986 0.09139933 -0.009701235 -0.08942686 0.018951783
0.030271323 0.087979615 0.06318762 0.10969567 0.035268452 0.116072156 -0.0042566457 0.15058863
0.03337139 -0.03006774 0.08050219 -0.0732843 0.006712429 0.00013468087 -0.07675609 0.0018668568
0.042793807 -0.002602751 0.01790275 0.020826204 0.036222793 -0.03707443 0.03604214 -0.007787372
-0.063167565 -0.06090517 0.08231422 0.0042889523 -0.010603704 0.01949532 0.010284766 -0.04126283
0.013033876 -0.041012533 0.02719579 0.066640176 0.03452285 -0.08885237 -0.024168285 0.046505872
-0.095933005 0.07342108 -0.006159211 -0.09221544 -0.08090154 -0.020012334 0.024905711 0.06335177
0.0015281122 -0.03834272 0.087291285 0.048259515 0.07621807 -0.11023307 -0.0062418375 0.07307829
-0.0675301 -0.083805196 0.007684282 0.013950885 0.01713017 -0.0344478 -0.036532264 -0.014811687
-0.101699784 0.034983907 0.08834337 -0.017603457 -0.04479168 0.083622515 0.04250007 -0.061556872
-0.045311265 0.018177547 0.014358298 -0.08299277 0.028934814 0.12803507 0.022687733 -0.057519406
-0.06997206 -0.047815405 0.028861547 -0.076858595 0.066122085 -0.17893267 0.11823851 0.12660345
-0.04712229 0.10187599 0.040365368 0.0889772 0.023666605 0.017613765 0.10448972 0.08398115
0.0674967 -0.082281224 0.02263821 -0.026407389 0.019486398 -0.051250037 0.013127903 -0.068232186
0.02611731 -0.021603553 0.00746775 0.004373107 0.024737645 0.033981595 0.061967827 0.13219634
0.06140454 0.0881192 -0.077385806 -0.067642845 0.07056798 -0.12799254 0.054240778 -0.025367873
-0.0069695204 -0.031386558 -0.048931867 0.07483455 0.07924072 -0.026605302 0.006793894 -0.08395311
0.074373275 0.00523326 -0.020252436 -0.076626554 -0.0025138827 -0.13268034 0.16159706 -0.1432585
0.09809326 -0.031098027 0.043660272 -0.014760396 0.19963382 -0.021360766 0.17439978 -0.058686506
-0.0008938387 0.043756593 0.07834025 -0.028311705 0.031078551 -0.0049424744 -0.21730141 -0.016936364
-0.024186268 0.014565942 -0.053897448 0.13871284 0.0776514 -0.08337171 0.01966284 0.09304733
-0.15848967 -0.02517567 -0.050618246 -0.13315725 0.038162835 0.08104626 0.15770572 -0.12166498
-0.0028562506 0.016830651 0.0738038 0.042500913 -0.0052782763 -0.067210525 0.1956247 -0.04476462
0.019569574 -0.08854359 0.13406143 0.047962327 0.045744423 -0.08146 0.03397443 0.039919835
0.05454371 -0.118025556 -0.02027983 0.009070907 -0.114805736 -0.0009877705 -0.010152969 0.04913021
00000000: 7a26 323b e298 e2bc db87 7c3c c4e1 b0bc
00000010: 3955 fe3d d40f 283d 395c a93d 6e46 7ebd
00000020: 8baf 8cbd a5ce eb39 adad ed3d eb74 c3bd
00000030: 764a 35bd 7267 4e3d 42b1 9a3b 58e2 f3bc
00000040: 7a8d 65bd 068c 8b3d a61f e63d ee78 82bd
00000050: 07e0 b23d ed40 1b3e 0dd3 11be fd31 a53c
00000060: 54e3 9f3c 55c5 913d 75bc 203d 7419 c7bd
00000070: 3022 ccbd ba5d 0abe c008 d03d 75aa d63d
00000080: fcc9 213d 8fea 613d 107c aabd 4892 c6bc
00000090: a334 b3bd 9a0b 9bbc f087 833d 0460 96bc
000000a0: 97a9 f83d 37bb 973d 20fb c7ba 522a dbbc
000000b0: 8ae5 6cbd 8f94 063d 950b 07be bfbf 273c
000000c0: b861 343d 5eaa 163d 9981 b23d 0e1a cfbd
000000d0: b7c1 e2bd fe3d 8d3d edbf 79bc fe44 e83d
000000e0: f96a 533d 2b1e 693c 3331 8cbd 1027 be3c
000000f0: 922f bb3d eef1 1ebc 6e25 b7bd c540 9b3c
00000100: 91fb f73c a82e b43d 8368 813d 20a8 e03d
00000110: a775 103d 3db7 ed3d 557b 8bbb e833 1a3e
00000120: 70b0 083d 9f50 f6bc 55de a43d 1416 96bd
00000130: f0f3 db3b 1f39 0d39 4c32 9dbd 52b1 f43a
00000140: 8f48 2f3d ea92 2abb caa8 923c b79b aa3c
00000150: 5a5e 143d 5cdb 17bd eca0 133d 362d ffbb
00000160: ff5d 81bd b377 79bd 5c94 a83d 578a 8c3b
00000170: 28bb 2dbc a6b4 9f3c 6f81 283c 3703 29bd
00000180: 0a8c 553c c2fc 27bd b5c9 de3c a57a 883d
00000190: d567 0d3d 3bf8 b5bd 91fc c5bc f17c 3e3d
000001a0: 8678 c4bd cb5d 963d 35d3 c9bb 73db bcbd
000001b0: b5af a5bd e8f0 a3bc 1007 cc3c 93be 813d
000001c0: f04a c83a 420d 1dbd c6c5 b23d c5ab 453d
000001d0: 3818 9c3d e0c1 e1bd 5488 ccbb 12aa 953d
000001e0: 394d 8abd 0fa2 abbd 6ecc fb3b 4192 643c
000001f0: 9254 8c3c 2319 0dbd dba2 15bd b8ac 72bc
00000200: fa47 d0bd 494b 0f3d 5eed b43d 2035 90bc
00000210: 7b77 37bd 4842 ab3d 8e14 2e3d 0f23 7cbd
00000220: 4e98 39bd 14e9 943c 113f 6b3c 1df8 a9bd
00000230: b408 ed3c a01b 033e a0db b93c 7899 6bbd
00000240: 834d 8fbd 16da 43bd 0d6f ec3c 0a68 9dbd
00000250: 046b 873d 203a 37be 0827 f23d 56a4 013e
00000260: 4d03 41bd 5ca4 d03d 2856 253d ae39 b63d
00000270: 78e0 c13c be4a 903c b5fe d53d 4ffe ab3d
00000280: b63b 8a3d 0f83 a8bd c473 b93c 4f54 d8bc
00000290: f0a1 9f3c 8feb 51bd 6b16 573c 51bd 8bbd
000002a0: f8f3 d53c eff9 b0bc 07b4 f43b 484c 8f3b
000002b0: 9aa6 ca3c 4930 0b3d fad1 7d3d 7a5e 073e
000002c0: 5483 7b3d d777 b43d 737c 9ebd 5588 8abd
000002d0: f285 903d 7a10 03be 942b 5e3d 49d0 cfbc
000002e0: 9360 e4bb 318f 00bd c86c 48bd db42 993d
000002f0: f548 a23d 5df3 d9bc 509f de3b 9cef abbd
00000300: 0451 983d c47b ab3b 70e8 a5bc 62ee 9cbd
00000310: f4bf 24bb 5bdd 07be b379 253e 5bb2 12be
00000320: 1ee5 c83d 4ac1 febc 1dd5 323d 97d5 71bc
00000330: cf6c 4c3e c6fc aebc db95 323e 4361 70bd
00000340: 8050 6aba 1d3a 333d da70 a03d f3ed e7bc
00000350: 7298 fe3c 7bf4 a1bb 4384 5ebe 21be 8abc
00000360: 4822 c6bc fda5 6e3c 92c3 5cbd bd0a 0e3e
00000370: b207 9f3d c9be aabd f713 a13c 998f be3d
00000380: 1e4b 22be 353d cebc 1455 4fbd 605a 08be
00000390: a250 1c3d 95fb a53d 9c7d 213e 7d2b f9bd
000003a0: ef2f 3bbb 6fe0 893c 7226 973d 7015 2e3d
000003b0: 64f5 acbb aca5 89bd d751 483e 1b5b 37bd
000003c0: 5f50 a03c 5756 b5bd 6647 093e 2574 443d
000003d0: 815e 3b3d 80d4 a6bd c628 0b3d fb82 233d
000003e0: 3a69 5f3d 62b7 f1bd e321 a6bc 249e 143c
000003f0: 451f ebbd 1478 81ba a358 26bc c23c 493d
