models/model_a_lr5e-4_wd5e-4.pth (torch, 462591 bytes, 20 tensors)

conv1.0.weight f4 [32, 6, 64]
-0.025154209 0.06447029 -0.044840276 -0.09801474 0.22438556 0.13231212 0.1802472 0.14952223
0.16843721 0.18459928 0.083129585 0.12154532 0.14415842 0.09170424 0.074441746 0.15995714
-0.0013982839 0.17081833 0.05981716 -0.026729014 -0.08125356 -0.09467216 -0.06120246 -0.04412306
-0.009110508 -0.03996759 -0.06595123 -0.11437078 -0.10489709 -0.13594484 0.1518154 -0.0054912097
-0.010225999 -0.0776695 0.10009593 0.15704721 0.18591265 0.07168548 0.06438375 0.053295374
0.124379285 0.005295607 0.118840575 0.123416625 0.07321123 0.08789028 -0.08537443 0.050051555
0.06576209 -0.0035137571 0.1767592 -0.042127144 0.007509839 0.0056841155 -0.0540374 -0.18332526
0.08971345 0.13208468 0.027623454 0.055072594 0.09991848 0.15756664 0.094402365 -0.07976239
0.06902938 0.14372534 0.11238767 0.070036806 0.18547912 0.0497083 0.12425588 0.074707605
0.21040583 0.17744629 0.11484738 0.011242116 0.15228666 0.07036939 0.10945424 0.08194745
0.15900666 0.17041399 0.32166898 0.11507434 0.15455738 0.1854394 0.09128565 0.06544657
0.039590046 0.05663399 -0.034792572 -0.05617305 -0.039516345 -0.14461188 -0.08931723 0.030986603
-0.052405756 -0.23529232 -0.07800118 -0.13847257 0.090442024 0.031276517 0.03950635 -0.11735965
0.049846765 0.009760249 -0.06331653 -0.101074316 0.081811 0.11855908 0.016403064 0.07385235
0.009968727 -0.002712599 0.08020204 0.12732013 -0.041740004 -0.09836921 -0.05004005 -0.14605902
-0.0010159813 0.13054302 0.18745013 -0.009311046 -0.015804071 0.15030548 0.19943212 -0.020483823
0.022946205 0.0711988 -0.002168915 0.04240227 0.035453893 0.018335277 -0.08001794 -0.073015966
-0.07638897 -0.002754564 0.034811832 0.006244728 -0.014156209 -0.018261373 -0.16328554 -0.09387332
-0.042604145 -0.03314855 -0.023515904 -0.18340787 -0.0039028868 0.101849675 -0.10379233 0.1186193
0.037829258 -0.08126278 0.0002911075 0.11602549 -0.041403726 -0.05037149 0.09703121 0.083925575
-0.016332949 -0.05668931 -0.12144173 -0.14580305 0.009421266 -0.043712728 -0.15894464 -0.033001658
-0.13913403 0.08149426 0.04287644 -0.06628989 -0.098839544 -0.14664678 -0.083899386 -0.029692916
0.013035217 -0.0026739708 0.020586578 -0.022877235 -0.10463692 -0.1105707 -0.04879042 0.015458601
-0.012826523 -0.0054032304 0.07516685 0.21339473 0.045761794 0.19159076 0.062377434 0.12689036
-0.042176027 0.034593157 0.04221016 0.063148044 -0.040960625 0.0548488 0.19396693 0.23904616
0.11583906 0.08510601 0.11921941 0.12489982 0.17389677 0.10490109 0.075873435 0.09416085
0.18345013 0.06014483 0.19283897 0.05971603 0.14288096 0.0368699 0.019942924 0.042505253
0.015983952 0.045430683 -0.02118336 0.07654811 0.05234522 -0.036237434 0.0053269067 0.0921367
0.032143556 -0.074250616 -0.057542004 0.031526245 -0.07398811 0.03984054 0.010857087 -0.018529825
-0.05010639 0.0003397494 -0.03578911 0.14565897 -0.015790196 -0.10864669 -0.058828395 0.023134282
-0.036447246 0.0482715 -0.10319574 0.061112303 -0.10766868 0.025097081 -0.012162384 0.11226262
0.057778236 0.07763824 0.03304215 -0.013144998 -0.05097445 0.026070187 0.040683515 0.13066003
00000000: 3310 cebc 0009 843d 70aa 37bd f4bb c8bd
00000010: 54c5 653e d47c 073e b992 383e 5b1c 193e
00000020: ce7a 2c3e 9807 3d3e d83f aa3d c1ec f83d
00000030: 449e 133e 6fcf bb3d ea74 983d cecb 233e
00000040: 9f46 b7ba 00eb 2e3e d702 753d cef6 dabc
00000050: 4468 a6bd 7ae3 c1bd 6eaf 7abd 62ba 34bd
00000060: 3d44 15bc 0eb5 23bd 7011 87bd 3a3b eabd
00000070: 49d4 d6bd 2035 0bbe 7f75 1b3e 9bef b3bb
00000080: f38a 27bc 3011 9fbd 18ff cc3d fcd0 203e
00000090: e35f 3e3e d6cf 923d a1db 833d 404c 5a3d
000000a0: 91ba fe3d c586 ad3b b062 f33d dbc1 fc3d
000000b0: c5ef 953d d2ff b33d cad8 aebd dc02 4d3d
000000c0: 46ae 863d 1047 66bb 5d00 353e 838d 2cbd
000000d0: 1815 f63b d141 ba3b 5256 5dbd 9eb9 3bbe
000000e0: afbb b73d 3541 073e 954a e23c cd93 613d
000000f0: 0fa2 cc3d 2659 213e 0756 c13d 775a a3bd
00000100: 475f 8d3d bc2c 133e 822b e63d 756f 8f3d
00000110: 3dee 3d3e ee9a 4b3d de79 fe3d 4d00 993d
00000120: a074 573e 7bb4 353e 1a35 eb3d da30 383c
00000130: 09f1 1b3e d41d 903d 8b29 e03d 11d4 a73d
00000140: a4d2 223e 0181 2e3e ccb1 a43e 18ac eb3d
00000150: 4a44 1e3e d3e3 3d3e f9f3 ba3d da08 863d
00000160: 2c29 223d 0bf9 673d a882 0ebd b615 66bd
00000170: e4db 21bd 2315 14be f4eb b6bd 9ed7 fd3c
00000180: 6ba7 56bd 78f0 70be 15bf 9fbd c1cb 0dbe
00000190: ab39 b93d ce1b 003d 69d1 213d 425a f0bd
000001a0: 1f2c 4c3d 74e9 1f3c 19ac 81bd 0d00 cfbd
000001b0: 878c a73d 1acf f23d b85f 863c e73f 973d
000001c0: df53 233c dcc5 31bb f840 a43d 3560 023e
000001d0: 91f7 2abd cc75 c9bd ccf6 4cbd 7f90 15be
000001e0: ad2a 85ba 12ad 053e edf2 3f3e 5c8d 18bc
000001f0: 8a77 81bc aee9 193e ef37 4c3e b1cd a7bc
00000200: aef9 bb3c add0 913d 5b24 0ebb 01ae 2d3d
00000210: 1a38 113d dd33 963c 72e0 a3bd 6589 95bd
00000220: d271 9cbd ea85 34bb da96 0e3d 93a0 cc3b
00000230: 72ef 67bc e098 95bc 5334 27be a840 c0bd
00000240: af81 2ebd c6c6 07bd 6da4 c0bc 46cf 3bbe
00000250: 93c7 7fbb 9096 d03d 1391 d4bd adee f23d
00000260: daf2 1a3d 1a6d a6bd ca9f 9839 c69e ed3d
00000270: f496 29bd 5652 4ebd 4db8 c63d 2ce1 ab3d
00000280: adcc 85bc 0d33 68bd 71b6 f8bd 654d 15be
00000290: a75b 1a3c 1e0c 33bd 62c2 22be bf2c 07bd
000002a0: 2779 0ebe 76e6 a63d 359f 2f3d fec2 87bd
000002b0: 636c cabd 932a 16be 71d3 abbd 8f3e f3bc
000002c0: aa91 553c c93d 2fbb 2fa5 a83c 0a69 bbbc
000002d0: e24b d6bd e472 e2bd 77d8 47bd 1246 7d3c
000002e0: 5626 52bc 950d b1bb 14f1 993d 2684 5a3e
000002f0: b870 3b3d 5e30 443e 7b7f 7f3d 8cef 013e
00000300: c5c0 2cbd 8eb1 0d3d 90e4 2c3d c353 813d
00000310: 54c6 27bd 23a9 603d 449f 463e 84c8 743e
00000320: 073d ed3d 0f4c ae3d 4e29 f43d 7acb ff3d
00000330: ff11 323e 62d6 d63d 8863 9b3d 67d7 c03d
00000340: 5ada 3b3e 6d5a 763d 9477 453e cc98 743d
00000350: 634f 123e e404 173d 585f a33c fd19 2e3d
00000360: c7f0 823c 8615 3a3d ba88 adbc 41c5 9c3d
00000370: f167 563d b46d 14bd 558d ae3b 2bb2 bc3d
00000380: f6a8 033d b510 98bd 2ab1 6bbd aa21 013d
00000390: 1487 97bd d62f 233d ece1 313c dccb 97bc
000003a0: 5c3c 4dbd 6420 b239 9a97 12bd a027 153e
000003b0: 715a 81bc 2882 debd 0bf6 70bd 1b84 bd3c
000003c0: b549 15bd 56b8 453d 4a58 d3bd e550 7a3d
000003d0: 6681 dcbd 6598 cd3c bc44 47bc f2e9 e53d
000003e0: dfa8 6c3d cc00 9f3d 3557 073d 1e5e 57bc
000003f0: 96ca 50bd 2591 d53c c2a3 263d becb 053e

conv1.1.weight f4 [32]
0.9948189 0.902267 1.103566 1.04571 0.86936605 1.1827593 0.85771066 1.0552763
1.3129014 0.96551883 1.0419345 1.1385208 0.8300918 0.99542755 1.0465914 1.0567721
0.9086417 1.0285401 0.84664446 1.1279912 0.95021546 1.1290877 1.1444454 1.0889391
1.1042286 1.0208784 0.71257234 1.1430393 0.94805896 1.1523254 1.2674929 1.0195409
00000000: 74ac 7e3f f8fa 663f a741 8d3f d3d9 853f
00000010: c68e 5e3f a864 973f ed92 5b3f 4b13 873f
00000020: 270d a83f 3e2c 773f 1c5e 853f 0dbb 913f
00000030: e580 543f 57d4 7e3f b5f6 853f 4f44 873f
00000040: be9c 683f 34a7 833f b1bd 583f 0462 903f
00000050: 5241 733f f285 903f 307d 923f 5b62 8b3f
00000060: 5d57 8d3f 25ac 823f 246b 363f 1d4f 923f
00000070: feb3 723f 667f 933f 353d a23f 5180 823f

conv1.1.bias f4 [32]
-0.028346071 -0.1877879 -0.3009228 -0.13243349 0.031567477 -0.4000394 0.18147458 -0.08251462
-0.33300245 -0.060780257 -0.28213328 -0.068756804 0.06873887 0.03357723 -0.32681116 -0.1414391
-0.1987035 0.0055742436 0.013885052 -0.13920031 -0.057170313 -0.3607648 0.009619182 0.09585066
-0.20878552 -0.14637859 -0.115558594 0.009934001 -0.0575078 -0.104827866 -0.06942975 -0.10474515
00000000: 0536 e8bc 794b 40be 8e12 9abe a59c 07be
00000010: e64c 013d f7d1 ccbe 79d4 393e 6dfd a8bd
00000020: 4c7f aabe b8f4 78bd c673 90be 5ed0 8cbd
00000030: f7c6 8c3d 4788 093d cb53 a7be 69d5 10be
00000040: ee78 4bbe 25a8 b63b 217e 633c 878a 0ebe
00000050: 6b2b 6abd 2ab6 b8be c699 1d3c 5a4d c43d
00000060: dfcb 55be 45e4 15be fca9 ecbd 38c2 223c
00000070: 4d8d 6bbd feaf d6bd 2f31 8ebd a084 d6bd

conv1.1.running_mean f4 [32]
0.02240342 0.007449297 -0.00861143 0.00050318055 0.0015755098 0.0025189528 -0.007899762 0.010738626
0.005000915 -0.006137252 -0.007669917 -0.00040727085 0.004274593 -0.01094128 0.010374122 -0.008520534
-0.0028315282 0.0032692174 0.0032534122 -0.0060183615 0.002818232 0.003989731 -0.0026670375 0.011456929
-0.0074169603 0.00069516804 -0.004678201 0.0034392443 0.004381938 -0.0015239229 0.005003633 -0.0012182186
00000000: 6187 b73c 3b19 f43b f516 0dbc e0e7 033a
00000010: 5681 ce3a 0415 253b 016e 01bc 10f1 2f3c
00000020: b7de a33b 001b c9bb ed53 fbbb f886 d5b9
00000030: e311 8c3b 0e43 33bc 39f8 293c b699 0bbc
00000040: 2991 39bb 5e40 563b 3337 553b ad35 c5bb
00000050: 16b2 383b 4abc 823b 77c9 2ebb d8b5 3b3c
00000060: f909 f3bb f03b 363a 984b 99bb f264 613b
00000070: 5c96 8f3b 5ebe c7ba 84f5 a33b a2ac 9fba

conv1.1.running_var f4 [32]
25.24237 9.882945 8.407111 16.918896 6.9474387 17.75735 18.012173 19.845987
7.2261357 11.873807 20.139849 18.070614 22.899334 14.295344 30.1115 10.664088
11.513003 20.289585 4.5148726 17.76268 10.915843 21.561169 25.949503 34.085754
15.685562 5.969908 5.077576 10.547726 7.32896 14.22087 18.3909 14.375743
00000000: 60f0 c941 8b20 1e41 8783 0641 e659 8741
00000010: 6b51 de40 0e0f 8e41 ee18 9041 95c4 9e41
00000020: 813c e740 1dfb 3d41 691e a141 9e90 9041
00000030: d631 b741 bbb9 6441 5ae4 f041 1ba0 2a41
00000040: 4335 3841 1251 a241 d679 9040 f819 8e41
00000050: 4ba7 2e41 467d ac41 9598 cf41 d057 0842
00000060: 10f8 7a41 7d09 bf40 817b a240 7cc3 2841
00000070: d786 ea40 af88 6341 9020 9341 0b03 6641

depth_conv.0.weight f4 [64, 1, 16]
0.09462489 0.17303644 -0.12248586 -0.10744501 0.3946844 0.29335904 0.13602616 -0.14414486
-0.7723038 -0.103443146 0.025459215 -1.1886773 0.24686295 0.31221032 -0.15022731 -0.37905118
-0.10790109 -0.1330055 0.08914675 -0.20509392 -0.28176668 0.4161468 -0.51956475 -0.3090716
-0.6075348 0.20943756 0.32678676 0.22847326 -0.017921604 0.15341744 -0.026338557 -0.32655942
-0.5874293 -0.51403123 0.24093394 0.42111936 0.216988 -0.041677065 -0.07769621 0.49139076
0.21783711 -0.03449929 -0.04021737 -0.05474596 0.029030973 0.27071258 -0.5139917 -0.47400686
0.31236562 -0.22919537 -0.19434726 0.32391402 -0.4525527 0.42988047 0.03299879 -0.16146202
-0.08076239 0.034964047 0.23001389 1.0430472 0.68163997 -0.1573714 0.22503573 -0.6809819
0.24804159 0.3912618 0.042517588 0.51756316 -0.50786 -0.13127156 -0.60775584 0.35536802
0.11368599 0.1708629 -0.422759 -0.49469402 -0.6282262 -0.013023933 -0.1165297 -0.14976925
0.22340474 -0.57413244 -0.5621369 0.75390106 -0.43697268 -0.33613315 -0.16367006 -0.53969896
-0.46615252 -0.03420786 0.98871195 0.33437842 -0.10636275 0.62162876 0.12835295 -0.58333415
0.9105874 0.40069035 -0.10486697 -0.4244013 -0.4954106 0.32708055 0.022150634 -0.24491929
-0.24174996 -0.16018751 0.17498705 0.50556767 -0.25326183 0.57722455 0.62144023 0.50728196
0.28823966 0.041687258 0.11743395 0.9728177 0.032344982 -0.59153676 -0.17694113 -0.010892585
-0.24828 -0.6475521 0.042091303 0.34323186 -0.5436036 0.13618197 -0.05577736 0.24043341
0.17823261 0.10814163 0.18067245 0.40443859 0.11943479 -0.2353202 -0.24716672 -0.8302174
0.5753926 0.50282073 0.07275508 -0.2257115 0.08168345 -0.076713845 -0.21547899 0.2541377
-0.12722923 -0.039711773 -0.039200548 0.3392399 -0.25370622 -0.50771314 0.116569676 -0.032685705
0.78276026 -0.21038954 -0.027975997 -0.33298054 0.23447308 -0.4192865 0.36015293 0.31655514
-0.3081816 -0.4517011 -0.045911174 -0.511127 0.15166816 0.06886126 0.19060819 -0.321428
0.72117954 -0.24359107 -0.34145227 0.39147872 0.2876871 -0.09467062 -0.1461244 0.46994448
0.45630676 -0.04583127 -0.47821698 0.05672137 0.17704494 -0.8055122 0.29296786 -0.05418683
0.20873216 -0.44750583 -0.111151695 0.21651995 0.67960536 -0.65585345 0.4806468 0.2057849
-0.33863574 -0.73849463 -0.23378405 -0.46535543 0.14892623 0.086518556 0.16805352 0.09830025
-0.10214271 0.00091747515 0.033733822 0.039172266 0.2708598 0.381356 0.18259212 -0.12922344
-0.16680035 0.27221286 0.16255079 0.32489827 0.16305222 -0.5631757 0.4790355 0.29283735
-0.0031695731 -0.042062763 0.73284537 -0.26350197 -0.41892663 -0.13726427 -0.59937644 -0.44913507
-0.24350277 0.027567456 -0.12284782 -0.04640009 -0.09733602 0.29971117 -0.21568911 -0.304629
-0.6210393 0.019222986 -0.84430003 -0.065924704 -0.09813653 0.25477964 0.18576156 0.116700046
0.090273954 0.23741001 -0.029305682 -0.066154614 -0.6615548 0.32664543 -0.17083357 0.043324277
-0.9112148 0.12806225 0.25605837 0.00862806 -0.025040207 0.47057918 -0.2672822 0.2387917
00000000: b2ca c13d 7730 313e ded9 fabd 210c dcbd
00000010: 1314 ca3e 2833 963e 714a 0b3e b69a 13be
00000020: b4b5 45bf 00da d3bd d88f d03c 9426 98bf
00000030: a4c9 7c3e 08da 9f3e 30d5 19be ff12 c2be
00000040: 3ffb dcbd 9832 08be 9292 b63d 2404 52be
00000050: b943 90be 3211 d53e 3202 05bf a23e 9ebe
00000060: 6787 1bbf cd76 563e 9850 a73e e5f4 693e
00000070: 54d0 92bc 7619 1d3e f5c3 d7bc cc32 a7be
00000080: c461 16bf 8d97 03bf 63b7 763e f59c d73e
00000090: 1a32 5e3e 92b5 2abd 311f 9fbd 9297 fb3e
000000a0: b110 5f3e 214f 0dbd f8ba 24bd 4d3d 60bd
000000b0: 5dd2 ed3c d79a 8a3e f694 03bf 07b1 f2be
000000c0: 63ee 9f3e 31b2 6abe f802 47be 0fd8 a53e
000000d0: fdb4 e7be 4b19 dc3e bd29 073d 4d56 25be
000000e0: c066 a5bd 7636 0f3d c388 6b3e 9282 853f
000000f0: f57f 2e3f f825 21be c46f 663e d454 2ebf
00000100: 9dfe 7d3e 7753 c83e ec26 2e3d 057f 043f
00000110: 1d03 02bf 0d6c 06be e395 1bbf ccf2 b53e
00000120: 33d4 e83d aff6 2e3e de73 d8be 8948 fdbe
00000130: 6fd3 20bf 5662 55bc 20a7 eebd 1c5d 19be
00000140: 36c4 643e 58fa 12bf 34e8 0fbf a9ff 403f
00000150: e2ba dfbe a519 acbe 2099 27be b629 0abf
00000160: 8bab eebe 8a1d 0cbd 3a1c 7d3f a633 ab3e
00000170: b7d4 d9bd 1023 1f3f f56e 033e 6355 15bf
00000180: 411c 693f 4927 cd3e 7ec4 d6bd 214b d9be
00000190: 75a6 fdbe 1a77 a73e 3f75 b53c 1fcc 7abe
000001a0: 4d8d 77be 3208 24be ce2f 333e e26c 013f
000001b0: 89ab 81be fdc4 133f b516 1f3f 3bdd 013f
000001c0: 2694 933e 42c0 2a3d 3681 f03d 950a 793f
000001d0: 2c7c 043d f46e 17bf 0e30 35be d076 32bc
000001e0: 1d3d 7ebe f9c5 25bf ee67 2c3d 16bc af3e
000001f0: 9b29 0bbf 4973 0b3e cd76 64bd 2d34 763e
00000200: 9c82 363e 5c79 dd3d 3302 393e 9312 cf3e
00000210: 3a9a f43d c7f7 70be 4619 7dbe 2189 54bf
00000220: ee4c 133f dcb8 003f 9e00 953d ea20 67be
00000230: a749 a73d 261c 9dbd 86a6 5cbe 561e 823e
00000240: 6148 02be d0a8 22bd c190 20bd dab0 ad3e
00000250: c8e5 81be 7df9 01bf 15bc ee3d 72e1 05bd
00000260: fa62 483f 5b70 57be eb2d e5bc 6d7c aabe
00000270: b619 703e b8ac d6be f765 b83e 8413 a23e
00000280: fbc9 9dbe 5e45 e7be 5b0d 3cbd 38d9 02bf
00000290: e64e 1b3e 2207 8d3d cb2e 433e 3692 a4be
000002a0: 399f 383f f06f 79be d5d2 aebe e66f c83e
000002b0: b94b 933e ace2 c1bd a2a1 15be 909c f03e
000002c0: 0aa1 e93e 92b9 3bbd dbd8 f4be ab54 683d
000002d0: 454b 353e 0c36 4ebf e2ff 953e 02f3 5dbd
000002e0: e2bd 553e 7c1f e5be 80a3 e3bd 68b7 5d3e
000002f0: 9efa 2d3f 03e6 27bf 5617 f63e 47b9 523e
00000300: aa61 adbe fc0d 3dbf 1665 6fbe 1143 eebe
00000310: 1e80 183e a430 b13d 3916 2c3e a451 c93d
00000320: 3230 d1bd b782 703a 7a2c 0a3d 1973 203d
00000330: 23ae 8a3e 1841 c33e 6ef9 3a3e 2653 04be
00000340: b6cd 2abe 7c5f 8b3e b773 263e 1159 a63e
00000350: 29f7 263e 482c 10bf 2444 f53e c7ee 953e
00000360: 9db8 4fbb 014a 2cbd c19b 3b3f bbe9 86be
00000370: 8d7d d6be 018f 0cbe bc70 19bf 08f5 e5be
00000380: ca58 79be 25d5 e13c a397 fbbd 050e 3ebd
00000390: 1b58 c7bd be73 993e 9bdd 5cbe 55f8 9bbe
000003a0: 6efc 1ebf 8679 9d3c 0c24 58bf 8803 87bd
000003b0: cefb c8bd 7a72 823e 4738 3e3e 6f00 ef3d
000003c0: 8de1 b83d 9c1b 733e 7812 f0bc 127c 87bd
000003d0: a85b 29bf 123e a73e ffee 2ebe cc74 313d
000003e0: 6045 69bf c022 033e 151a 833e b55c 0d3c
000003f0: 1f21 cdbc c1ef f03e 36d9 88be d085 743e

depth_conv.1.weight f4 [64]
0.8941529 0.96994466 1.2251053 1.1032763 0.9865212 1.1784766 1.0945163 1.0499502
1.0761256 1.0910248 1.0851521 1.0618443 0.9084312 0.9234613 0.9589323 1.1390938
1.1102879 1.2396947 0.79967564 1.1319641 1.0890024 1.1152986 1.0557569 1.1394355
1.1475883 0.96829736 0.8653341 1.0378184 1.1253628 1.3002412 1.1755645 1.2696183
1.0727001 1.2409668 1.0092576 0.8433306 1.4941041 1.1099002 1.114519 1.0702325
1.0361844 0.9492044 1.1681756 1.2411939 1.0749223 1.0840117 1.0376633 1.0100634
1.0592623 0.9895317 1.4280066 1.314145 1.2734252 1.3250604 0.996842 0.9502401
1.3762634 1.3339939 1.1596317 0.99339277 1.2146161 0.9950199 1.1968588 1.1871475
00000000: 34e7 643f 4b4e 783f 40d0 9c3f 2838 8d3f
00000010: a78c 7c3f 52d8 963f 1c19 8c3f c564 863f
00000020: 7cbe 893f b3a6 8b3f 44e6 8a3f 84ea 873f
00000030: f28e 683f f667 6c3f 967c 753f d3cd 913f
00000040: ea1d 8e3f 51ae 9e3f 8bb7 4c3f 33e4 903f
00000050: 6e64 8b3f 1bc2 8e3f 0b23 873f 06d9 913f
00000060: 2ce4 923f 56e2 773f 8986 5d3f 3cd7 843f
00000070: e30b 903f 4e6e a63f e678 963f da82 a23f
00000080: 3d4e 893f 00d8 9e3f 5a2f 813f 84e4 573f
00000090: ce3e bf3f 3611 8e3f 8fa8 8e3f 61fd 883f
000000a0: b1a1 843f 0fff 723f c786 953f 71df 9e3f
000000b0: 0e97 893f e5c0 8a3f 27d2 843f c249 813f
000000c0: e895 873f f351 7d3f ecc8 b63f e735 a83f
000000d0: 99ff a23f 949b a93f 0a31 7f3f ef42 733f
000000e0: 6629 b03f 50c0 aa3f d06e 943f fd4e 7e3f
000000f0: 8a78 9b3f a0b9 7e3f ab32 993f 73f4 973f

depth_conv.1.bias f4 [64]
-0.035352543 0.035714474 -0.093301944 -0.108351044 -0.0015177401 0.10724141 -0.025997924 0.066437244
-0.057784908 -0.21742092 -0.2630968 -0.12794267 -0.2758145 0.12356523 -0.09074174 -0.2322933
-0.13141945 -0.106104046 -0.07617765 -0.14302325 -0.0023659074 -0.14890423 -0.22360024 -0.2285684
-0.0707872 -0.11387057 -0.14158727 -0.06426777 -0.17828998 -0.15506421 -0.18034245 -0.27762556
-0.23183505 -0.26088208 -0.22643682 -0.19895257 -0.29041746 -0.36009055 -0.049765628 -0.1605637
-0.13988556 -0.037460975 -0.23019755 -0.13462761 -0.21421018 -0.21819638 0.07595122 -0.15714152
-0.09362443 -0.11834008 -0.31722984 -0.26517296 -0.2884368 -0.24522854 -0.03497724 -0.06264633
-0.26259422 -0.26547667 -0.17356552 -0.16233242 0.1508614 -0.0607498 -0.22135542 -0.3239922
00000000: d4cd 10bd 5749 123d 1715 bfbd 27e7 ddbd
00000010: e8ee c6ba 62a1 db3d 99f9 d4bc 4010 883d
00000020: deaf 6cbd 97a3 5ebe a0b4 86be 6703 03be
00000030: 8f37 8dbe c40f fd3d ced6 b9bd 4bde 6dbe
00000040: d292 06be 144d d9bd 0703 9cbd b074 12be
00000050: 570d 1bbb 5a7a 18be 76f7 64be d60d 6abe
00000060: e1f8 90bd f934 e9bd 41fc 10be d29e 83bd
00000070: a691 36be 27c9 1ebe b1ab 38be f024 8ebe
00000080: 2b66 6dbe 5692 85be 0edf 67be 39ba 4bbe
00000090: 99b1 94be ca5d b8be 0bd7 4bbd d06a 24be
000000a0: 293e 0fbe ae70 19bd e8b8 6bbe d2db 09be
000000b0: ea59 5bbe df6e 5fbe 508c 9b3d b5e9 20be
000000c0: 2abe bfbd 495c f2bd f36b a2be c0c4 87be
000000d0: fdad 93be 311d 7bbe 4b44 0fbd b84c 80bd
000000e0: c072 86be 8fec 87be 29bb 31be 783a 26be
000000f0: 697b 1a3e c8d4 78bd ffaa 62be 4ee2 a5be

depth_conv.1.running_mean f4 [64]
-0.14340259 -0.121099874 0.010232464 -0.03436539 0.054953646 0.036586918 0.07424527 -0.0028166526
0.09573157 0.025690377 0.025046729 -0.023959342 -0.15386854 -0.055804744 -0.15433504 -0.025576757
0.0064549465 0.00306075 0.25322577 -0.0058646435 -0.037421618 -0.05419248 -0.18418983 -0.14590415
-0.09726174 -0.08953859 0.11384787 0.046946634 -0.14261416 0.029472884 0.016697083 0.012633071
-0.018408734 -0.0049498444 -0.1846585 -0.2958573 -0.05246728 -0.02889422 -0.048822276 0.02241323
0.0018723279 0.13033625 -0.011849051 -0.023505388 -0.3589865 -0.33162457 0.08573319 -0.58412045
-0.0036166164 -0.001668222 0.0099218525 0.0024297242 0.0007341775 0.0003315018 -0.20168181 0.334143
-0.028282126 -0.022533845 0.0018650899 0.08247912 -0.1171151 -0.28943476 -0.04059093 -0.0047884453
00000000: 21d8 12be 3603 f8bd 11a6 273c b9c2 0cbd
00000010: 1317 613d 2adc 153d e70d 983d 9797 38bb
00000020: ea0e c43d a074 d23c cc2e cd3c 6246 c4bc
00000030: b78f 1dbe 8493 64bd 010a 1ebe 5986 d1bc
00000040: 0484 d33b dd96 483b cfa6 813e 322c c0bb
00000050: 6947 19bd eff8 5dbd 429c 3cbe e667 15be
00000060: 2a31 c7bd 0260 b7bd 1229 e93d 1d4b 403d
00000070: 7209 12be 1e71 f13c 52c8 883c f1fa 4e3c
00000080: eacd 96bc 4e32 a2bb 1e17 3dbe 9c7a 97be
00000090: eee7 56bd 92b3 ecbc def9 47bd f39b b73c
000000a0: e668 f53a de76 053e 8622 42bc 5f8e c0bc
000000b0: 14cd b7be b2ca a9be e294 af3d eb88 15bf
000000c0: c104 6dbb 3ea8 daba 448f 223c 023c 1f3b
000000d0: d175 403a 6bcd ad39 ad85 4ebe cb14 ab3e
000000e0: ebaf e7bc e698 b8bc 0876 f43a d0ea a83d
000000f0: 0bda efbd cb30 94be ad42 26bd 64e8 9cbb

depth_conv.1.running_var f4 [64]
3.0492306 1.5179584 1.3515381 2.4654367 2.5618308 3.765943 3.8104024 2.4263406
1.8356282 1.4767506 2.3765101 2.3897462 1.7726518 2.1433427 2.79412 1.5639397
1.6425228 2.9184885 4.659052 2.35814 1.1903398 1.3362715 3.4534132 2.2889392
1.3416847 2.4950469 1.2749536 2.2310119 2.0037885 1.0644033 2.147314 1.9305379
1.7424533 1.7178799 2.10287 3.1723726 3.4549909 3.437209 4.2181277 4.3454375
2.7305615 3.2112126 1.9297003 1.2096751 3.3204496 5.196038 1.3714463 5.329406
3.952799 2.5069005 1.9296443 2.8878052 0.97162867 1.3919894 2.6477883 2.6709268
1.6389004 2.3910534 3.1996403 3.055699 5.0620217 5.633119 1.985553 4.10775
00000000: 9826 4340 764c c23f 33ff ac3f b7c9 1d40
00000010: 09f5 2340 3605 7140 a2dd 7340 2a49 1b40
00000020: ddf5 ea3f 2a06 bd3f be18 1840 9af1 1840
00000030: 41e6 e23f 872c 0940 ddd2 3240 2d2f c83f
00000040: 303e d23f 84c8 3a40 f416 9540 c4eb 1640
00000050: 0e5d 983f f20a ab3f b904 5d40 fb7d 1240
00000060: 53bc ab3f d9ae 1f40 ae31 a33f e6c8 0e40
00000070: 123e 0040 5e3e 883f 986d 0940 de1b f73f
00000080: b608 df3f 7de3 db3f 6c95 0640 2708 4b40
00000090: 921e 5d40 3bfb 5b40 e7fa 8640 d30d 8b40
000000a0: 85c1 2e40 8284 4d40 6b00 f73f a2d6 9a3f
000000b0: 3f82 5440 f145 a640 8d8b af3f 7e8a aa40
000000c0: a9fa 7c40 0f71 2040 96fe f63f cdd1 3840
000000d0: a8bc 783f b52c b23f 5d75 2940 77f0 2a40
000000e0: 7dc7 d13f 0507 1940 e8c6 4c40 9390 4340
000000f0: 15fc a140 8342 b440 9a26 fe3f b072 8340

point_conv1.0.weight f4 [128, 64, 8]
-0.0227132 -0.12671304 -0.0022901983 0.064350955 0.046794076 0.100917205 0.08985125 0.113576196
0.04772311 0.09136393 -0.15582499 -0.05445608 -0.029802907 -0.043900166 -0.013675914 -0.04173069
-0.13737728 -0.032569893 0.0026310808 0.18247989 0.047452554 -0.17602214 -0.1834986 -0.14116947
-0.17520885 0.035754044 0.0008312965 -0.07334943 -0.0029571962 -0.081690624 -0.027394466 0.11754741
-0.10155498 0.17138796 0.14474992 0.19496092 -0.056313083 -0.0067008086 0.2636702 0.022136506
0.20210823 -0.091335736 -0.12752466 0.16422562 0.02557438 0.05383073 -0.05367946 -0.2151918
-0.093046956 0.10259074 0.05068779 0.15560776 -0.007138771 0.0004800845 -0.01504103 -0.25435722
0.15322834 0.17468676 0.06443214 0.046008725 0.16929701 -0.111361586 -0.06959764 -0.10392308
0.05848088 -0.0019855478 0.12792097 0.17556562 0.02737662 0.039414544 0.062165353 0.12816998
0.01989079 -0.026181849 -0.016530989 0.100536294 0.10607894 0.0711814 0.0666755 -0.0024063732
-0.08624775 0.023461549 0.13439429 0.059642915 0.080613546 -0.00019415753 -0.058819495 -0.1608363
0.09593092 0.14523551 0.1576061 -0.008371322 -0.10642039 -0.0871563 -0.0482664 -0.14552233
-0.16428503 0.0077958624 0.07096034 -0.056179415 -0.051933188 -0.018215386 -0.059478234 0.103466965
0.0888733 0.12158 0.06142525 0.07584299 0.10453519 0.012467224 -0.1626383 -0.10991062
0.10269383 -0.01116557 -0.11264525 -0.013956602 -0.11431137 -0.103111394 -0.015547446 -0.014688777
-0.13942468 0.020806212 -0.012148318 0.059846785 -0.0113102915 -0.08439258 0.08199708 -0.099290214
0.21299054 -0.07967534 0.072376385 0.022576502 0.02475806 -0.062890835 0.06850952 -0.008750058
0.14360347 0.09899523 0.06633368 0.049204964 0.075064495 -0.019011544 0.04500597 -0.13347432
-0.18901795 -0.085898966 0.14642063 0.14288421 0.09827639 0.05380505 0.079304256 -0.042005405
-0.2727096 -0.16500273 0.014227373 -0.047616668 -0.017992252 0.17563665 0.019032907 -0.018499801
0.033048008 0.05953618 -0.078963816 0.048339926 -0.11435612 0.102181524 0.0042082714 0.06117951
0.2452832 -0.040390853 -0.10951197 -0.084649414 -0.026027821 0.03567783 0.042265166 -0.0014947399
-0.14197442 0.06053649 0.05503552 -0.082164295 -0.2511235 -0.19297802 0.028656842 0.03958273
-0.24086578 -0.025934553 0.05671767 -0.039780226 0.02136788 -0.036754973 -0.19049934 -0.1746742
-0.044224683 -0.04448503 0.092444286 0.0627912 0.11696734 -0.0032187763 -0.018330654 -0.14512362
-0.05325279 -0.12959634 -0.1352011 0.05095903 0.023756914 -0.024956837 -0.12643602 -0.11901447
-0.080150865 -0.09264384 -0.21320562 -0.035517618 -0.1094972 0.0054433076 0.03675372 0.09169664
0.09806462 0.046470564 0.0018339613 0.0023438719 -0.14540187 0.06739612 0.14020225 0.20157912
-0.081416234 -0.07878714 0.010624053 0.056747757 -0.113954 -0.075129665 0.018411221 -0.05628574
-0.018845908 -0.01616424 0.18332818 0.08948944 -0.008277234 0.034576286 -0.012148401 -0.0073821475
0.12883922 -0.10038108 -0.055435944 -0.032953754 -0.03694576 -0.044739645 -0.27805722 -0.22320452
0.004575976 -0.12972617 -0.13807887 -0.11621694 -0.24087761 0.02556181 -0.03877649 -0.117895074
00000000: 0811 babc 10c1 01be 2717 16bb 6fca 833d
00000010: 25ab 3f3d aead ce3d ef03 b83d a39a e83d
00000020: 4f79 433d 031d bb3d 9690 1fbe 570d 5fbd
00000030: 3a25 f4bc a9d0 33bd f110 60bc cded 2abd
00000040: a1ac 0cbe 0268 05bd 366e 2c3b 02dc 3a3e
00000050: 9c5d 423d 263f 34be 0fe7 3bbe bb8e 10be
00000060: f369 33be d572 123d 5deb 593a 3a38 96bd
00000070: 85cd 41bb 6a4d a7bd 5c6a e0bc b2bc f03d
00000080: 0ffc cfbd 5380 2f3e 5339 143e d6a3 473e
00000090: 8ca8 66bd 7592 dbbb c8ff 863e 9e57 b53c
000000a0: 76f5 4e3e 3b0e bbbd d395 02be c32a 283e
000000b0: 5d81 d13c 9d7d 5c3d fede 5bbd 3d5b 5cbe
000000c0: 678f bebd 181b d23d 009e 4f3d a457 1f3e
000000d0: 5aec e9bb dab3 fb39 a76e 76bc 1c3b 82be
000000e0: e4e7 1c3e 16e1 323e fff4 833d a573 3c3d
000000f0: 325c 2d3e 8b11 e4bd 3589 8ebd a0d5 d4bd
00000100: a689 6f3d f71f 02bb b7fd 023e 79c7 333e
00000110: ef44 e03c 2571 213d 19a1 7e3d fe3e 033e
00000120: 03f2 a23c 517b d6bc ff6b 87bc f9e5 cd3d
00000130: ea3f d93d 8ec7 913d 2a8d 883d 3eb4 1dbb
00000140: a9a2 b0bd 6f32 c03c a89e 093e 214c 743d
00000150: b718 a53d c496 4bb9 b6ec 70bd 45b2 24be
00000160: 6e77 c43d 9eb8 143e 7e63 213e df27 09bc
00000170: eff2 d9bd 017f b2bd fdb2 45bd ce03 15be
00000180: 563a 28be 6f74 ff3b a853 913d 631c 66bd
00000190: e5b7 54bd 6f38 95bc 739f 73bd 7de6 d33d
000001a0: 3403 b63d effe f83d 0b99 7b3d 9253 9b3d
000001b0: 8c16 d63d 5443 4c3c a88a 26be d218 e1bd
000001c0: 2551 d23d cbef 36bc 8eb2 e6bd 3baa 64bc
000001d0: 141c eabd 112c d3bd b7ba 7ebc 32a9 70bc
000001e0: 58c5 0ebe ca71 aa3c bd09 47bc e721 753d
000001f0: cd4e 39bc 04d6 acbd 16ee a73d ab58 cbbd
00000200: 311a 5a3e d32c a3bd 123a 943d 5bf2 b83c
00000210: 6ad1 ca3c e9cc 80bd b84e 8c3d 675c 0fbc
00000220: ca0c 133e 03be ca3d f4d9 873d 258b 493d
00000230: 6abb 993d 19be 9bbc 2e58 383d 7ead 08be
00000240: ec8d 41be cceb afbd 4aef 153e 3d50 123e
00000250: 2245 c93d af62 5c3d 456a a23d dc0d 2cbd
00000260: 98a0 8bbe 7af6 28be ed19 693c b209 43bd
00000270: 7d64 93bc 18da 333e e6ea 9b3c e58c 97bc
00000280: 595d 073d 36dc 733d c8b7 a1bd 1600 463d
00000290: 8b33 eabd 8c44 d13d 8ae5 893b 5e97 7a3d
000002a0: 852b 7b3e e170 25bd d047 e0bd ac5c adbd
000002b0: 4c38 d5bc eb22 123d 3d1e 2d3d 26eb c3ba
000002c0: be61 11be 1cf5 773d ed6c 613d c145 a8bd
000002d0: 4293 80be 089c 45be c1c1 ea3c 8021 223d
000002e0: 85a5 76be b374 d4bc ca50 683d 97f0 22bd
000002f0: b10b af3c 628c 16bd 4212 43be cbdd 32be
00000300: f124 35bd ef35 36bd 6e53 bd3d ac98 803d
00000310: 938c ef3d 1bf2 52bb 2b2a 96bc 499b 14be
00000320: 991f 5abd e7b4 04be 2872 0abe 6aba 503d
00000330: dc9d c23c 4872 ccbc 7278 01be dcbd f3bd
00000340: 2326 a4bd 0ebc bdbd 9352 5abe ec7a 11bd
00000350: 1140 e0bd c65d b23b 128b 163d 73cb bb3d
00000360: 1ad6 c83d eb57 3e3d 8861 f03a a59b 193b
00000370: 3ae4 14be fa06 8a3d 2e91 0f3e c26a 4e3e
00000380: 8ebd a6bd 275b a1bd 8210 2e3c 5670 683d
00000390: b760 e9bd 95dd 99bd 21d3 963c e08b 66bd
000003a0: bc62 9abc de6a 84bc 62ba 3b3e 3d46 b73d
000003b0: 3c9d 07bc dd9f 0d3d 160a 47bc f1e5 f1bb
000003c0: 6eee 033e 9894 cdbd cd10 63bd 84fa 06bd
000003d0: 7054 17bd eb40 37bd 845d 8ebe ba8f 64be
000003e0: 12f2 953b f0d6 04be 8c64 0dbe 2603 eebd
000003f0: 9fa8 76be 0067 d13c 19d4 1ebd f972 f1bd

point_conv1.1.weight f4 [128]
1.0068799 0.79396415 0.83478826 0.79440403 0.84309405 0.92844266 0.8085134 0.7659515
0.83541805 0.9320835 0.8191268 0.99132454 0.8149983 0.76515096 0.87538403 0.9218885
0.8430586 0.68440336 0.75968814 0.85417724 0.75549436 1.0057533 0.9194169 0.70577437
0.9556481 1.059764 0.99425846 0.9974643 1.0001098 0.891649 0.8291391 0.96864027
0.73067635 0.9123729 0.7579152 0.83462113 0.78297526 0.7510581 0.915883 0.7702055
0.89983964 0.8088935 0.8575972 0.8169424 0.703746 0.86414295 0.88866764 0.8025014
0.6791495 0.67271966 0.89571965 0.76633304 0.8318588 0.7985618 0.6892513 0.93576044
1.0230428 0.70685947 1.0267326 0.73579544 0.9930339 0.7734637 0.9554336 0.83556074
1.0905238 0.9021904 0.6844414 0.7563468 0.6287693 1.017409 0.6994488 0.68400675
0.8010008 0.8559776 1.0212322 0.94971186 0.781665 1.0251602 0.871257 0.81483155
0.97880685 0.91190255 1.0534658 0.8408899 0.74252504 0.8883825 1.0241178 0.6462633
0.8672768 1.0351677 0.87136 0.953324 0.88912123 1.0660077 0.74865353 0.9802157
0.824417 0.7818814 1.009481 0.94148296 0.8442601 0.8054125 0.90828896 0.71273625
0.9560987 0.82461596 0.82195324 0.90769553 0.66907406 0.6700361 0.72839886 0.83315194
0.7538125 0.74039847 1.0058151 0.8784758 0.83937275 0.9514373 0.9165861 0.9154639
0.98270196 0.7540478 0.72321576 0.97745323 1.0447601 0.9587771 0.98617786 0.7667862
00000000: 71e1 803f 3c41 4b3f afb4 553f 105e 4b3f
00000010: 03d5 573f 6bae 6d3f bcfa 4e3f 6615 443f
00000020: f5dd 553f 069d 6e3f 4bb2 513f 72c7 7d3f
00000030: bba3 503f efe0 433f 2b19 603f e200 6c3f
00000040: b0d2 573f 0f35 2f3f ec7a 423f 5cab 5a3f
00000050: 1468 413f 86bc 803f e85e 6b3f a1ad 343f
00000060: 5ba5 743f 59a6 873f b987 7e3f d259 7f3f
00000070: 9903 803f 1c43 643f 7642 543f cff8 773f
00000080: 9b0d 3b3f 4591 693f bb06 423f bba9 553f
00000090: 1171 483f 5845 403f 4f77 6a3f 302c 453f
000000a0: e45b 663f a513 4f3f 7d8b 5b3f 2323 513f
000000b0: b328 343f 7938 5d3f b97f 633f bb70 4d3f
000000c0: bedc 2d3f 5b37 2c3f e24d 653f 672e 443f
000000d0: b3f4 543f 8c6e 4c3f c672 303f ff8d 6f3f
000000e0: 11f3 823f bef4 343f f96b 833f 175d 3c3f
000000f0: 7837 7e3f b801 463f 4c97 743f 4fe7 553f
00000100: 4996 8b3f f3f5 663f 8d37 2f3f f29f 413f
00000110: 06f7 203f 753a 823f 140f 333f 111b 2f3f
00000120: 630e 4d3f 5921 5b3f bdb7 823f 5120 733f
00000130: 331b 483f 7338 833f b30a 5f3f cd98 503f
00000140: 1693 7a3f 7272 693f f8d7 863f 8f44 573f
00000150: 1f16 3e3f 096d 633f 4b16 833f 8371 253f
00000160: da05 5e3f 6080 843f 7311 5f3f 0b0d 743f
00000170: 739d 633f f172 883f c2a7 3f3f 6bef 7a3f
00000180: fe0c 533f 6129 483f ac36 813f 0705 713f
00000190: 6e21 583f 832f 4e3f a085 683f e275 363f
000001a0: e2c2 743f 081a 533f 876b 523f bc5e 683f
000001b0: 7048 2b3f 7c87 2b3f 5978 3a3f 7249 553f
000001c0: dbf9 403f c18a 3d3f 8dbe 803f cae3 603f
000001d0: 22e1 563f 6591 733f 63a5 6a3f d85b 6a3f
000001e0: 5b92 7b3f 4709 413f ab24 393f 603a 7a3f
000001f0: b3ba 853f 6b72 753f 2776 7c3f 1a4c 443f

point_conv1.1.bias f4 [128]
0.020428827 -0.19720209 -0.06367217 0.11553355 0.043991793 0.021776311 -0.09494606 0.102328226
-0.044810336 -0.036142584 -0.03465441 -0.049206793 0.14653826 -0.15356486 0.08007277 -0.0034163105
-0.015668796 -0.27709177 0.018649008 0.20796227 -0.112655096 0.06821643 0.072251365 -0.14024612
0.044313036 0.04152882 0.08135667 0.07437463 0.1597231 0.08476461 0.012063865 0.06583751
-0.1997156 0.08202544 0.095059834 0.1850214 0.034450833 -0.057320423 0.12772839 -0.117473364
0.10284634 -0.0955249 -0.109241344 -0.010426937 -0.03263094 -0.07513259 -0.046920445 -0.06328502
-0.12822928 -0.28966296 -0.046764128 -0.17149174 0.017665945 -0.1066105 -0.13507111 0.013968382
-0.022926027 0.03927347 0.1427534 -0.25359702 -0.0061998963 0.006400264 0.10436237 0.025843346
0.027217109 -0.105445795 0.03830696 -0.10464519 -0.064424686 -0.039577644 -0.07188949 -0.08854759
-0.10752587 -0.07858029 -0.03159046 -0.049684584 -0.003945119 0.085123755 0.06921094 0.060263854
0.06520101 -0.04100859 0.12508464 -0.007765502 -0.07398676 -0.0038070611 -0.009678504 -0.28096053
-0.066020824 0.037636 0.058575444 0.1500904 0.06524563 0.052118454 -0.002992577 -0.069860786
-0.07427521 -0.11152875 0.12998292 0.04267349 0.08252353 0.06117071 0.066932835 -0.098033875
0.036074024 0.0479821 0.051185902 0.031193424 -0.006155029 -0.19760548 -0.013656398 0.022373516
-0.22084276 -0.21408984 0.045787573 0.036919724 -0.005310508 0.056689423 0.06795309 0.14039238
0.05663313 -0.24866408 -0.08303799 0.04417715 0.05333749 0.12701948 0.09754286 0.052050017
00000000: 5b5a a73c 58ef 49be 8e66 82bd db9c ec3d
00000010: bd30 343d 3c64 b23c 1473 c2bd 7691 d13d
00000020: 0b8b 37bd 3f0a 14bd c8f1 0dbd 108d 49bd
00000030: 200e 163e 1b40 1dbe 31fd a33d 2ee4 5fbb
00000040: d95b 80bc f9de 8dbe cec5 983c 10f4 543e
00000050: b7b7 e6bd 0eb5 8b3d 86f8 933d ae9c 0fbe
00000060: 9681 353d 201a 2a3d 539e a63d ba51 983d
00000070: 748e 233e 1199 ad3d 84a7 453c d1d5 863d
00000080: 3f82 4cbe f4fc a73d bbae c23d 4076 3d3e
00000090: 511c 0d3d d2c8 6abd 3bcb 023e e095 f0bd
000000a0: 1aa1 d23d 8fa2 c3bd edb9 dfbd bed5 2abc
000000b0: 05a8 05bd 1edf 99bd a72f 40bd 949b 81bd
000000c0: 894e 03be b44e 94be be8b 3fbd 889b 2fbe
000000d0: 2cb8 903c 9b56 dabd 1550 0abe a4db 643c
000000e0: 5dcf bbbc 38dd 203d f32d 123e 78d7 81be
000000f0: 8028 cbbb 4eb9 d13b f0bb d53d 6db5 d33c
00000100: 6af6 de3c f7f3 d7bd c2e7 1c3d 3850 d6bd
00000110: 17f1 83bd 2b1c 22bd cc3a 93bd 7058 b5bd
00000120: 8636 dcbd b4ee a0bd 0065 01bd 1082 4bbd
00000130: 0f46 81bb 5d55 ae3d 77be 8d3d 3bd7 763d
00000140: 1b88 853d a0f8 27bd 3016 003e c175 febb
00000150: 5f86 97bd e37f 79bb 9792 1ebc 0fda 8fbe
00000160: ed35 87bd 3528 1a3d ceec 6f3d 4cb1 193e
00000170: 809f 853d 297a 553d 1c1f 44bb 2c13 8fbd
00000180: 9a1d 98bd 2f69 e4bd 3e1a 053e 66ca 2e3d
00000190: 1902 a93d 238e 7a3d 1514 893d fcc5 c8bd
000001a0: 5bc2 133d e188 443d 4fa8 513d 5a89 ff3c
000001b0: 20b0 c9bb 1759 4abe 16bf 5fbc aa48 b73c
000001c0: 9b24 62be 5e3a 5bbe c08b 3b3d 2339 173d
000001d0: c503 aebb 2b33 683d fd2a 8b3d 05c3 0f3e
000001e0: 24f8 673d cca1 7ebe d20f aabd 19f3 343d
000001f0: 6978 5a3d 6511 023e 8dc4 c73d 6632 553d

point_conv1.1.running_mean f4 [128]
0.2572655 -0.6718813 -0.28715965 0.03387857 0.009831765 0.4564376 0.9551087 0.09591848
-0.34213734 0.022698684 0.027389707 -0.72965103 0.616026 0.03856503 0.20038305 -0.225451
-0.15875909 -0.5231352 0.049208082 0.09819742 0.315352 0.062486377 0.085506745 -0.32503524
-0.32118914 0.41647747 -0.10701174 0.21557453 0.1828735 0.6126359 0.35570762 0.06968577
-0.5958531 -0.048773743 0.6753023 0.36660677 0.15251008 0.22309385 0.47579905 -0.58937573
0.19205214 -0.03543124 -0.59172624 -0.32398233 -0.21413289 -0.32245642 -0.5479613 0.25678825
-0.41696 -0.6389743 -0.4511289 -0.26152524 -0.23622146 -0.73263896 -0.14290981 -0.013039796
-0.5329831 0.32489735 0.17934719 -0.51937634 -0.5371039 -0.026816454 0.17113271 0.09362434
0.7120668 -0.43296087 0.44945243 -0.43151245 0.1785205 0.20390469 -0.2177636 0.5135478
-0.8175897 -0.54308003 -0.036782216 -0.03654536 0.12221197 0.13850057 0.13529357 0.20895945
0.17597936 -0.06555868 0.13193375 -0.2708692 0.06014772 -0.094454795 0.2000894 -0.44319102
-0.120403 -0.27336115 0.42396381 0.45576122 0.49663275 0.08945426 0.2992011 0.1481427
-0.07331955 -0.40176952 -0.0024665617 0.6081131 0.3284186 0.21088582 0.57427144 -0.12921846
0.20988216 -0.08597165 0.10512546 0.6025116 -0.19402854 -0.37329707 0.15178144 0.26343286
-0.68793803 -0.13436 0.1315973 -0.061684683 0.019384483 -0.0025588525 0.18683718 0.4600312
0.9471698 -1.1212873 -0.26950237 -0.072210304 0.033621155 0.066221654 -0.19890884 -0.023942605
00000000: 4eb8 833e 6a00 2cbf 9706 93be 41c4 0a3d
00000010: 6915 213c 30b2 e93e 0182 743f e870 c43d
00000020: a02c afbe 97f2 b93c 6160 e03c 69ca 3abf
00000030: e1b3 1d3f 5df6 1d3d 3731 4d3e a0dc 66be
00000040: be91 22be 30ec 05bf 6a8e 493d bb1b c93d
00000050: d175 a13e b7f1 7f3d 291e af3d 056b a6be
00000060: e772 a4be 893c d53e f928 dbbd 92bf 5c3e
00000070: 3143 3b3e b5d5 1c3f 4f1f b63e 6ab7 8e3d
00000080: d489 18bf fac6 47bd 9de0 2c3f e2b3 bb3e
00000090: 9a2b 1c3e b772 643e ef9b f33e 54e1 16bf
000000a0: 51a9 443e 5920 11bd 5f7b 17bf 03e1 a5be
000000b0: a745 5bbe 0219 a5be 3147 0cbf c079 833e
000000c0: c87b d5be d293 23bf 5efa e6be a3e6 85be
000000d0: 0ae4 71be 3a8e 3bbf f356 12be dea4 55bc
000000e0: 9571 08bf f258 a63e caa6 373e d9f5 04bf
000000f0: a47f 09bf 2eae dbbc 6a3d 2f3e 1ebe bf3d
00000100: 034a 363f 0cad ddbe a11e e63e 33ef dcbe
00000110: 14ce 363e 64cc 503e 6cfd 5ebe de77 033f
00000120: 8f4d 51bf 4b07 0bbf f3a8 16bd 96b0 15bd
00000130: 454a fa3d 18d3 0d3e 668a 0a3e 77f9 553e
00000140: ef33 343e a143 86bd a419 073e 5eaf 8abe
00000150: 755d 763d 8471 c1bd 3ce4 4c3e efe9 e2be
00000160: d995 f6bd fef5 8bbe c911 d93e 8959 e93e
00000170: a646 fe3e cc33 b73d e330 993e b8b2 173e
00000180: 8f28 96bd bcb4 cdbe 0aa6 21bb 4dad 1b3f
00000190: 7c26 a83e 74f2 573e 7403 133f d851 04be
000001a0: 59eb 563e e811 b0bd 044c d73d 333e 1a3f
000001b0: 6baf 46be cb20 bfbe 986c 1b3e ace0 863e
000001c0: b51c 30bf ab95 09be 71c1 063e 14a9 7cbd
000001d0: 35cc 9e3c 6cb2 27bb 3f52 3f3e 3689 eb3e
000001e0: b879 723f 5886 8fbf 37fc 89be ffe2 93bd
000001f0: 56b6 093d 389f 873d c2ae 4bbe 4823 c4bc

point_conv1.1.running_var f4 [128]
8.876323 7.3684096 5.8411016 10.350859 8.903799 8.905437 6.62039 5.98142
11.187045 8.558602 5.24128 10.563178 6.8406687 7.702752 7.43891 14.279451
6.3842897 4.985731 5.089309 11.585705 6.2175736 11.644083 8.025144 4.6072664
7.9589696 12.025636 13.144259 11.379441 9.384631 8.632773 12.25086 9.161558
6.188254 9.369551 7.0642204 7.5156384 6.2883353 3.5379822 9.77417 6.280541
7.5764866 5.7864714 8.0138035 5.5813622 5.8104835 7.836791 8.333174 3.787405
3.3473022 4.974737 9.185761 5.28794 10.046993 5.5330696 2.369124 10.6322565
9.290268 7.627371 12.198827 5.6820626 11.294095 9.761119 9.834276 6.7103863
11.601913 9.062718 5.325056 6.1220837 5.4475284 7.4025617 4.493291 5.3135223
8.613426 11.264538 8.465712 6.4818387 4.7678185 8.681409 7.8408084 8.799896
10.641774 7.5500836 12.51481 8.621814 5.7265344 11.646137 9.772642 5.594968
9.171351 7.8401046 8.626423 12.085167 11.681514 10.574465 5.2332835 6.899721
5.665 5.0941834 14.051886 8.512824 8.216651 7.611906 10.0888195 3.7523956
10.885689 9.572768 7.054766 9.144399 3.959658 3.0642986 4.6939573 7.257287
7.9919205 6.123278 12.47508 11.628584 3.7065642 8.650475 8.113809 9.398679
12.580857 6.626456 4.029813 11.955436 7.6287975 7.9989824 9.547841 6.1295724
00000000: 6b05 0e41 03ca eb40 4eea ba40 1e9d 2541
00000010: f675 0e41 ac7c 0e41 3cda d340 cb67 bf40
00000020: 23fe 3241 09f0 0841 91b8 a740 c702 2941
00000030: c2e6 da40 f27c f640 8d0b ee40 a278 6441
00000040: 1a4c cc40 1c8b 9f40 9fdb a240 0c5f 3941
00000050: 5df6 c640 2a4e 3a41 fd66 0041 ba6e 9340
00000060: e1af fe40 0169 4041 e34e 5241 3112 3641
00000070: 7327 1641 d71f 0a41 8603 4441 be95 1241
00000080: 2d06 c640 aee9 1541 180e e240 1c80 f040
00000090: 0b3a c940 4d6e 6240 0063 1c41 31fa c840
000000a0: 9472 f240 c62a b940 8a38 0041 859a b240
000000b0: 7bef b940 fec6 fa40 ae54 0541 d864 7240
000000c0: 333a 5640 0c31 9f40 e1f8 1241 ce36 a940
000000d0: 7cc0 2041 e80e b140 ba9f 1740 b91d 2a41
000000e0: f0a4 1441 6c13 f440 652e 4341 75d3 b540
000000f0: 9db4 3441 8b2d 1c41 3259 1d41 7cbb d640
00000100: 70a1 3941 e500 1141 dc66 aa40 1ce8 c340
00000110: 2752 ae40 c9e1 ec40 0ac9 8f40 6008 aa40
00000120: 98d0 0941 8c3b 3441 8e73 0741 396b cf40
00000130: f891 9840 0de7 0a41 e7e7 fa40 60cc 0c41
00000140: b544 2a41 499a f140 a93c 4841 f3f2 0941
00000150: c53f b740 9456 3a41 be5c 1c41 fa09 b340
00000160: dbbd 1241 23e2 fa40 d405 0a41 d85c 4141
00000170: 7be7 3a41 0231 2941 0f77 a740 84ca dc40
00000180: ae47 b540 8d03 a340 86d4 6041 8734 0841
00000190: 6777 0341 bc94 f340 ce6b 2141 4027 7040
000001a0: c82b 2e41 0f2a 1941 a5c0 e140 754f 1241
000001b0: 096b 7d40 781d 4440 e634 9640 b23b e840
000001c0: d0bd ff40 e5f1 c340 ed99 4741 ae0e 3a41
000001d0: 5938 6d40 5868 0a41 29d2 0141 fd60 1641
000001e0: 314b 4941 ed0b d440 3af4 8040 7749 3f41
000001f0: 1c1f f440 aaf7 ff40 f5c3 1841 7525 c440

attention.0.weight f4 [1, 128, 1]
-0.08321026 0.051934488 -0.004654483 -0.07137975 -0.06858105 -0.066708766 -0.041093007 -0.03528943
-0.018790146 -0.052374646 -0.070584744 -0.041793767 -0.12773855 0.006301507 -0.07318239 -0.07320807
-0.011306646 0.03927593 -0.032840073 -0.12824786 -0.00452718 -0.109489165 -0.07503828 -0.00415027
-0.07645183 -0.101483926 -0.08040113 -0.1009626 -0.1498153 -0.09232419 -0.050606918 -0.066912845
0.08417255 -0.10953178 -0.04610907 -0.16171712 -0.041405883 0.01697756 -0.12394845 0.05790135
-0.08323554 -0.0050445166 0.010423503 -0.052342948 0.022029435 -0.013056018 -0.05948739 -0.048449267
-0.0025272772 0.09501346 -0.045944095 0.04376245 -0.022320453 -0.008826585 0.0013629452 -0.032946814
-0.06077092 -0.048402164 -0.15159735 0.0814528 -0.084770575 -0.040968597 -0.10516083 -0.045778267
-0.1516892 -0.0014813462 -0.03983235 0.000953002 0.008525451 -0.063610874 -0.0052642575 0.0023562985
-0.026081944 -0.022318924 -0.07066599 -0.05429266 -0.052052073 -0.14585815 -0.08262757 -0.07352061
-0.14767633 -0.07364838 -0.16071318 -0.019399073 -0.033862144 -0.03655347 -0.09254647 0.06419503
-0.091019444 -0.09279494 -0.05198153 -0.1530548 -0.06576623 -0.08544903 -0.018961748 -0.10104903
-0.029483529 0.02931672 -0.13022543 -0.097793646 -0.03645529 -0.04461705 -0.14815396 0.013699089
-0.08085292 -0.074256554 -0.08090923 -0.05400281 -0.0044861576 0.009835904 -0.00805556 -0.05210306
0.08441893 0.041848656 -0.15389727 -0.031210009 -0.042822756 -0.06255586 -0.12460048 -0.16962324
-0.12479355 0.10745717 0.03378046 -0.12448346 -0.15599412 -0.06627213 -0.13155313 -0.017770354
00000000: 246a aabd 42b9 543d a284 98bb 8c2f 92bd
00000010: 3974 8cbd 9b9e 88bd 2451 28bd a68b 10bd
00000020: cbed 99bc cc86 56bd bc8e 90bd f12f 2bbd
00000030: e5cd 02be df7c ce3b a6e0 95bd 1dee 95bd
00000040: 833f 39bc ccdf 203d 5083 06bd 6853 03be
00000050: bd58 94bb db3b e0bd abad 99bd fdfe 87bb
00000060: c792 9cbd ced6 cfbd 59a9 a4bd 7bc5 cebd
00000070: 2f69 19be 7714 bdbd 3349 4fbd 9a09 89bd
00000080: a862 ac3d 3352 e0bd dddc 3cbd 2c99 25be
00000090: 3799 29bd 8614 8b3c afd8 fdbd f729 6d3d
000000a0: 6577 aabd 794c a5bb 57c7 2a3c 8f65 56bd
000000b0: 1377 b43c e9e8 55bc 0da9 73bd bd72 46bd
000000c0: ada0 25bb 6b96 c23d e02f 3cbd 4140 333d
000000d0: 62d9 b6bc 619d 10bc daa4 b23a 3df3 06bd
000000e0: eeea 78bd 5941 46bd 563c 1bbe bad0 a63d
000000f0: 329c adbd b0ce 27bd 905e d7bd fe81 3bbd
00000100: 6a54 1bbe bb29 c2ba 3f27 23bd e2d2 793a
00000110: 55ae 0b3c 6b46 82bd cb7f acbb 216c 1a3b
00000120: cda9 d5bc 2dd6 b6bc 55b9 90bd fb61 5ebd
00000130: 8e34 55bd d75b 15be a538 a9bd f991 96bd
00000140: 7738 17be f6d4 96bd ff91 24be ceea 9ebc
00000150: 08b3 0abd 17b9 15bd 0189 bdbd af78 833d
00000160: 6768 babd 460b bebd 96ea 54bd 66ba 1cbe
00000170: 72b0 86bd e7ff aebd ab55 9bbc cbf2 cebd
00000180: 7187 f1bc 9e29 f03c d159 05be 0948 c8bd
00000190: 2452 15bd 5ec0 36bd acb5 17be 2572 603c
000001a0: 3796 a5bd d213 98bd bdb3 a5bd 0d32 5dbd
000001b0: 9e00 93bb c626 213c 78fb 03bc 056a 55bd
000001c0: d5e3 ac3d 7f69 2b3d 3f97 1dbe 22ac ffbc
000001d0: ea66 2fbd 491d 80bd 892e ffbd b7b1 2dbe
000001e0: c393 ffbd 8112 dc3d 615d 0a3d 2ff1 febd
000001f0: ecbc 1fbe afb9 87bd ddb5 06be 2293 91bc

classifier.0.weight f4 [256, 128]
-0.15842772 -0.06695767 0.120365456 0.06549422 0.14784604 -0.15872371 -0.010935536 -0.04812337
-0.019248473 -0.04800842 0.13277256 -0.006291296 0.032659333 -0.07904598 0.02240806 0.024948915
-0.019943254 0.044262942 -0.013957515 0.123648606 -0.08695763 -0.1844721 0.15301733 -0.008947907
-0.044907104 0.032738075 0.1453274 -0.07946226 0.0518151 -0.043234035 -0.00768196 0.036738347
0.05132414 -0.04519355 0.054622114 0.0050850883 -0.14068344 -0.05684741 -0.031478144 0.0136352265
0.018208649 -0.09492461 -0.026882488 0.06917634 0.045418773 0.060666893 0.08229458 0.04244737
-0.06365238 0.08402417 -0.047434077 -0.022373062 0.074046 0.12770317 0.12383715 0.008547661
-0.014261723 0.018612897 0.120858684 -0.027544811 0.047809877 0.069270715 0.21489795 -0.22427846
0.003131009 -0.022517575 -0.033433173 -0.041006908 0.0028260285 -0.07075455 0.0011946168 0.040056307
0.021969128 -0.017231256 0.08928214 0.05117686 -0.08850327 0.08569424 0.21235985 0.007912086
-0.049723204 -0.029824553 0.10385103 0.025816428 -0.026561197 0.0019008347 -0.19527574 0.059566215
-0.04401784 0.13043395 -0.20863779 -0.05519046 0.039261162 0.12191489 0.08714068 -0.013388485
0.031545285 0.19884773 0.21504614 0.09425636 0.031680845 0.066696934 0.06610158 0.13750441
0.044999808 -0.017379623 -0.06446572 -0.04723547 -0.009826453 -0.06826415 0.01321702 0.032512587
-0.084076606 -0.06910745 -0.048089102 -0.04994828 -0.10157714 -0.07114553 0.058680274 -0.033885278
-0.07010873 -0.056977257 0.05109065 0.04346632 -0.133411 0.124194495 0.21590164 0.014010026
0.15469968 -0.07618489 0.15213738 -0.025417453 0.025760764 0.14675206 0.08325602 0.0873137
-0.12346479 0.022446964 0.04216678 -0.25102833 -0.017112058 -0.01168906 -0.00957866 -0.08269986
0.07806727 -0.22025536 0.12595947 0.059032854 -0.028000588 0.06342589 -0.05845889 -0.022768527
-0.13939506 0.023045976 -0.06383776 0.054432843 -0.09478233 -0.059483077 0.07486789 -0.090250224
-0.14324905 -0.0984994 0.022424988 -0.09586208 -0.12576263 -0.04938418 0.024539769 -0.14769664
-0.13461174 0.14605607 -0.12711544 -0.021804037 -0.027540375 -0.05373229 -0.11142232 0.016542442
-0.04229666 -0.07505962 -0.041817676 -0.07981126 0.014752923 0.10113892 0.109537944 -0.13508107
-0.039552256 -0.022693884 0.1388596 -0.09530373 -0.11351621 -0.064833716 0.05601138 -0.15462072
0.19107825 -0.108469576 -0.0006643523 0.022834715 -0.20082 0.10123948 0.0039118594 -0.035696995
-0.12916851 -0.099630974 0.11304471 0.064863764 -0.09184925 0.03180635 -0.020648152 -0.030918812
0.17463218 0.051297385 -0.051204655 -0.030504663 -0.011039435 -0.0117779225 -0.101757534 0.056949273
0.12550206 -0.10820866 -0.02862478 -0.011323186 0.17660712 -0.17795484 -0.02181571 0.03642978
-0.05757531 -0.047597732 -0.06364399 -0.15608312 -0.07404848 -0.021528555 0.05245665 -0.21034692
0.07771999 0.05084757 -0.08777136 0.06295791 -0.14438322 0.026520846 0.06296361 -0.047996305
0.034677517 0.1423167 0.0010248413 -0.0460134 -0.08677715 -0.061969955 0.13694514 -0.0053205206
0.21649088 -0.008023196 0.019281086 0.06421843 0.22267024 -0.17279287 -0.09248766 -0.041260112
00000000: e03a 22be 1a21 89bd 2a82 f63d d521 863d
00000010: f464 173e 7888 22be f62a 33bc 031d 45bd
00000020: f9ae 9dbc 7aa4 44bd 88f5 073e 3727 cebb
00000030: cbc5 053d dce2 a1bd 1c91 b73c ab61 cc3c
00000040: 0960 a3bc 0f4d 353d 10ae 64bc 7b3b fd3d
00000050: d816 b2bd 41e6 3cbe 93b0 1c3e 3e9a 12bc
00000060: 83f0 37bd 5c18 063d b5d0 143e 1cbd a2bd
00000070: 123c 543d 2c16 31bd f3b8 fbbb f37a 163d
00000080: 4339 523d df1c 39bd 70bb 5f3d d0a0 a63b
00000090: 520f 10be d4d8 68bd 3aef 00bd 4966 5f3c
000000a0: 4e2a 953c d567 c2bd aa38 dcbc 53ac 8d3d
000000b0: 0909 3a3d d97d 783d 108a a83d 4bdd 2d3d
000000c0: 2e5c 82bd dd14 ac3d 3c4a 42bd b647 b7bc
000000d0: 6ea5 973d 9fc4 023e 559e fd3d 7d0b 0c3c
000000e0: 00aa 69bc 137a 983c c284 f73d a8a5 e1bc
000000f0: 4ad4 433d cedd 8d3d 350e 5c3e 41a9 65be
00000100: 9d31 4d3b c776 b8bc 39f1 08bd dcf6 27bd
00000110: e434 393b c3e7 90bd b094 9c3a 1512 243d
00000120: 9af8 b33c 9028 8dbc 8ed9 b63d d49e 513d
00000130: 3441 b5bd 7680 af3d dc74 593e b2a1 013c
00000140: 8faa 4bbd 9f52 f4bc d9af d43d f97c d33c
00000150: de96 d9bc 6e25 f93a 5df6 47be b4fb 733d
00000160: 0d4c 34bd 7a90 053e 25a5 55be 640f 62bd
00000170: 50d0 203d 84ae f93d d076 b23d 605b 5bbc
00000180: a135 013d bd9e 4b3e 0e35 5c3e 7a09 c13d
00000190: c6c3 013d 6798 883d 4460 873d f5cd 0c3e
000001a0: b851 383d b65f 8ebc 9a06 84bd fb79 41bd
000001b0: 22ff 20bc 13ce 8bbd 338c 583c eb2b 053d
000001c0: 5b30 acbd 3588 8dbd 14f9 44bd 9196 4cbd
000001d0: ad07 d0bd bfb4 91bd ba5a 703d 4acb 0abd
000001e0: 2a95 8fbd fc60 69bd 6e44 513d bd09 323d
000001f0: e59c 08be af59 fe3d 5215 5d3e 4f8a 653c
00000200: 9869 1e3e d306 9cbd e7c9 1b3e 4338 d0bc
00000210: 3d08 d33c 2c46 163e 2282 aa3d 86d1 b23d
00000220: 1cdb fcbd b2e2 b73c 13b7 2c3d c986 80be
00000230: 962e 8cbc 7983 3fbc d0ef 1cbc 8b5e a9bd
00000240: bce1 9f3d 9f8a 61be 85fb 003e 6fcc 713d
00000250: 7d61 e5bc 6fe5 813d 9772 6fbd 1085 babc
00000260: 94bd 0ebe eaca bc3c 5fbd 82bd f9f4 5e3d
00000270: 3d1d c2bd 87a4 73bd 5654 993d 1cd5 b8bd
00000280: e1af 12be 0eba c9bd 9cb4 b73c 5753 c4bd
00000290: ebc7 00be 1147 4abd a007 c93c ca3d 17be
000002a0: a9d7 09be b98f 153e 8d2a 02be 619e b2bc
000002b0: 5a9c e1bc 6416 5cbd 6331 e4bd 0484 873c
000002c0: 433f 2dbd dcb8 99bd 0349 2bbd 1674 a3bd
000002d0: 3eb6 713c ec21 cf3d 6e55 e03d b152 0abe
000002e0: 8c01 22bd 86e8 b9bc 3631 0e3e 9a2e c3bd
000002f0: 307b e8bd 8ac7 84bd 306c 653d e554 1ebe
00000300: 04aa 433e 4c25 debd ee27 2eba de0f bb3c
00000310: c2a3 4dbe a556 cf3d 0e2f 803b 0337 12bd
00000320: c044 04be 530b ccbd fc83 e73d 4bd7 843d
00000330: 761b bcbd 6047 023d 5026 a9bc 7349 fdbc
00000340: c7d2 323e 351d 523d f9bb 51bd eae4 f9bc
00000350: bfde 34bc 30f8 40bc 4166 d0bd a443 693d
00000360: 9d83 003e 809c ddbd 847e eabc e284 39bc
00000370: 7fd8 343e cb39 36be dcb6 b2bc 6537 153d
00000380: 17d4 6bbd d7f5 42bd c857 82bd 41d4 1fbe
00000390: bba6 97bd a75c b0bc c9dc 563d 2f65 57be
000003a0: a82b 9f3d 8b45 503d 79c1 b3bd 14f0 803d
000003b0: 32d9 13be 3f42 d93c 11f3 803d c697 44bd
000003c0: 030a 0e3d 78bb 113e f853 863a 8c78 3cbd
000003d0: 38b8 b1bd 35d4 7dbd 593b 0c3e c357 aebb
000003e0: c9af 5d3e b973 03bc 5ef3 9d3c f484 833d
000003f0: ab03 643e 9df0 30be 2c6a bdbd 5d00 29bd
