models/sweep_top_b_lr3e-4_wd1e-3.pth (torch, 462775 bytes, 20 tensors)

conv1.0.weight f4 [32, 6, 64]
00000000: 23f9 f23c e46f 923d 60c9 a7bd 9219 513d
00000010: cac2 053c 6b24 26bd e037 143d 3b1c ee3d
00000020: 3259 febc 1393 f03b f495 ba3c 2227 b13d
00000030: 2dbf e0bd 070f 78bd 5f7e 833d f5fb b33c
00000040: 2764 203b bac3 03be cfa8 963d c098 263e
00000050: 7993 7dbd af7b e1b9 24b9 c6bc 50aa e23d
00000060: 9e04 043e fb7a 22bd 6cb4 8dbd 1987 9abb
00000070: 09ac 353e 6bc5 c13d a3e9 ae3c b0eb 93bd
00000080: 3ae8 3e3e 0d50 36be beaa 763d d69a 54bd
00000090: 6bb3 243d 4094 d53d add2 d53d da0c 03bc
000000a0: f335 fcbd 45d5 ac3d 35dc ff3c 8a9f 37bb
000000b0: e685 0a3d 73bd 9bbd 9bd3 b939 1d47 0b3c
000000c0: 93ad 2f3e 82df 33ba 9e26 b93d b87f 9b3d
000000d0: 9f43 df3d fef1 533d 9f75 d13d e8d0 08bd
000000e0: eaa3 9d3c 98cc 1c3e a410 773d 79ab 54bd
000000f0: b071 a63b 1a1f 333e 708a 763d 199d e03c
00000100: f73b 113d 63df 963b 6d37 d4bc da84 07bd
00000110: c0f4 e1bd 07a2 123e 9f7a ddbc f86c 25be
00000120: 2be2 13bd f6c7 513d b513 25bd 7afb b53d
00000130: 284f b13d b3f9 033c 4bdb a0bb cbf1 7e3d
00000140: 5439 d0bd 6182 54bc 23d3 543c 834c f43c
00000150: a018 98bd f2c0 903d 6f4c af3b 8b52 903c
00000160: 929a 413d f429 ce3d 6449 e4bd 096c 00be
00000170: e652 28b9 d8e9 263e 5870 cebc e641 ea3c
00000180: b4ba 093d 77c7 05bd d3f6 a0bc 519c 093e
00000190: 4af1 7e3d 3f18 143d 570e 85bd f41d 02bc
000001a0: b005 b53d 52f0 4f3e e437 ad3d 00a4 9a3d
000001b0: 86ee b53d e7d0 9ebc 76ee 3b3d ac13 26bb
000001c0: d82c 9a3d 7373 c23c 9e98 193d 032f 0b3c
000001d0: 475a ec3c bbda 8f3d fab7 d13d 3ca5 c13c
000001e0: 8723 51bd f365 803b c1b5 03be b9d9 993d
000001f0: 98ab 1bbd 80a6 283e 8c0d 0b3e ea03 233d
00000200: f0cf 92bd cecd 9cbd c71b 25bd b1ac c5bd
00000210: 4b9b 61bc cd23 5cba bd13 733d 0c8b 4c3d
00000220: 4a18 9a3d 5776 fd3d dd1d 38bc 3c2d aebc
00000230: a778 523d 6b87 9d3d cdb2 c43d ef05 183d
00000240: 1483 6d3d 8f9c cabc 942e d13c 234c 3abd
00000250: 5c39 bbbd 2e76 ebbc 7fec 9d3d 481b a13d
00000260: 61ce 8ebd 97c4 cabd 6ebe e4bc 37e6 373d
00000270: 8ee6 59bd 138e fd3d fff6 de3d c919 ae3c
00000280: 5e3b 423c fc36 213e d032 933d dc20 cc3d
00000290: b84a 2d3d adff fb3c a371 da3d 6413 353d
000002a0: dd18 343c c618 f4bc 0a9e aebb ea22 193e
000002b0: 7f01 02be 17d4 983d 2de8 6ebd 3f93 03be
000002c0: 6d26 dcbc a0b3 c9bd 07f5 6ebc 87f8 2cbe
000002d0: 310f 7fbd 0787 8b3d 8d2c 083c 94d6 883d
000002e0: b524 39bc d2e8 c0bc 2f10 7fbd 211a 963d
000002f0: da7a 10bb 781a c3bc 2195 92bd 1dae 09be
00000300: 5736 53bd 467f a0bd 761d bc3d ffac 2c3a
00000310: a238 a83d d82c b83d b476 11bc 4367 93bd
00000320: 1e21 fdbd 25eb 6f3c 191a 683d d3cc a6bd
00000330: f717 9c3d c622 5f3c f55e b9bd bacb 673d
00000340: 52c0 1cbe 960f 843c 109e b33c 6be9 fbbd
00000350: 3490 c0bd a1c6 0abe 710d 26bd 0664 a8bd
00000360: b72b 41be d27f 22be 9d20 6dbd 185d 1ebe
00000370: f6aa 72bc e991 28be 462b 1ebe 72a3 6cbd
00000380: 786f 653d af27 ba3d 1bbf 07be e904 e7bd
00000390: 7073 0f3d a2a2 b13d 8030 a4bd f7ad 1fbd
000003a0: 230b 113c 3c7d 88bd f9c9 303b 88b7 2dbd
000003b0: 2729 363c afea 403d 1b13 aabd 6f4d f13c
000003c0: eb25 353d 31c7 1dbe 17e1 f53c a8e8 8a3b
000003d0: f07a ebbb 5f2a d2bd 9320 7f3d 3197 fa3c
000003e0: 231d a83d 7938 8e3d eb5e 323d 58bd 3c3d
000003f0: 8aa2 dc3d f1ad b73d 8940 073e 109c 313c
0.029659813 0.07150248 -0.08192706 0.051049776 0.008164117 -0.040562075 0.0361861 0.11626478
-0.031048391 0.0073417514 0.022776581 0.08650042 -0.10973964 -0.060561206 0.06420588 0.021970728
0.0024473758 -0.12867633 0.073564164 0.16269207 -0.06190822 -0.00043007496 -0.024258204 0.11067641
0.12892386 -0.039668065 -0.06919178 -0.004715812 0.17741407 0.094614826 0.021351641 -0.07222688
0.18643275 -0.17803974 0.060221426 -0.051905476 0.04021017 0.10428667 0.10440574 -0.0079986695
-0.123149775 0.084391154 0.031232933 -0.0028018677 0.0338191 -0.07604494 0.00035443608 0.008500841
0.17156057 -0.00068616134 0.09040569 0.0759272 0.109015696 0.051744454 0.102275126 -0.033402354
0.0192432 0.15312421 0.060318604 -0.05192134 0.0050794706 0.17492333 0.060190618 0.02741866
0.035457578 0.0046042665 -0.025905335 -0.03308568 -0.110330105 0.14319621 -0.02703601 -0.1615485
-0.036104362 0.05121609 -0.040301997 0.08885856 0.08657676 0.008055138 -0.0049089543 0.06224231
-0.101671845 -0.012970538 0.012989792 0.02982164 -0.07426572 0.070680514 0.0053496878 0.017617485
0.04726655 0.10066596 -0.11146811 -0.12541212 -0.0001605261 0.16300142 -0.025200054 0.028595876
0.03362532 -0.032660928 -0.019648945 0.13438536 0.06224183 0.036155935 -0.06496876 -0.007941712
0.088389754 0.20306519 0.08457926 0.07550812 0.08883385 -0.019386722 0.04588171 -0.0025341315
0.075280845 0.023736691 0.037499063 0.008495095 0.028851641 0.070241414 0.10240169 0.02363836
-0.051059272 0.0039184033 -0.12862302 0.075122304 -0.03800544 0.16469765 0.13579386 0.039798655
-0.07168567 -0.07656442 -0.040309694 -0.09652079 -0.013769935 -0.0008397669 0.059344996 0.049937293
0.07524164 0.12376087 -0.011237589 -0.021261804 0.051384594 0.076918446 0.09604416 0.037115034
0.057986334 -0.024732856 0.025534905 -0.045482766 -0.091418 -0.028742876 0.07711124 0.078665316
-0.069729574 -0.09900778 -0.027922835 0.044897284 -0.05319839 0.12380614 0.108869545 0.02125253
0.011854975 0.15743631 0.07187426 0.09967205 0.042307585 0.030761564 0.10666206 0.044207945
0.010992256 -0.02979697 -0.0053288983 0.14954725 -0.12695883 0.07462328 -0.05832689 -0.12849139
-0.026873792 -0.09848714 -0.014584786 -0.1689168 -0.062270347 0.06812864 0.008311403 0.066815525
-0.011300256 -0.023548517 -0.062271293 0.073292024 -0.0022045881 -0.023816332 -0.0715735 -0.13445325
-0.051565494 -0.078367755 0.09185307 0.0006587058 0.08213927 0.08992928 -0.008878399 -0.0719743
-0.12359832 0.014643465 0.056665514 -0.08144536 0.076217584 0.0136191305 -0.09051315 0.056590773
-0.1530774 0.016120713 0.021925956 -0.1230038 -0.094025046 -0.13552333 -0.040540162 -0.08222203
-0.18864332 -0.15869072 -0.05789243 -0.154652 -0.014811268 -0.1646191 -0.15446195 -0.05777306
0.056014508 0.090896 -0.13256495 -0.112802334 0.0350222 0.08673598 -0.08017063 -0.038984265
0.008852753 -0.066645116 0.0026975854 -0.042411357 0.01111821 0.04709881 -0.08304425 0.029455869
0.044225615 -0.15408017 0.030014558 0.0042391606 -0.007186286 -0.10261988 0.062286925 0.030589672
0.082086824 0.06944365 0.043547552 0.04607901 0.10773189 0.089687236 0.13208212 0.010840431

conv1.1.weight f4 [32]
00000000: d7a2 793f 51a5 803f 6238 823f 5512 953f
00000010: e7a4 983f 7be8 783f 298b 813f 85f6 743f
00000020: 7234 993f 299a 813f 39d7 5e3f 48bb 833f
00000030: 8949 863f 4503 783f 2308 7d3f fd70 853f
00000040: 538b 893f f88f 973f 0906 873f 7b8f 923f
00000050: cc76 8e3f 8ce6 833f bf86 703f e276 7a3f
00000060: 4373 7f3f 2ac9 753f 2f7a 7a3f 4a91 853f
00000070: 46a7 7d3f e749 863f 1b63 813f b606 9a3f
0.975141 1.005045 1.0173457 1.164622 1.1925324 0.9722974 1.0120593 0.9568866
1.196913 1.0125171 0.87047154 1.0291529 1.0491191 0.9687999 0.9884054 1.0425106
1.0745643 1.1840811 1.0548717 1.1450037 1.1130004 1.0304732 0.93955606 0.9783765
0.9978525 0.96010077 0.9784269 1.0434964 0.99083364 1.0491303 1.010837 1.2033298

conv1.1.bias f4 [32]
00000000: 88cd 65bd b129 f33c 6df9 51bb 9a48 62bd
00000010: f33f 42be 80e4 48bd 6359 77bc ef40 61bd
00000020: e5a9 4ebe 5039 ccbd f77f 49bd b8f9 a9bc
00000030: 193e 993c 17aa 213d 0e46 3b3b 12d2 55bd
00000040: 5842 a03b d38d 49be 59ee 6ebd 907c b5bd
00000050: f2bc 27bc 5c9c 8abd eec9 31be 10aa c63c
00000060: 6b35 fbbd 15fe eabd 5243 a5bd d9cb a6bd
00000070: 7d6f 05bd 1374 6cbd cec9 93be 4561 36bd
-0.056104213 0.029682966 -0.0032039538 -0.05524502 -0.18969707 -0.04904604 -0.015096995 -0.054993566
-0.20181997 -0.09971869 -0.049194302 -0.020748958 0.018706368 0.03946885 0.0028575691 -0.05220229
0.0048907213 -0.19683008 -0.058332775 -0.08861649 -0.010237919 -0.067681044 -0.17362186 0.024251014
-0.12266048 -0.114742436 -0.08069481 -0.081443496 -0.032577027 -0.057727885 -0.28864902 -0.044526357

conv1.1.running_mean f4 [32]
00000000: 78c9 0a3b 76d4 be3b 0e3b 22ba 3cfa 013a
00000010: 303e e338 d835 953b 78a8 87bb 7b98 bcba
00000020: e45a febb 72bb 12bb 80a2 17ba ef72 c1bb
00000030: fc74 4a3a 2f2d a23b 902e 3e3b b59f b03a
00000040: 7faf bfba 605b c43a 5f20 be3a 3779 a8bb
00000050: 38c2 243c 4c38 a7b9 a05b 7e3b 64c1 00ba
00000060: 46f6 a0bb 051d 3b3a 90de a238 787e 6cbb
00000070: ebf2 a7bb c05d 92b7 1ebb 463a d23a 69ba
0.0021177214 0.005823667 -0.00061886094 0.00049582473 0.00010835787 0.004553538 -0.004139956 -0.0014388704
-0.0077623 -0.0022389558 -0.0005784407 -0.0059035937 0.00077231205 0.004949234 0.0029019453 0.0013475331
-0.0014624445 0.0014980845 0.0014505497 -0.005141403 0.010056071 -0.00031894667 0.0038811937 -0.000491163
-0.0049121706 0.0007137808 7.7662175e-05 -0.0036086123 -0.0051253936 -1.7448212e-05 0.0007580983 -0.00088970095

conv1.1.running_var f4 [32]
00000000: 33ed 0b41 b1fd 7240 ad3e 1941 e8da 9a40
00000010: 174e ec40 0a96 f040 e389 8940 09ba 0a41
00000020: 6999 e640 f68e 3840 061f 1241 3877 a740
00000030: 5727 f440 9792 9c40 a939 8c40 2a72 8f40
00000040: 10a7 cd40 011d 6b40 7a4f 9440 f739 bb40
00000050: 5c17 cb40 9616 3f40 f118 4540 c2ba 5940
00000060: f167 b940 39ee 2540 c8ff ab40 9bfc 9d40
00000070: 4c87 7d40 926b 2541 1d4d 1740 258d a940
8.74541 3.796734 9.577802 4.839222 7.3845325 7.5183153 4.298082 8.670419
7.206227 2.8837256 9.132574 5.233303 7.629802 4.8928943 4.3820386 4.482686
6.4266434 3.6736453 4.6347017 5.850826 6.3466015 2.9857535 3.0796473 3.4020238
5.793938 2.592665 5.3749733 4.9370856 3.9613829 10.338762 2.3640816 5.2984796

depth_conv.0.weight f4 [64, 1, 16]
00000000: 0558 243e 45e2 3cbe 184d 453f 4733 3cbf
00000010: a4a6 b7be 5348 a9be 64e6 9fbe 8508 9e3e
00000020: 4590 3bbf f87f 563e 5356 cbba e54b a1be
00000030: 29a7 ea3e 7b12 493f bbb5 953d 5cb7 993e
00000040: 8c9d 0cbf 4a17 943d 488b f93d 1e69 813e
00000050: e28d 7a3e e1ce b0be 83a5 fa3d a315 45be
00000060: f589 57bd 3ba5 30bc 5935 ecbd 14ec 4dbc
00000070: 0c08 b23c 35b9 113f 6764 acbe 4d40 8bbd
00000080: 306c d4be bcea cfbe 93f9 0e3f 6f98 c73e
00000090: 5205 f23d 9d78 5cbd 9151 25bf 0d07 99be
000000a0: 4355 97be 1c41 943e 3b65 c63d 0dff 4bbe
000000b0: 9ae4 76bd bd55 83be 688e 533f d01a bcbc
000000c0: 98fd 113e b697 a43e 79ca 493e 9db5 d83e
000000d0: 9ecf bb3d ace2 89be f032 c53e 48af 153d
000000e0: 69db 9b3e df02 6c3d 75d0 3ebe 8aa1 983e
000000f0: f07a 25bf 4e1b 27bd a01f 29be 50de edbe
00000100: 2ac1 07be 50b1 1fbc 4276 fb3e 9a87 b1bd
00000110: d93b a03e 4ea1 1fbe f236 a53c 95dc 873c
00000120: 1df4 fabe 7b05 2f3f 991b 6f3e f331 86bd
00000130: 1a87 0cbf 2dae cebe 77a1 5bbf 3553 953c
00000140: 4257 233f 36d3 6e3d 508f 0abf b15c adbe
00000150: a003 233e acc8 c1be 8660 a9be 70b0 983e
00000160: d688 90bd 9f7d a43d 5658 21be 80f5 16be
00000170: ccff dabe b3a9 acbe db29 ee3d 9ca1 9c3e
00000180: 4167 293c f497 9d3e 9a57 4a3e eae6 b63d
00000190: f9da 37be c754 953e 0317 453e 8bb2 07bf
000001a0: 1394 263f a11f 3e3f 0726 55be c555 c9be
000001b0: ea49 2dbf 5080 2c3f cb92 d83d e92d 04be
000001c0: f535 88be 66ce bf3d d177 2a3f 7d3b 01be
000001d0: 8771 f6bc 952e edbe d466 183e 2296 b83d
000001e0: 08ed 183f 10cd 73be 5a17 8abd b94f 0fbe
000001f0: d143 183f c37a ed3d ac15 ca3e a448 77be
00000200: 1dc3 c73e ad85 36bf 2348 fd3e 94df 763e
00000210: 653c 1f3f 49f5 a03c b917 c33e df23 86bd
00000220: c83e 83be 203b dd3e c2c3 18bf 955b 613e
00000230: 10da 8cbe 2ffb 6bbe 9470 6a3c 6ce3 99be
00000240: b1a2 d9be 8e73 12be b9bb 3fbc a598 b33e
00000250: 30a8 63be d6c2 413e 1358 153f 3c0e 183e
00000260: 0c66 943e da37 69bd 6704 673d 8cd2 85bd
00000270: 5a79 4a3d 3e57 b3be 9512 473f c902 3a3f
00000280: 4ba0 b2bd 6f60 89be 9ad6 ac3e cd18 a73c
00000290: f136 9e3d 337b 9c3e 3db4 d53d b520 a03d
000002a0: 9541 513d 6640 08be 1c0a 3c3f 394a 0f3e
000002b0: 9d49 80be 4e8b 0fbf 9131 bd3d 9e55 67bd
000002c0: 1f31 a63e 3478 913e 727f 653e a1ef 38be
000002d0: 020b 02be c580 b9be c4c0 e43e ba78 733e
000002e0: a26c a8bc e9f6 f13b 3813 c23d 1e80 b7be
000002f0: 5361 56be 8b60 3fbf 32e7 5a3e cbad 6cbe
00000300: 19a2 4e3e 77d9 05bf fee6 853c a8aa 9c3e
00000310: a7af a8bb 8da8 e63e 5143 e63e 86ea a3be
00000320: 6f02 cbbe b3b8 fe3d 1964 d93d c40e e3be
00000330: cd06 0d3e bd0e 91be 8772 e13e 9978 2ebe
00000340: 9577 643e f966 e33e 9efe 11bf d63c 1c3f
00000350: c89b 2ebe ae26 9cbe d546 373e 6753 8d3c
00000360: 74c8 bb3e aff2 80be 90d4 083e e2e5 edbd
00000370: 43c4 443f e6e7 cd3e fac7 1ebf f11e 0d3e
00000380: decf 13bf 6716 153e 5523 05bf 3dc3 86be
00000390: 5b54 493e 272b b43e 48a2 8c3e 6462 47bf
000003a0: 9188 eebc 3d23 e23d f2de 04be 4fa9 e3be
000003b0: 4e60 9ebd 5d28 f93e 1105 c13e e041 933d
000003c0: 26e8 bc3d 7283 0e3e a284 103e 31b8 f7bd
000003d0: c118 b13e 7b52 ccbd b227 923e bd8a d7bd
000003e0: f236 913f b0f2 adbe 4bd7 0e3d ca2e 183d
000003f0: 00c9 203d b33d 023e 8552 8e3e 5991 a6bd
0.16049202 -0.1844569 0.7707076 -0.73515743 -0.35869324 -0.33062991 -0.31230462 0.30865875
-0.7326701 0.20947254 -0.0015513398 -0.31503215 0.45830658 0.78543824 0.07310053 0.30022705
-0.549279 0.072310045 0.12184769 0.2527551 0.24468186 -0.34532836 0.122386 -0.19246535
-0.0526218 -0.0107815815 -0.11533613 -0.012568492 0.021732353 0.5692323 -0.3367035 -0.06799374
-0.4148879 -0.40608776 0.5584957 0.38983485 0.11817421 -0.053825963 -0.64577585 -0.29888192
-0.29557237 0.28955925 0.09687277 -0.19921513 -0.060276605 -0.2565135 0.8263917 -0.022962004
0.14256895 0.32146996 0.19706143 0.4232606 0.09170459 -0.2693075 0.38515425 0.036544114
0.30440834 0.057619926 -0.18634208 0.29810745 -0.6464071 -0.040797524 -0.1651597 -0.46458673
-0.1325728 -0.009746864 0.4911366 -0.08668442 0.3129566 -0.15588877 0.020167802 0.016584674
-0.4901437 0.6836774 0.23350371 -0.06552496 -0.5489365 -0.4036726 -0.8579325 0.018228153
0.6380502 0.058306895 -0.5412493 -0.3385978 0.15919352 -0.37848413 -0.33081454 0.2982211
-0.070573494 0.08031773 -0.15756354 -0.14742088 -0.42773283 -0.3372322 0.11629077 0.30592048
0.010339559 0.30779994 0.1975998 0.08930762 -0.17954625 0.29166242 0.1924706 -0.5300681
0.65069693 0.7426701 -0.20815288 -0.3932325 -0.6769091 0.6738329 0.105748735 -0.12908138
-0.26603666 0.09365539 0.66589075 -0.12620349 -0.03008343 -0.46324602 0.14882976 0.090130106
0.5973668 -0.23808694 -0.06742735 -0.13995256 0.5947848 0.115956806 0.3946966 -0.24148804
0.39016047 -0.71297723 0.49469098 0.24108726 0.6220153 0.019648211 0.38104036 -0.065498106
-0.25633836 0.4320917 -0.596737 0.22007592 -0.27510118 -0.23045038 0.014309067 -0.30056322
-0.42506936 -0.14301893 -0.011702471 0.35077396 -0.22232127 0.1892198 0.58337516 0.1484918
0.28984106 -0.05693803 0.056400683 -0.06534299 0.049432136 -0.35027498 0.7776273 0.726605
-0.0872198 -0.26831385 0.33757478 0.020397568 0.07725323 0.30562744 0.10434768 0.07818738
0.051087935 -0.13305816 0.73452926 0.13993157 -0.25056162 -0.5607194 0.0923797 -0.056478135
0.3245935 0.2841202 0.22411898 -0.18060161 -0.12699512 -0.36231056 0.44678319 0.23776522
-0.020559613 0.0073841703 0.09476322 -0.35839933 -0.20935564 -0.7475669 0.21377257 -0.23113172
0.20179023 -0.5228495 0.016345497 0.3059895 -0.0051478925 0.4505047 0.44973233 -0.32014865
-0.39650294 0.12437572 0.10614795 -0.44347203 0.13772126 -0.28331557 0.4403269 -0.17038192
0.22311242 0.444145 -0.5702914 0.6103033 -0.17051613 -0.3049826 0.17898114 0.017251683
0.3667637 -0.25185153 0.13362336 -0.11616112 0.7686197 0.40215987 -0.6202389 0.13781334
-0.57739055 0.14559327 -0.5200704 -0.2632083 0.19661085 0.35189173 0.2746756 -0.7788451
-0.029117854 0.110418774 -0.12975672 -0.4446511 -0.077332124 0.48663607 0.37699178 0.07190299
0.09223966 0.1391733 0.14113095 -0.120956786 0.34589198 -0.099766694 0.2854591 -0.10524509
1.1344893 -0.33974218 0.034873288 0.037153997 0.03925419 0.12718849 0.27797332 -0.081331916

depth_conv.1.weight f4 [64]
00000000: f9ef 8d3f ea8d 8f3f 1338 7c3f a5f8 6a3f
00000010: bad4 8b3f 3b36 843f dc82 893f b379 863f
00000020: 08a1 6f3f c696 873f 941a 733f 578f 703f
00000030: bc6e 823f cbe3 6c3f f493 693f e541 713f
00000040: 6f15 8c3f 7185 943f 8b8b 903f 2a59 803f
00000050: 1283 903f 5e6b 833f 91a6 813f 9be2 783f
00000060: 5e9b 7d3f 5351 743f a6a5 783f ca6e 6f3f
00000070: bdee 643f e915 733f a442 813f 8e06 6f3f
00000080: 0757 783f 0e8d 7d3f 8f61 833f c169 903f
00000090: aae3 833f 1361 843f e4d1 823f 49ba 833f
000000a0: 605a 813f b9b8 803f 81d1 993f 3a69 863f
000000b0: 2453 9b3f daac 833f ee06 a43f 5091 913f
000000c0: 0bf3 833f 02c6 803f c7ff 8d3f f3dc 983f
000000d0: 0a31 803f e3fb 813f dc2a 763f 40df 8a3f
000000e0: 75a8 953f 083d 883f 3584 843f 6469 883f
000000f0: 7da9 a33f edcb a13f bd96 823f 7245 813f
1.1088859 1.1215184 0.9852306 0.9178565 1.0924294 1.032905 1.074306 1.050589
0.9360509 1.0592887 0.9496243 0.9396872 1.0190043 0.92535084 0.91241384 0.9424117
1.0944041 1.1603223 1.1292585 1.0027211 1.129 1.0267141 1.0128957 0.9722077
0.99065197 0.9543659 0.9712776 0.93528426 0.89426786 0.9495531 1.0098462 0.93369377
0.97007793 0.9904336 1.0264148 1.1282274 1.0303853 1.0342125 1.0220304 1.0291225
1.0105705 1.0056373 1.201706 1.0500863 1.2134748 1.0287125 1.2814615 1.1372471
1.0308546 1.0060427 1.1093682 1.1942428 1.0014966 1.0154995 0.9615915 1.084938
1.1692034 1.0643625 1.0352846 1.0657163 1.2786099 1.2640358 1.0202252 1.0099318

depth_conv.1.bias f4 [64]
00000000: 5a5d 0bbe 0183 f0bd a032 85bc 048b 0ebd
00000010: 59d9 1abe 4890 7cbd 1143 a0bd 2142 2cbe
00000020: 0e95 563d b0bc 98bd 2cc3 9b3d 99d4 fcbd
00000030: 048e 3f3d cdc6 c5bc 2991 a3bd 236c e4bc
00000040: e1d3 32bd 7304 0f3d f04b 87be 97a7 9cbd
00000050: cf44 21be f947 ecbd 5728 0dbc 7f7f 2e3d
00000060: d805 403d 370e 703d 7cd7 32ba 566d febc
00000070: f719 b6bc f394 473c 7239 80bc 6da9 8dbd
00000080: b7bc 3e3c f83d d03c 201d 96bd ce91 2fbe
00000090: 4d81 0f3d e065 7fba 2f0c dd3b b1a9 2cbe
000000a0: ee9d cc3d d26e e93a db27 debd 53a0 b3bd
000000b0: 5984 4dbe ddec 16be b323 f9bd e48d cdbd
000000c0: 3750 923d de88 cdbd 67db 4abe a462 37be
000000d0: a1c9 353d 909f 113d 9332 463d a8c3 99bc
000000e0: 8238 94bd 461c 9a3d 3b26 cabd 4d98 95bd
000000f0: 1c18 81be aff3 4fbe 47d7 07bd 863f 123e
-0.1360983 -0.11743737 -0.016259491 -0.034800544 -0.15121974 -0.061661035 -0.07825292 -0.16822101
0.052388243 -0.07457864 0.076055855 -0.12345237 0.046766296 -0.024142647 -0.079866715 -0.027883595
-0.043659095 0.034916352 -0.26425123 -0.07649153 -0.15748905 -0.11537165 -0.008615575 0.04260206
0.046880573 0.058607306 -0.0006822271 -0.031057995 -0.022229178 0.012181508 -0.015652392 -0.06917081
0.011641673 0.025420174 -0.07329774 -0.17145464 0.03503542 -0.00097426586 0.006745837 -0.16861607
0.0999106 0.0017809516 -0.108474456 -0.08770814 -0.20070018 -0.14738794 -0.12165012 -0.10036829
0.07144206 -0.10035871 -0.19810258 -0.17908722 0.04438174 0.03555256 0.048388075 -0.018770054
-0.072373405 0.07524924 -0.09870573 -0.0730444 -0.25213706 -0.20307802 -0.03316429 0.14282045

depth_conv.1.running_mean f4 [64]
00000000: 23f1 293c fdb3 c9bc 68bf 7dbd f306 a43d
00000010: 4328 f1bd 967f 08be 1daf 223e 90b1 223e
00000020: d5e3 4d3c 1833 a03d ea4a 463d f1f0 0ebd
00000030: 82dd 433c 2d5f 2b3e 96bd 82bd a2fc 213e
00000040: b0a5 cf3c 5d4c ac3c fb3c d9bc 80eb 1b3e
00000050: 9e1a 36bd a65b e3ba 05a1 b83c 0c21 213e
00000060: 298e 28bc bf8a 04be 3b52 8ebd 38ea 923e
00000070: 5fe6 393e e863 f2bd 4bee 81bc f615 e33d
00000080: 53fd 33be 55a0 8c3e 011a 6a3d 6a83 003d
00000090: 607c e43c b28c 30bb 677d faba fe88 123d
000000a0: 6491 9fbd 34a0 79be 54e2 49bc 869c 213d
000000b0: 26f7 8039 4ea3 e33b 112e 8cbd 1c57 16bd
000000c0: 207f aebb 3c65 0d3d 2aec 8e3c 86b1 743c
000000d0: 2a79 05bd aeb5 7d3b 7b09 21be 018c 0c3d
000000e0: 1c4d 1bbd f962 cc3d 00a7 31bd 63c5 f53c
000000f0: 065f 87bc b9d8 04bd 3967 f5bc e2f5 b63e
0.010372433 -0.024621958 -0.061950117 0.08009138 -0.117752574 -0.1332992 0.15887113 0.15888047
0.012566526 0.07822245 0.048411287 -0.03489775 0.011954667 0.16735525 -0.06383817 0.15819028
0.02534756 0.021032507 -0.026518336 0.15226555 -0.044458978 -0.0017346039 0.022537718 0.15735263
-0.0102878 -0.12943552 -0.06949278 0.2869432 0.18154286 -0.11835462 -0.015860697 0.11088173
-0.17577104 0.27466074 0.057153706 0.031375326 0.027891338 -0.002693933 -0.0019110859 0.035775177
-0.07791403 -0.24377519 -0.012322027 0.039455913 0.00024598202 0.0069469577 -0.06844724 -0.036704168
-0.005325213 0.034520373 0.017446596 0.014934903 -0.032586254 0.0038713026 -0.15726273 0.034313206
-0.037915334 0.09979815 -0.043372154 0.030001348 -0.016524803 -0.032433245 -0.029956447 0.3573447

depth_conv.1.running_var f4 [64]
00000000: 3003 2a40 8805 223f 6bb6 1240 506b 0e40
00000010: 38e3 3040 1b44 dd3f d913 5d40 93d2 4040
00000020: 2a58 1c40 bf6b 7040 3227 aa3f a777 f83f
00000030: 94e3 8e3f 2ffc ef3f 90bb eb3f cce3 0c40
00000040: e06d 6540 cbf5 3740 98e8 0940 7889 5740
00000050: e53b a53f ccb6 8f3f 885e 9f3f cd52 0440
00000060: ffe1 943f 8705 aa3f 14a0 d73f 95ce 4a40
00000070: 0484 c93f 2c8c f33f bf94 dc3f 7b7d 8a3f
00000080: 5437 4740 230f 5040 ae51 f83f e3bc 2940
00000090: e211 543f ec5a d83f 45bb 3c40 1915 e03f
000000a0: 0b49 683f 1f93 3740 94d7 833f d1f5 d73f
000000b0: 9450 f33f 5834 a33f e562 7c3f f25a 843f
000000c0: 0723 2f40 f1da a13f 6026 8b3f 73d9 8b3f
000000d0: 25df 943f e08e 8d3f c3ea 4a40 f895 bc3f
000000e0: 8168 0a40 94ca 933f 1494 2e40 7c94 bd3f
000000f0: 004d 8f40 2d8c a23f 63bc 7a40 70e5 df40
2.6564445 0.6328969 2.292384 2.2252998 2.7638683 1.7286409 3.4543364 3.0128524
2.442881 3.7565763 1.3293211 1.9411515 1.1163201 1.8748835 1.8416615 2.2014036
3.5848312 2.874377 2.1548214 3.3677654 1.2908903 1.122766 1.2450724 2.0675538
1.1631469 1.3282937 1.6845727 3.1688588 1.5743413 1.9027152 1.7232894 1.0819544
3.112752 3.2509239 1.9399927 2.6521537 0.82839787 1.6902747 2.94893 1.7506438
0.90736455 2.8683546 1.0300164 1.6871892 1.9008965 1.2750349 0.985884 1.0340254
2.736513 1.2644941 1.0871086 1.0925735 1.1630598 1.1059227 3.1705787 1.4733267
2.1626284 1.1546197 2.727788 1.4810939 4.4781494 1.2699028 3.9177482 6.9967575

point_conv1.0.weight f4 [128, 64, 8]
00000000: 623c 63bd 65a4 893d dbb9 a93d a76f 0b3e
00000010: 5d2b 3dbd e81c a9bd 3339 033d 1a65 393d
00000020: c7e6 5f3d 962b 93bd 76f7 333d 6bba 59bd
00000030: a588 12be 9102 fd3d ccd4 5a3d f6d2 30bd
00000040: 560d 4bbd 5925 1fbd 1828 753d 3c31 5a3d
00000050: 9107 fb3c 18a8 303c 532e 81bd c6fe 8b3c
00000060: 8a2c 2cbd b691 1bbd b01f 633d c33c 27bd
00000070: 268d 313c e1fa a6bc 66f0 0ebd e329 a8bd
00000080: a827 b9bd f665 9bbd a7f1 4cbe 2dc0 bbbd
00000090: 0a86 1e3d fcb5 2d3d cf7a bbbc aba6 bd3d
000000a0: 47ce aebc 6a17 403d 0cfc b5bd add2 34be
000000b0: 8168 b8bd a1b7 a0bb 98a8 8dbc 6458 093d
000000c0: 29b7 ddbc 643b 9cbd dc5c 1fbd 1329 0bbe
000000d0: b6a7 9dbd 36bb 85bc 9363 703d dc40 66bd
000000e0: fdc6 58bc b626 55bd 1063 a7bd f489 78bd
000000f0: 14ff a6bd 5535 8d3c 0cab 283c c2a9 82bd
00000100: 8c24 163d f3f5 98bd 3f31 8f3d ee3f eebd
00000110: 717c c0bc b60e 10bb 8bb1 f4bd be90 d6bb
00000120: 99d7 91bd 4dc4 65bd a73b 5dbd 3ee2 2cbd
00000130: d342 8fbd 210d e03d 90d7 123e eea5 bb3d
00000140: d77f 5bbd 57ee ca3d 8e00 3e3c 5c14 00be
00000150: 2481 083d 67be 75bc 0504 a5bc f8b0 c53d
00000160: 2f36 83bd 85a7 803d 1864 3dbd 44b0 773d
00000170: 5520 01be 9396 3d3d bf1d d53c 2d28 b03d
00000180: eec7 e3bd 41fc c93d 320a afbd f683 40bd
00000190: 498e bd3c 8318 993a 658a 393d 2c11 b43d
000001a0: 39ef d3bc 5886 a1bc 9308 a2bb 8785 2abd
000001b0: 9e43 30bd 986f cebb ad10 aabc 86a5 623d
000001c0: c4cd 983a ce09 623d 70d0 9abc de82 cdbd
000001d0: f7e9 20bc 3398 0dbe 41b1 06be 9cd3 cabc
000001e0: 8d42 3e3d a04e be3d b047 123e 15cf 213d
000001f0: a50d 7f3c 1852 243d 1d4b 8cbd 8cc2 febc
00000200: 50a1 c5bd e78e 77bc 785d 2b3d 2680 74bd
00000210: 4293 99bd d87e 8bbd c3d5 433c 0962 61bb
00000220: 061d 7abc 103e cabd 772b 5bbd 623a d6bd
00000230: 1c31 99bc c02b 163d d71d ae3c 1410 36bd
00000240: 1482 9b3c 8d00 04bd 563e 173a 26bc a33c
00000250: 0b29 d63c 9f46 69bd e77a 003c c75a ebbb
00000260: 22bc d23c 00e9 aa3d d15c 0e3d 74d7 d6bc
00000270: 06b1 9a3d 5e21 7dbd 822a f5bc 64bf 293d
00000280: 3c63 a4bd 03aa 3fbe ad81 8abd 15af a1bd
00000290: b8c8 20be 600f a43c 17b5 213d 1d24 af3b
000002a0: 34a8 f1bb 33eb c9bd a8d1 b0bd c50f 22bd
000002b0: c9ed b8bd f284 bb3c 941e 37bd 7967 b8bc
000002c0: c04f 59bd bc06 143c 2904 bb3c 0c9c 843d
000002d0: ef73 ffbd 9779 2cbe f82a debd 51d7 0bbe
000002e0: 5472 99bb 88bc c33d 5578 bb3d 4e1b 4ebd
000002f0: cfe2 1d3d de0c 2bbe cd51 75bd 288c 00bd
00000300: 332b 70bc 2d85 33bd c4b0 dabd d93c 8fbd
00000310: 4e9d e33d f1ed 79bd 58c5 253d 0997 d83d
00000320: d92a 01b9 cf95 c0bb 9e98 c13d 2cb9 e63d
00000330: f8c1 88bd d332 a83c 225c 9c3d 5af3 d73c
00000340: 9d41 4fbc 4063 813d cbe2 223d 4a4b 70bd
00000350: 20fc 0d3d b57b 20bd 2c17 f03c 2c0d 23bd
00000360: 555f 29be 742d fe3d aebd 1e3d 67c6 073d
00000370: c300 57bb 222e c1bc 5b38 2f3c 54e7 c63c
00000380: 2470 fa3c 7c1d 08bd feba 3bbd eb41 a73d
00000390: 2249 98bc f302 f7bd a53d 6e3c 3df6 56bb
000003a0: f836 273c 0093 f93c ae8e 6f3d e32c 443d
000003b0: 8e96 f63c a630 41bd d685 7abd 17e5 cc3c
000003c0: 02c7 51bc 3bf2 123e b057 683e b428 143d
000003d0: 9497 443d fcc9 fabd 05a1 053d 6be3 54bd
000003e0: 305c d33d 2917 563d 65e1 9d3d 0470 e8bb
000003f0: 8266 2d3d add8 a9bc 97ac 86bb 670d debc
-0.055477507 0.06720809 0.08287402 0.1361681 -0.046183933 -0.082574666 0.03203697 0.045262434
0.054663446 -0.07186048 0.04393717 -0.053156298 -0.14309938 0.12354005 0.053425595 -0.043169938
-0.049573265 -0.038853977 0.05985269 0.05326961 0.030643256 0.010782264 -0.06307664 0.017089259
-0.042034663 -0.037980758 0.05545014 -0.04082943 0.010836875 -0.0203833 -0.03489723 -0.08211114
-0.09040767 -0.07587807 -0.20014058 -0.09167514 0.03870205 0.042409882 -0.022885708 0.09260305
-0.021338595 0.04689733 -0.08885965 -0.17658491 -0.090043075 -0.004904703 -0.017292306 0.03353156
-0.027064877 -0.07628515 -0.038906917 -0.13589887 -0.07698004 -0.01632462 0.05868871 -0.0562142
-0.013231036 -0.05203887 -0.081731915 -0.060678437 -0.08154121 0.017237345 0.010294687 -0.06380035
0.036655948 -0.07468786 0.06991815 -0.11633287 -0.023496838 -0.0021981425 -0.11947926 -0.0065480163
-0.071212 -0.05609541 -0.054011967 -0.04220795 -0.069951676 0.10940004 0.14340043 0.09162508
-0.053588714 0.09908741 0.011596812 -0.12507766 0.033326283 -0.014999009 -0.020143518 0.09652895
-0.06406819 0.06281952 -0.046238035 0.060470834 -0.1260999 0.046286177 0.02601516 0.08601413
-0.11122118 0.09862567 -0.085468665 -0.047000848 0.023139136 0.0011680279 0.045298 0.08792338
-0.025870906 -0.01971738 -0.00494487 -0.041631248 -0.043033235 -0.006299924 -0.020759905 0.055333637
0.0011658003 0.05518513 -0.018898219 -0.100347266 -0.009821407 -0.1382759 -0.13153554 -0.024759106
0.046450187 0.0929234 0.14285159 0.03950413 0.015567218 0.040117353 -0.06850264 -0.031098627
-0.096499085 -0.015109754 0.041837186 -0.059692524 -0.0749879 -0.06811303 0.01195282 -0.003439071
-0.015265709 -0.09875119 -0.05350825 -0.104603544 -0.018700175 0.036662817 0.021254463 -0.044448927
0.018982925 -0.032227088 0.00057694816 0.019987177 0.026142618 -0.056952115 0.007841802 -0.0071824524
0.025724474 0.083452225 0.034756485 -0.026225783 0.07553296 -0.0617994 -0.029927496 0.04144229
-0.0802674 -0.18717198 -0.06763015 -0.07894722 -0.15701568 0.020026863 0.03947934 0.005344881
-0.0073747877 -0.09859314 -0.08633739 -0.03956582 -0.09029729 0.022890542 -0.044706896 -0.022510277
-0.05305457 0.009034809 0.022829132 0.06475076 -0.124732845 -0.16843258 -0.108480394 -0.13656355
-0.0046828184 0.09557444 0.09153811 -0.05031901 0.03854638 -0.16704127 -0.059892464 -0.031383663
-0.014658737 -0.04382818 -0.106782466 -0.06994028 0.11113988 -0.061017934 0.040471405 0.10575683
-0.0001231836 -0.0058772336 0.094529375 0.112657875 -0.066776216 0.020532047 0.076347604 0.026361156
-0.012649921 0.063177586 0.039767068 -0.05866555 0.034664273 -0.039180476 0.029307924 -0.039807484
-0.16540273 0.12411013 0.03875511 0.033148196 -0.003280685 -0.023581568 0.010694589 0.024280228
0.030571051 -0.033231243 -0.045832627 0.0816687 -0.01858956 -0.120611094 0.014541064 -0.0032800578
0.010205977 0.030465603 0.05848568 0.04789437 0.030101087 -0.047165535 -0.061162792 0.025011582
-0.012803795 0.14350216 0.226897 0.03617163 0.04799612 -0.12245557 0.032624263 -0.051974695
0.10320318 0.05226818 0.07709006 -0.0070934314 0.042334087 -0.020733202 -0.00410993 -0.027106

point_conv1.1.weight f4 [128]
00000000: e7ae 723f b773 753f f8cd 723f 2512 7a3f
00000010: c4ac 6a3f 08e4 763f 4b47 713f dac5 613f
00000020: 1e58 6e3f eca6 7f3f c052 6d3f fdfa 793f
00000030: 39db 6f3f b9b7 6e3f 66ab 723f dff8 633f
00000040: f7ef 6b3f db73 643f 0303 733f d049 6b3f
00000050: 1ce3 7f3f 0683 773f a41b 623f 21df 833f
00000060: cf16 763f 7b46 7a3f e621 5d3f 50a5 743f
00000070: 4dc0 6f3f ec36 6d3f 0b8d 763f 4e26 683f
00000080: de01 633f f263 663f bbe1 613f 63fd 643f
00000090: ad4f 783f d53a 753f 408e 713f 3528 823f
000000a0: 1fbb 743f 19e0 643f a019 783f 2336 743f
000000b0: d147 753f 3d79 713f d0cc 783f 74d0 743f
000000c0: 7b38 713f cee0 693f fd76 743f 3c3d 5f3f
000000d0: 8d3d 703f 65d8 7c3f 96f9 693f 3336 673f
000000e0: 6ed5 713f 1624 5f3f 6eb2 673f a134 703f
000000f0: 3212 6a3f 6fe1 663f 358d 653f 9513 7b3f
00000100: e72e 6d3f 1f99 733f b65e 743f eac5 783f
00000110: 69b3 753f 149a 653f 07c2 713f 54a5 763f
00000120: 80be 5f3f c50c 763f d2d8 5c3f 1246 713f
00000130: a466 7c3f 0b72 6c3f dd5e 7f3f b713 7f3f
00000140: 95b9 6d3f 3cd4 663f f983 843f 8dba 623f
00000150: 050f 6d3f e627 683f d674 623f baa5 6b3f
00000160: 51fb 713f 7657 6e3f 353a 673f e4f9 6e3f
00000170: 2a19 703f e01b 833f 51d8 843f a9db 6e3f
00000180: 508b 653f 757d 643f fb88 803f 3d39 643f
00000190: 1ad5 7d3f 1352 5a3f 3cd5 5d3f 4dc7 7a3f
000001a0: 1cef 653f 05eb 753f bc8f 793f b931 663f
000001b0: 1f59 643f fc5c 7f3f 836f 713f a329 7b3f
000001c0: 2232 833f 046b 813f d2ac 703f 3b41 6a3f
000001d0: 2fb9 713f 1866 6b3f 7172 763f f111 6f3f
000001e0: 8591 693f 0101 6f3f c407 673f 44f5 7e3f
000001f0: a666 6f3f c16b 723f cd7d 803f d1ce 7b3f
0.9479813 0.9587969 0.94845533 0.97683936 0.9166987 0.964417 0.9424941 0.8819252
0.93103206 0.9986408 0.9270439 0.976486 0.9369388 0.9324909 0.94792783 0.8905162
0.9216303 0.8923928 0.9492647 0.91909504 0.99955916 0.966843 0.88323426 1.0302469
0.96128553 0.97763795 0.8637985 0.95564747 0.936528 0.9266193 0.96308964 0.9068345
0.88674724 0.89996254 0.8823506 0.8944914 0.96996576 0.95792896 0.9435768 1.016852
0.95598024 0.89404446 0.969141 0.95395106 0.9581271 0.9432562 0.9718752 0.95630574
0.9422681 0.9135865 0.9549406 0.8720281 0.9384392 0.9876769 0.9139646 0.90317076
0.9446629 0.8716444 0.9050664 0.93830305 0.91434014 0.90187734 0.8966859 0.98076755
0.9264969 0.9515552 0.9545702 0.9717699 0.95976883 0.8968823 0.9443669 0.9634602
0.87400055 0.96113235 0.8626834 0.94247544 0.9859412 0.92361516 0.99754125 0.9963946
0.928613 0.90167594 1.0352775 0.88565904 0.92601043 0.9068588 0.8845953 0.92049754
0.94524103 0.93102205 0.9032319 0.9335005 0.937884 1.0242882 1.0378515 0.93303925
0.896657 0.8925393 1.0041803 0.8914984 0.9915329 0.85281485 0.86653495 0.9796036
0.89817977 0.96061736 0.97484946 0.8991962 0.8919849 0.9975126 0.9431078 0.9811041
1.0249674 1.0110784 0.940137 0.91505784 0.9442319 0.9195266 0.96268374 0.9338675
0.9123767 0.93360907 0.90246224 0.99592996 0.93516004 0.9469567 1.0038391 0.9836245

point_conv1.1.bias f4 [128]
00000000: 704a 27bd 9f03 6e3b ae9c 64bd 1efc f4bc
00000010: d7d4 6bbd deeb 62bc 34c0 09bd c449 79bd
00000020: 3889 27bd 1915 2bbd 3253 1dbd 377b a0bc
00000030: 7cbf a6bd 8d8f 62bd 9be3 1ebd 2fb0 a8bd
00000040: ae4d dfbc 1a01 42bd a3ad 6a3b d860 06bd
00000050: afcd afbc 1397 17bd f5e6 87bd 4d3c 0ebc
00000060: 4bac 9fbc a6c9 ddbc 55dc c2bd 1c54 a83c
00000070: c019 06bc 5d88 6cbd 646f 23bc ab21 4dbc
00000080: 79f6 a8bd 83b5 8abd 1524 aebd 756d 6bbc
00000090: 35b4 813c 0eb8 23bc d26c 3dbd 761f 29bd
000000a0: 54b3 28bd d8ac 5dbd abc8 08bd 5526 adba
000000b0: 1aa0 debc 074b 91bd db6d e1bb 351e e2bc
000000c0: 2c1b 2abd 3e16 abbc a15c c2bc 8e2d aabd
000000d0: 9409 64bd 9c40 28bc b8ed 40bd 67e7 05bd
000000e0: 309d 30bd 4e3c a2bd de84 51bd 0ecf 32bd
000000f0: d665 a9bc de5e b0bd 9c33 18bd ada8 1cbd
00000100: 8717 fcbc 59c5 f6bc 64f5 64bd d094 27bc
00000110: 2ffd c6bc 3765 d2bc 3311 22bc f110 1abd
00000120: ac7c b9bd b349 15bd 6fa9 bfbd 1798 8dbc
00000130: 6dea 303b 76ff 86bd 8798 4d3a 8f38 093d
00000140: db73 2abd e3f0 9fbd 1aed 2dbc 7bff 8cbd
00000150: 3f28 1abc 3157 89bd 687f 38bd 81b9 92bd
00000160: 5a7a 93bc 7675 12bd a095 84bd f4c5 3a3b
00000170: e93c 7dbd da2c eebc 7ec2 24bc 8b96 18bd
00000180: d0e5 7cbd 2978 c2bd 2a36 273c f59e 8ebd
00000190: 63f0 d23b d860 e2bd 3ebf a6bd 1063 1ebc
000001a0: 96fc 7cbd c7ab 53bd 1ed7 19bd a484 4cbd
000001b0: 8775 4cbd 8c00 22bd d87f dbbc 42b4 33bd
000001c0: 651f 6cbd d0c8 9ebc 1e3a 14bd 7792 71bd
000001d0: e008 1cbd e124 46bd bc86 1cbd e7da 34bd
000001e0: 7f73 e3bc d2ac 18bc eeee 8bbd 9d4e 06bc
000001f0: 0971 313a 2ff5 9cbc 91ae f2ba 5cdc 18bc
-0.040842474 0.0036318076 -0.055813484 -0.029905375 -0.057576027 -0.01385018 -0.033630565 -0.060861364
-0.040902346 -0.041768167 -0.03840942 -0.019590003 -0.081419915 -0.055312682 -0.03879128 -0.08236729
-0.02725872 -0.04736433 0.0035809062 -0.0328072 -0.021460382 -0.03700931 -0.066358484 -0.008681369
-0.019491335 -0.027073693 -0.09514681 0.020547919 -0.00818485 -0.057747234 -0.009975288 -0.012520234
-0.08250136 -0.06772902 -0.08502976 -0.014369358 0.015833 -0.0099926125 -0.046246357 -0.04128977
-0.041186646 -0.054119915 -0.033394497 -0.0013210276 -0.027175952 -0.070943885 -0.006879551 -0.027602294
-0.04152982 -0.02088463 -0.02372581 -0.0830947 -0.055673197 -0.01026931 -0.047101706 -0.032691386
-0.043118656 -0.079216585 -0.051152103 -0.043654494 -0.020678442 -0.086118445 -0.037158594 -0.0382468
-0.030772937 -0.0301234 -0.055898085 -0.010228351 -0.02429065 -0.025683029 -0.009891796 -0.037613813
-0.090569824 -0.03644724 -0.09358489 -0.017284436 0.0026995197 -0.06591694 0.0007842858 0.033501204
-0.041614395 -0.07809617 -0.010615611 -0.068846665 -0.0094090095 -0.067060836 -0.04504338 -0.07164288
-0.018002678 -0.03575655 -0.06473851 0.0028499337 -0.061825667 -0.029074121 -0.010056136 -0.037252944
-0.061742604 -0.09495575 0.010205785 -0.069639124 0.0064373477 -0.11053628 -0.08141945 -0.009667173
-0.061764322 -0.05167749 -0.037558667 -0.049931183 -0.04991677 -0.039551303 -0.02679436 -0.04387308
-0.057647128 -0.019382864 -0.036188237 -0.05897757 -0.0380944 -0.048375014 -0.03821443 -0.044154074
-0.027765034 -0.009318547 -0.068326816 -0.008197454 0.0006768858 -0.019159881 -0.001851516 -0.0093298815

point_conv1.1.running_mean f4 [128]
00000000: ba29 50be 07a8 90be 7207 af3b 64df 5f3e
00000010: 6a85 1b3f 0c2b 1cbd 35d5 59bd a9fd c83d
00000020: bc40 b63d 2ed1 f3be 632f bc3d 9035 12bd
00000030: 2709 02bf fbca 1bbd 33d9 8fbe 18ff 12bf
00000040: 2032 67bd c693 a6be 1953 a1be 243e 723e
00000050: b8a9 cebe fdc1 073a fc98 b9bd 2b0f f1bd
00000060: aced a1be a3aa 43be 8dfe d6be 9335 b1be
00000070: fef0 4e3e 815e e0be 0bf1 ea3d 08b6 023f
00000080: 0319 e2bd 164b fc3d 1abd d0bd ea13 50be
00000090: 8590 a73d 8bc2 10be e5e7 46be 0a01 11bf
000000a0: e161 b3be 28a7 bebd 5340 ce3d ed3d b0bd
000000b0: 18e6 353c 32c7 a33d dbf9 91be 6e31 c0be
000000c0: 6a53 6ebe 1443 8e3d c419 ff3c 8f9f a53e
000000d0: 15bb febe 7736 adbe e0f0 c43e d9e7 1e3e
000000e0: 894d 103e 5b44 00be ad1b 16be dcbb c7bd
000000f0: 6bf5 a9bd a7c5 69be b86c 633b b8d0 dbbe
00000100: 2a8e 6bbe 169b 223e 270e 07bf fe0f d5bd
00000110: ba59 b3be 2607 76be 2055 ad3d 7aaf 5cbe
00000120: 9ad9 98be b8a1 4bbe a06f f03e 8a4b 113c
00000130: 314f 7bbd c8ce e1be 4964 cd3d 74be 463d
00000140: 024d 333d c7a6 cabe 80f7 f7be 66fa d73d
00000150: af9b a83d f4f2 94be 00ec 24be 7641 37be
00000160: 612f 643e 7f7b 043e 4fe2 fbbe f226 0e3f
00000170: 9671 20bf 0322 efbe e4b1 d3bd 946c 70be
00000180: 991c 96be a925 fbbe d05e b2bc a929 053e
00000190: 6a3f 5dbe 72df 50be 7322 033f 7000 a6be
000001a0: e87b 0cbf 1d26 dcbe 3cd5 b4bc 0c7e 18be
000001b0: e545 e03e 34e5 33bf 38d6 edbb 4e5c 7dbe
000001c0: e712 6cbf e42b 3c3e 2a01 6b3e f41d b5be
000001d0: 6bb9 913c d273 98bd f3a4 6b3e ae47 443e
000001e0: 4446 273e 3f20 c83c 16b5 4ebe e9e1 02bd
000001f0: 7939 a7be 4caf 2d3e de24 5e3e 793b 8b3e
-0.20328417 -0.28253195 0.0053414637 0.2186256 0.6075045 -0.03812699 -0.053181846 0.09814007
0.08899066 -0.4762053 0.09188726 -0.035695612 -0.50795215 -0.038035374 -0.28095397 -0.5742049
-0.056444287 -0.32534617 -0.3150871 0.23656517 -0.4036386 0.0005178748 -0.090623826 -0.11770471
-0.31626642 -0.19108061 -0.41991082 -0.34611186 0.20209119 -0.438221 0.114717565 0.5105901
-0.11039927 0.12319009 -0.10192318 -0.20320097 0.08181862 -0.14136712 -0.19424398 -0.5664221
-0.35035613 -0.09309226 0.100708626 -0.086055614 0.011102222 0.07996978 -0.28510937 -0.37537712
-0.23274007 0.06946388 0.031140216 0.32348296 -0.49752107 -0.33830616 0.38465023 0.1551813
0.14092077 -0.12526076 -0.14658995 -0.09752628 -0.08298763 -0.22829305 0.0034702253 -0.42932677
-0.2300345 0.15879473 -0.5275597 -0.10403441 -0.35029393 -0.24026164 0.08463502 -0.21551314
-0.29853517 -0.1988591 0.46960163 0.008868108 -0.06135482 -0.44103074 0.100288935 0.048521474
0.043774612 -0.39580366 -0.48431015 0.105458066 0.08232819 -0.2909161 -0.16105652 -0.17896065
0.22283699 0.12937735 -0.49196097 0.55528176 -0.6267332 -0.46705636 -0.10336664 -0.2347892
-0.29318693 -0.4905217 -0.021773726 0.13004173 -0.21606222 -0.20397738 0.5122444 -0.3242221
-0.54876566 -0.42997828 -0.022074334 -0.14891833 0.43803325 -0.7027161 -0.007258203 -0.24742243
-0.9221634 0.18376118 0.22949663 -0.35374415 0.01778861 -0.07443966 0.23012142 0.19167969
0.16335398 0.024429439 -0.20186266 -0.031953726 -0.32661036 0.16961402 0.21693751 0.27193812

point_conv1.1.running_var f4 [128]
00000000: 50a6 7340 5fbd 0440 02f7 2640 7098 3440
00000010: 5a82 fb3f 9cf2 2a40 54da f23f 82d6 2940
00000020: 5523 0c40 389f 2d40 e846 1340 93ce 7340
00000030: a64f 4940 bb5d 2140 9b4b e43f aa87 3740
00000040: 8be8 d33f c663 b73f 2819 f23f dde9 3940
00000050: 31e7 3f40 114d 1a40 9043 d63f 3f09 2d40
00000060: d5cc 2540 87b2 2040 202f 0a40 d666 f13f
00000070: 0de8 3640 3794 3c40 4653 f23f 56f0 5e40
00000080: 0eaf 0d40 1995 2c40 63d4 1240 6bb3 0f40
00000090: aaf4 3640 e865 0940 f46e 1f40 0192 5040
000000a0: 5320 2440 83d7 4f40 8de1 5a40 7986 1540
000000b0: b8c2 2140 fb72 8840 bf32 2c40 9205 1240
000000c0: 09b9 f93f 1973 4640 1208 4740 4afb 3540
000000d0: 0a8c 2840 b25e 4340 06c0 0340 f4b6 cd3f
000000e0: 595b e53f a519 e63f c922 3f40 c22f 1e40
000000f0: 2ea0 2940 64a2 e53f ec58 1240 8bfc 2340
00000100: c233 ce3f e90a e73f f6be 6040 1082 4840
00000110: 9bc4 0f40 5bfe 2c40 fc5b 1b40 5cda 1940
00000120: d877 2040 4c45 0440 a1fa 1040 dca7 bf3f
00000130: 87a8 5c40 46c0 1140 f73a 8640 7974 4340
00000140: 3d1e d93f 08df 0140 f339 3740 8391 0140
00000150: 44b9 0940 a1c9 2740 c690 4c40 a330 1540
00000160: f70e 2e40 c9c9 1040 3c36 8840 52bb 7a40
00000170: 0f6b 2f40 e2bc 3740 d8e3 5640 d721 f13f
00000180: 51a3 f43f c9ba 8240 3d6c 4740 3063 cf3f
00000190: bb98 2040 293d f93f 7c45 1f40 7bc1 5540
000001a0: e364 2f40 f8a5 0e40 6dc8 1640 b3e5 4140
000001b0: 30b5 1440 7b85 7a40 84fd e73f 58c3 3840
000001c0: e608 6140 ab26 3840 b3cf c93f b660 8840
000001d0: cc7d 1d40 46fe fb3f 7827 4c40 b64c 0e40
000001e0: 8533 0340 a31f 1a40 b951 fc3f 9ce7 3040
000001f0: 7c0b 2840 b003 4040 a456 6b40 f9f5 3540
3.807026 2.0740583 2.6088262 2.821804 1.9649155 2.6710577 1.8972878 2.6537175
2.1896565 2.712843 2.3012028 3.8094833 3.1454864 2.5213459 1.7835573 2.8676553
1.6555341 1.4327323 1.8913927 2.904899 2.9984858 2.4109538 1.6739368 2.7036893
2.590627 2.5108964 2.1591263 1.8859508 2.8579133 2.9465463 1.8931663 3.483419
2.2138095 2.6966002 2.294213 2.2453258 2.858683 2.1468449 2.491147 3.2589114
2.564473 3.2475288 3.4200165 2.3363326 2.5275097 4.2640357 2.6905973 2.28159
1.9509593 3.100775 3.1098676 2.8434625 2.6335473 3.0526547 2.0585952 1.6071458
1.7918502 1.7976576 2.986498 2.471665 2.6504016 1.7940183 2.2866774 2.562289
1.6109545 1.8050205 3.5116553 3.1329384 2.2463748 2.7030246 2.4274893 2.4039526
2.5073147 2.0667295 2.2652972 1.4973102 3.447786 2.2773604 4.194698 3.053984
1.6962353 2.0292377 2.862912 2.0245063 2.1519327 2.6216815 3.1963363 2.3310935
2.7196634 2.262316 4.2566204 3.9176831 2.7409093 2.8709035 3.3576565 1.8838452
1.911234 4.085301 3.1159813 1.6202145 2.509322 1.947179 2.488616 3.339934
2.7405326 2.22888 2.355983 3.0296447 2.3235588 3.914397 1.8124242 2.8869228
3.516168 2.87736 1.576651 4.2618055 2.460803 1.9686973 3.189909 2.223432
2.0500195 2.408181 1.971244 2.7641363 2.625701 3.000225 3.6771631 2.843138

attention.0.weight f4 [1, 128, 1]
00000000: e446 f83d 4a82 8bbd 7c85 dbbc 5a9a 82bb
00000010: 73b8 9b3d 9b74 e0bd e63a 73bc a22d 353e
00000020: a0c6 e83c 2e2d c9bd 4663 41be 33f5 1dbd
00000030: 9a83 c13d 09fa 6f3d d5e5 bf3d 6188 213e
00000040: 89f1 81bc 0bff 94bc 956b 28bd 2ebd 923c
00000050: 8ba5 6abe c4d6 90bd 8331 3d3c b2c9 a4bd
00000060: 31f4 00be 5ce1 adbd eff5 943d 79ce bcbc
00000070: 41f4 a6bd 6dda 113e 41e3 95bd 712d 30be
00000080: 4d4d e3b9 0ac1 143e 77e5 be3d 5a3a b0bd
00000090: ec5a 50be 7b77 aebc 0da6 043d 8986 90bd
000000a0: 7b57 3abe eb1a c33d dcf8 6fbd bd29 b8bd
000000b0: 44a4 85bc 9b59 103e fb8f 2abe 9af0 2bbd
000000c0: 0d9d 183d 69ab f5bc 0f2f 98bd 427f 323e
000000d0: 08a1 59ba 2d60 d1bd 574c bc3d 1dcb 89bc
000000e0: 953a 1fbd 1574 103b 62e4 b33d 9038 bf3d
000000f0: 1af9 08be 7bbb bc3d f6eb 503d 7456 503a
00000100: 3611 8fbc f176 b2bc c0ef 4c3d d1ce 5abd
00000110: df08 95bc 4285 64be 9e6d b0bd 6572 24bd
00000120: 61b3 8d3d 105a 803c ec78 0c3e 0a01 8a3c
00000130: b1a2 b0bd b9d8 663c 7dd2 d2bd 6b66 4cbe
00000140: f33b 613c cd04 ae3d 1221 02be 8267 953d
00000150: 631c cebc 188b bc3d 8343 61be e3ba 143e
00000160: 0b05 27bd fc0f 3c3c 131c 2c3e 8650 d6bd
00000170: 1d4c ad3d c146 9ebd 931d 4dbe d09e 36bb
00000180: 984b d33b 65e1 063e 9e3a 2cbe 6f16 be3d
00000190: ee17 84be b64b 7e3d fe98 043e a384 0bbe
000001a0: a0d6 b13d 29c6 9abd d9cf 5abc c8f5 7b3d
000001b0: f1c9 013d 8fb5 63be 1eee 3aba db7e 54ba
000001c0: 4a76 76bd 6477 d9bd 6d2d 8f3b de9b e73c
000001d0: 2202 b1bb ed8e e8b8 db36 bd3d 72e1 acbc
000001e0: 8414 a43c 0c3d 30bd eafb c93c ac91 2abe
000001f0: 2934 1bbe ba01 c8bd b359 7bbc 9490 96bd
0.12122896 -0.0681196 -0.026797049 -0.0039856853 0.0760354 -0.10959741 -0.014845585 0.17693189
0.028415024 -0.098230705 -0.18885526 -0.03856392 0.09448929 0.05858806 0.09370009 0.1577468
-0.015862243 -0.01818802 -0.041118223 0.017912474 -0.22914712 -0.07072213 0.011547449 -0.08046283
-0.12593152 -0.084902495 0.072734706 -0.023047673 -0.081520565 0.14243479 -0.07318736 -0.17204835
-0.00043354408 0.14526764 0.09321111 -0.0860488 -0.20347184 -0.021297207 0.03238492 -0.070569105
-0.18197434 0.095266186 -0.05858694 -0.08992336 -0.01631368 0.14096682 -0.16656487 -0.041977502
0.03725915 -0.029988961 -0.07430851 0.17431358 -0.00083018886 -0.10223422 0.09194248 -0.016820485
-0.038874228 0.0022041847 0.08783795 0.0933696 -0.13376275 0.092154466 0.05100628 0.0007947453
-0.017464262 -0.021785231 0.05003333 -0.05341989 -0.018192707 -0.22316459 -0.08614658 -0.040148158
0.069189794 0.015667945 0.13718003 0.016846199 -0.08624781 0.014089757 -0.10294054 -0.19960944
0.013747203 0.084970094 -0.12707928 0.07295133 -0.02516002 0.092062175 -0.2199841 0.14524417
-0.040776294 0.01147842 0.16807584 -0.104645774 0.08461783 -0.07728339 -0.20030813 -0.0027865656
0.0064482205 0.13171919 -0.16819236 0.092816226 -0.25799507 0.062083922 0.12948987 -0.13624816
0.086835146 -0.07557327 -0.013355219 0.061513692 0.031686727 -0.22237228 -0.0007130819 -0.0008106061
-0.060171403 -0.10618475 0.004369429 0.028272565 -0.0054018656 -0.00011089244 0.092389785 -0.021103594
0.020029314 -0.04302697 0.024656255 -0.16657132 -0.15156616 -0.09765954 -0.01534121 -0.07351795

classifier.0.weight f4 [256, 128]
00000000: d24f 8d3d d3ed d23d 9c0a 103e 2ec7 113d
00000010: d3b0 ab3d caf1 eb3a 8518 063e f307 e6bd
00000020: 4161 513d 5175 1a3d 0be5 033d 91b5 5a3d
00000030: 9c6b 8ebc 2754 443c a71c e5bb 8e64 97bd
00000040: 90c6 42bc 7a34 b6bd c3bc 99bd ce1a fabd
00000050: c5db 06be a11d 6ebd cc66 3f3d 966f 02bd
00000060: fc4b c93c f8b9 a73c a649 94bd c914 883d
00000070: 6f62 c6bd 66f1 9f3d 04cf 25bd 5847 b1bd
00000080: 982c 64bd 7d14 473d 5d34 c5bd add5 3c3c
00000090: b815 f13d bae8 5e3d 2628 b93d bb84 c73d
000000a0: 89b6 033e 7b54 20bd 1584 5f3d 112c 68bd
000000b0: 5cf0 5a3d 268b cdbc 3123 05bd 561e c0bc
000000c0: 1a05 9ebb a3d7 bb3d 189e afbd afe1 8d3d
000000d0: c1e4 51bc c634 94bd 6324 6e3d 8adf 693d
000000e0: 5d7e 34bd b0a0 acbb 032f 373d 7414 b1ba
000000f0: 2864 a5bd fc2e 6d3d 61ca 673c 41fe 5b3d
00000100: ea33 bbbd 2725 393c d223 10bb 6cfd 97bc
00000110: 00d7 103d 8ab7 8e3d fe1e d63d 9ad4 303e
00000120: 919f 43bd babb 2cbb 66b9 c63d 492a 303d
00000130: a4eb 5fbd 87a1 99bd 5961 83bc 25aa 3f3d
00000140: 9427 9abc dfe7 cabc 0c37 23be cb1d 03bd
00000150: d52f 893b e353 35bd 5ca4 393d 2678 c33b
00000160: 67a6 d53c 223c bd3d fc16 1fbe 3852 6dbd
00000170: aac4 77bd a9db bbbd ad88 02bd 8d09 85bd
00000180: 0c23 ca3b 942e 71bd 6f41 b1bc d1c9 163b
00000190: 6873 e63c 412f 89bd 55f4 6cbd 243b 25bc
000001a0: f7c5 543d 943d 6ebc 40a3 cabd 7cc2 193d
000001b0: 0f49 393d 96aa f4bc 1c99 193e 81cd 29bd
000001c0: 452e 29bd ea70 a7bd 591d 8e3b a83c adbd
000001d0: cdf2 43bd a2fe 193d 24b7 853c db0e 363d
000001e0: 886d 63bd 7e4b 25bd 8d81 bbbd c3f6 403d
000001f0: 4fce b0bc ea81 633d 1429 94bc ff5a 563d
00000200: e8b8 f4bb c2e1 34be 54c0 6ebd 8b74 05be
00000210: b12a b83d c634 143b 4892 b13d ba14 563b
00000220: 7633 e1bb 0937 a4bd 790c babd a421 793c
00000230: 7984 8abe fa92 c6bd a6e1 12bd 6247 8abd
00000240: e17b 2e3d 2cca 02bd 6bc9 8bbc f73a 0c3d
00000250: cbd8 903c 82b5 bf3d b633 823e 3d5b 96bd
00000260: a551 8ebe 6b64 83bb 4c89 343d 281d e0bd
00000270: 5340 953c 9014 513d 734d cd3d 6a22 33bd
00000280: 57d4 d6bd 5fc8 aa3c 7237 a9bd c5e2 783d
00000290: 2ea6 c1bd d6b2 dd3a 0266 5a3c 292a 83bd
000002a0: 1d9d 893d 70e6 333c 4f8d 8b3d a3a5 923d
000002b0: 87ee a23c ffdd a63a c34b 753d 74c7 913d
000002c0: 63f6 de3c 2e3d 173e 4ca8 a33c 5413 9f3d
000002d0: 0ed9 27bd a6d5 183d c4d2 0dbe 0c56 0dbe
000002e0: 3503 95bd b7af 23bd a402 cc3c 4db6 d4bd
000002f0: 4837 d03c fbcf 89bb 1fc9 5f3d 461f f23d
00000300: b8d0 023e 8a65 a5bd b807 febc e547 5c3d
00000310: 544c e9bc 609d a13d 3890 61bb 9b22 f2bb
00000320: 5b32 f5ba 3873 acbd 9a98 793c c50f a73c
00000330: 6b72 853d d170 023c fdec 3ebd 195e 703c
00000340: 3207 723d 0648 b03b fd42 663c eb86 1c3d
00000350: 4fe6 cebd 5c31 703d 5d50 98bd 54a8 24bd
00000360: a6b3 e4bc 6ee4 caba c3f5 9c3d 9846 72bb
00000370: 34da 4dbd e3fc 0cbe 2893 863b 1d6d 813d
00000380: 0b36 703d e557 2bbd 418c 1d3d eae3 85bd
00000390: db62 07be 1da7 43be 853d bbbd 65f5 513d
000003a0: 5e73 fbbc 3083 39bd 9313 733d 7644 1b3e
000003b0: 60fe d33c 5d5f 253d 361f 49bb b48a 1fbe
000003c0: bc96 353d 6dff 013e e830 a13b 8430 783d
000003d0: de53 543c 3cb6 8abc c7fe 90bd 953a 393c
000003e0: c3dc e33d eb2d af3d 6e94 033e e2dd d1bd
000003f0: 9c77 18bb 2073 04bd bc68 bdbd a841 383e
0.0689999 0.102992676 0.14066547 0.035590343 0.08383336 0.0018001136 0.13095291 -0.11231985
0.05111814 0.037709538 0.032200854 0.05339581 -0.017385297 0.011982954 -0.006991941 -0.07392226
-0.011888161 -0.08896728 -0.075067066 -0.12212144 -0.13169773 -0.058133725 0.046728894 -0.031844698
0.024572365 0.020474419 -0.0724061 0.066445895 -0.096867435 0.07809715 -0.04048063 -0.08656186
-0.05570659 0.048603524 -0.09629128 0.011525554 0.11771721 0.054421164 0.09040861 0.09742113
0.128626 -0.039143067 0.054569323 -0.05668265 0.05345188 -0.025090765 -0.032504264 -0.023451965
-0.0048223855 0.09171989 -0.08575076 0.06927811 -0.012810887 -0.07236628 0.05814017 0.05709795
-0.044065822 -0.005268179 0.04472257 -0.0013510124 -0.08075744 0.057906136 0.014147372 0.053709272
-0.09140761 0.011300362 -0.0021994007 -0.018553458 0.03536129 0.06968601 0.1045513 0.17268601
-0.047759596 -0.002635701 0.09703331 0.043009076 -0.054668084 -0.07501512 -0.01603763 0.04679312
-0.0188177 -0.024768768 -0.15938967 -0.032010835 0.00418661 -0.044269454 0.04532276 0.0059652505
0.026080323 0.09239985 -0.15536112 -0.057939738 -0.060490288 -0.09172756 -0.031868625 -0.06495962
0.0061687287 -0.05888231 -0.021637646 0.0023008476 0.028131202 -0.06698466 -0.0578502 -0.010084901
0.051946606 -0.014541049 -0.09894419 0.03753899 0.04523569 -0.029866498 0.14999813 -0.04145575
-0.04130389 -0.081758335 0.0043369946 -0.08458835 -0.047838975 0.037596352 0.01632268 0.04444776
-0.05552438 -0.040355198 -0.09155569 0.04711033 -0.02158275 0.055543818 -0.018085994 0.052332874
-0.0074683316 -0.17664245 -0.058288887 -0.13032739 0.08992518 0.0022614463 0.08670479 0.0032666163
-0.0068725897 -0.080183096 -0.0908441 0.015205774 -0.27054194 -0.09696002 -0.035859726 -0.067518964
0.04259861 -0.031931087 -0.017063817 0.03423592 0.0176815 0.09360792 0.25430077 -0.07341621
-0.27796665 -0.0040097735 0.04407625 -0.10943061 0.018219149 0.051045 0.10024538 -0.04373399
-0.10489719 0.020847498 -0.082625285 0.06076314 -0.094555244 0.0016914259 0.013329985 -0.06404526
0.0671942 0.010980234 0.06814062 0.07160499 0.01988913 0.0012730955 0.059886705 0.07118121
0.027217096 0.14769432 0.019977711 0.077673584 -0.040978484 0.037313126 -0.13849932 -0.13802356
-0.07276002 -0.039962497 0.024903603 -0.103863336 0.025416985 -0.0042057014 0.054635163 0.11822371
0.12774932 -0.08076008 -0.03100954 0.0537795 -0.028478779 0.07891345 -0.0034418236 -0.007389379
-0.0018707024 -0.08420414 0.015234137 0.020393262 0.06515964 0.007961468 -0.04661273 0.014670872
0.059088893 0.0053796796 0.014054057 0.038214605 -0.10102522 0.058640823 -0.07437203 -0.040199593
-0.027917694 -0.0015479454 0.07664063 -0.0036968347 -0.050256923 -0.13768344 0.004106898 0.0631964
0.05864529 -0.04183187 0.038463835 -0.06537612 -0.13221304 -0.19106717 -0.09142593 0.051259417
-0.03069466 -0.045291126 0.05934484 0.15162835 0.025878131 0.04037415 -0.003068877 -0.15580255
0.044333205 0.12695093 0.00491916 0.060593143 0.012959449 -0.0169326 -0.07079845 0.011305471
0.11126091 0.0855368 0.1284959 -0.10247399 -0.0023264652 -0.032336354 -0.09248492 0.17993796
