models/sweep_top_a_lr5e-4_wd5e-4.pth (torch, 462775 bytes, 20 tensors)

conv1.0.weight f4 [32, 6, 64]
0.06607172 0.024535539 0.10266792 -0.06518129 0.002128191 -0.11152388 0.031848636 0.08454595
0.1458734 -0.045774143 0.1783167 -0.093839146 0.12640299 0.120784536 0.13837446 0.111008674
0.1203901 0.12478011 0.002386555 0.011425575 0.0024473816 -0.025478303 0.14179541 0.19110174
-0.0029958969 0.027583826 -0.026031205 -0.03122823 0.15809077 0.14779663 -0.006839578 0.023401551
0.21568552 0.06352318 0.0034350608 0.17628194 0.179923 0.05643267 0.056404263 0.17121236
0.029342137 0.055046637 0.02468609 0.0009575551 0.066395365 0.07650248 0.04935688 0.071116276
0.10578347 0.06754006 0.098023385 0.06338576 0.0822213 0.05145358 0.07632972 -0.003688502
0.046577644 -0.037042037 -0.023517787 -0.027189055 0.10378712 -0.09204095 0.13347779 -0.07654014
-0.009756564 -0.050653826 0.10357122 -0.0207258 -0.17739779 0.0075360374 0.008633919 0.0330053
-0.07668574 -0.08836831 -0.026270596 -0.07073924 -0.0321605 0.044649594 0.097095266 -0.059166364
-0.08979128 0.040132415 -0.020141697 0.016461696 -0.039307095 -0.11530811 -0.01512336 -0.09533316
0.12317458 -0.011611146 0.0011619532 0.03200101 0.12978268 0.04075347 -0.023912514 0.029088765
-0.017696282 -0.07451057 -0.06717332 -0.089070916 0.12332893 0.02279139 -0.07088153 0.0060593216
-0.031053312 0.07214712 0.07781966 -0.14464083 0.106334284 0.0060984665 0.08596974 -0.08904389
-0.038703337 0.040169656 0.009708987 0.09375493 -0.0058607077 -0.09312106 -0.022941919 -0.010829841
-0.094248556 -0.016786236 -0.027213333 0.064615205 -0.118077725 0.011977488 -0.08974098 0.12093195
0.061558723 0.16353805 -0.001178812 -0.107787795 0.1193203 -0.009401621 -0.044681665 0.0019698525
-0.121666595 -0.03081625 0.0034749415 0.10751885 0.098436974 0.032435924 -0.06415541 0.17714782
-0.06487756 0.064259514 0.052625384 0.12418123 0.106721416 0.013434108 -0.0049879556 -0.077997215
0.12170863 0.035953026 0.025634736 0.07870597 0.050964464 0.023517268 0.008993429 -0.1581617
-0.066314526 0.0017458496 0.03106799 0.06116907 -0.03860657 -0.097482085 0.09165443 0.0018646353
0.008953867 0.05172121 0.15895458 -0.017939927 0.044546783 0.04459302 0.08385295 0.029660152
0.0067665763 0.04199278 0.15760937 0.060391992 0.071171224 0.12272362 0.031581093 0.10916567
-0.06151933 0.0666588 -0.01582101 -0.047089633 -0.0037797561 0.08665514 -0.051643074 -0.02331305
-0.032110725 0.03501221 0.0029430843 0.1521054 -0.0077620633 0.04363247 0.071848 0.09561309
0.006216243 0.05699205 0.0027103026 -0.10348647 -0.048094973 0.03670673 -0.015268346 -0.008828699
0.06459057 0.1051345 -0.015263646 -0.0035719767 0.08845308 0.16556111 0.017482424 0.09883669
0.06075296 0.030901825 0.11539943 0.054871596 0.053243365 0.08342823 0.13561578 0.07075013
0.016875753 0.0547051 0.003766011 0.0760796 0.15512496 -0.0068058157 0.063344754 0.14009038
-0.018108966 0.03371391 -0.02354671 0.034664996 0.0016581358 -0.06603159 0.092518955 -0.0098516205
-0.0072798487 0.03706608 -0.017117165 0.05000223 0.1834737 -0.05073743 0.02435764 -0.106235825
-0.06731849 0.032147016 -0.006890731 -0.04153747 0.064480156 -0.13633217 0.029991208 0.031063007
00000000: 9c50 873d c1fe c83c 8f43 d23d c57d 85bd
00000010: 1f79 0b3b a266 e4bd b773 023d 6d26 ad3d
00000020: d65f 153e ab7d 3bbd a798 363e bd2e c0bd
00000030: c96f 013e e25d f73d 09b2 0d3e 8458 e33d
00000040: 168f f63d b78c ff3d c067 1c3b 5632 3b3c
00000050: 4064 203b e0b7 d0bc d132 113e 2db0 433e
00000060: cf56 44bb 7af7 e13c 653f d5bc 58d2 ffbc
00000070: 8ce2 213e 0058 173e 8a1e e0bb 9cb4 bf3c
00000080: aadc 5c3e 7118 823d c21e 613b 4183 343e
00000090: bc3d 383e f225 673d 2808 673d 4b52 2f3e
000000a0: ec5e f03c 9578 613d 7c3a ca3c 6f04 7b3a
000000b0: 4bfa 873d 55ad 9c3d 712a 4a3d 69a5 913d
000000c0: 01a5 d83d 7152 8a3d 7cc0 c83d 65d0 813d
000000d0: a463 a83d fdc0 523d c252 9c3d cbba 71bb
000000e0: 33c8 3e3d 64b9 17bd 60a8 c0bc 95bb debc
000000f0: 578e d43d f77f bcbd 67ae 083e 14c1 9cbd
00000100: ffd9 1fbc 637a 4fbd 261d d43d 27c9 a9bc
00000110: c4a7 35be ddf0 f63b 4875 0d3c 9130 073d
00000120: 6a0d 9dbd 72fa b4bd 6f35 d7bc bcdf 90bd
00000130: baba 03bd 7ee2 363d e2d9 c63d 6e58 72bd
00000140: 7ee4 b7bd e361 243d 3300 a5bc aeda 863c
00000150: 7a00 21bd a926 ecbd f8c7 77bc 083e c3bd
00000160: f442 fc3d ad3c 3ebc ae4c 983a 7e13 033d
00000170: c0e5 043e 1ced 263d 2de4 c3bc 904b ee3c
00000180: cbf7 90bc ff98 98bd 2a92 89bd d06a b6bd
00000190: e193 fc3d 02b5 ba3c 562a 91bd 468d c63b
000001a0: 8463 febc dfc1 933d ea5f 9f3d ba1c 14be
000001b0: cac5 d93d a5d5 c73b e710 b03d a55c b6bd
000001c0: 6487 1ebd f088 243d 7112 1f3c 9602 c03d
000001d0: 2e0b c0bb 41b6 bebd b1f0 bbbc a56f 31bc
000001e0: 6305 c1bd 4a83 89bc 7fee debc fa54 843d
000001f0: bcd2 f1bd 3a3d 443c 1eca b7bd 2cab f73d
00000200: 0025 7c3d 8576 273e 5e82 9aba d9bf dcbd
00000210: 345e f43d 4209 1abc 1f04 37bd a418 013b
00000220: 562c f9bd 5c72 fcbc d8bb 633b d832 dc3d
00000230: 5399 c93d 88db 043d e963 83bd 3d66 353e
00000240: 87de 84bd 7e9a 833d b78d 573d bb52 fe3d
00000250: c290 da3d bc1a 5c3c 0172 a3bb 01bd 9fbd
00000260: 6042 f93d 7b43 133d f0ff d13c 9830 a13d
00000270: 1dc0 503d 49a7 c03c 2d59 133c 24f5 21be
00000280: e9cf 87bd fed4 e43a 4c82 fe3c 6b8c 7a3d
00000290: ec21 1ebd b0a4 c7bd 51b5 bb3d c766 f43a
000002a0: 3db3 123c 9fd9 533d fdc4 223e c1f6 92bc
000002b0: b076 363d 2ca7 363d 18bb ab3d d9f9 f23c
000002c0: 28ba dd3b 9f00 2c3d 5a64 213e 985d 773d
000002d0: 38c2 913d 8556 fb3d 2d5b 013d 4092 df3d
000002e0: b1fb 7bbd 6984 883d 109b 81bc 0fe1 40bd
000002f0: c9b5 77bb 4078 b13d b087 53bd 02fb bebc
00000300: 8986 03bd f768 0f3d c3e0 403b 85c1 1b3e
00000310: e858 febb f6b7 323d 0b25 933d ccd0 c33d
00000320: a0b1 cb3b 7f70 693d 559f 313b b7f0 d3bd
00000330: 3cff 44bd cc59 163d 1628 7abc 3fa6 10bc
00000340: 1048 843d c250 d73d 5f14 7abc d317 6abb
00000350: e326 b53d da88 293e 4d37 8f3c e46a ca3d
00000360: 19d8 783d d325 fd3c 8956 ec3d 0ac1 603d
00000370: b715 5a3d 6bdc aa3d ddde 0a3e 72e5 903d
00000380: 053f 8a3c 7412 603d 2ecf 763b 9fcf 9b3d
00000390: 14d9 1e3e 5203 dfbb e5ba 813d da73 0f3e
000003a0: 4159 94bc 9917 0a3d 08e5 c0bc e2fc 0d3d
000003b0: ce55 d93a 923b 87bd 947a bd3d b168 21bc
000003c0: cc8b eebb 9ad2 173d 4c39 8cbc 23cf 4c3d
000003d0: 88e0 3b3e 0dd2 4fbd ac89 c73c 2b92 d9bd
000003e0: 47de 89bd 97ac 033d a4cb e1bb 3223 2abd
000003f0: 2c0e 843d a99a 0bbe 1fb0 f53c d977 fe3c

conv1.1.weight f4 [32]
0.95194215 0.9268972 0.8627155 1.0967289 0.9130812 1.133819 0.8968788 0.96390826
1.0465199 1.1166421 0.98789376 1.1395744 0.75352377 0.9922846 1.2084954 1.2532127
0.8981755 1.1684718 1.030178 1.0514514 0.95126003 1.1367302 0.9823628 0.98159385
0.96911865 1.0453633 0.98872155 1.0458153 1.1114023 1.1106578 0.70181817 1.0441039
00000000: 7bb2 733f 2349 6d3f ecda 5c3f 9d61 8c3f
00000010: b1bf 693f fb20 913f d999 653f b1c2 763f
00000020: 5df4 853f 21ee 8e3f 9be6 7c3f 93dd 913f
00000030: efe6 403f 5d06 7e3f faaf 9a3f 4669 a03f
00000040: d4ee 653f 7c90 953f dfdc 833f f695 863f
00000050: c785 733f 6080 913f 217c 7b3f bc49 7b3f
00000060: 2918 783f 77ce 853f db1c 7d3f 47dd 853f
00000070: 6e42 8e3f 092a 8e3f 5baa 333f 32a5 853f

conv1.1.bias f4 [32]
-0.044010375 -0.13506813 -0.1700011 -0.22658274 -0.013719625 -0.25977257 -0.035176795 -0.04240796
-0.18370084 -0.029110251 0.008304026 -0.21528111 -0.21221639 0.012754948 -0.21548808 -0.028766992
-0.14180285 -0.16914023 -0.11967612 -0.00054600823 -0.20017144 -0.19635466 0.068863764 -0.08681877
-0.09136992 0.08031558 -0.011258009 0.0799886 -0.098488025 -0.100419745 -0.07718976 -0.07113221
00000000: 3944 34bd 4d4f 0abe c514 2ebe 4e05 68be
00000010: 47c8 60bc e900 85be 8b15 10bd f8b3 2dbd
00000020: 131c 3cbe 9f78 eebc 9c0d 083c a772 5cbe
00000030: 414f 59be 21fa 503c e8a8 5cbe c1a8 ebbc
00000040: c434 11be 1933 2dbe c118 f5bd fe21 0fba
00000050: bef9 4cbe 3211 49be 7208 8d3d 0ace b1bd
00000060: 2720 bbbd 7f7c a43d 8373 38bc 10d1 a33d
00000070: 17b4 c9bd dea8 cdbd aa15 9ebd c4ad 91bd

conv1.1.running_mean f4 [32]
0.003777139 -9.271654e-05 0.0057827756 -0.004631114 -0.0031692362 -0.0015924715 -0.0011616969 0.011086454
0.0016167389 -0.0013332621 0.0053014914 0.0033137095 -0.0008877574 0.00039462955 -0.0015757007 0.003166576
0.0030915458 0.0020231917 -0.0014651478 0.0063266223 -0.001539916 7.423453e-05 -0.0026940114 0.0011452847
-0.0009295172 -0.00014751591 0.0028081723 -1.8199265e-05 0.0021697616 -0.0046499427 0.0022868884 0.00018179114
00000000: e089 773b d070 c2b8 707d bd3b 9ac0 97bb
00000010: f6b2 4fbb 7aba d0ba 1444 98ba f5a3 353c
00000020: c1e8 d33a dac0 aeba 22b8 ad3b d22a 593b
00000030: 64b8 68ba 48e6 ce39 be87 ceba 5486 4f3b
00000040: 889b 4a3b 8697 043b 340a c0ba 8e4f cf3b
00000050: 02d7 c9ba 5cae 9b38 038e 30bb 611d 963a
00000060: d8aa 73ba 80ae 1ab9 5009 383b a0aa 98b7
00000070: 8f32 0e3b 8c5e 98bb 9fdf 153b 309f 3e39

conv1.1.running_var f4 [32]
12.924246 4.796739 16.126911 18.53377 15.263932 6.2270617 18.665268 31.030546
5.171162 9.843366 8.111041 6.984377 6.143405 9.352872 9.967092 14.651275
7.6514893 10.727546 10.670765 10.538529 7.251449 15.2862215 15.768188 10.40925
9.34132 13.048465 12.809059 8.611819 12.199807 14.564341 4.401502 7.7596927
00000000: b6c9 4e41 e37e 9940 ea03 8141 2945 9441
00000010: 1139 7441 1744 c740 7852 9541 8f3e f841
00000020: 297a a540 6d7e 1d41 d3c6 0141 0480 df40
00000030: c696 c440 5da5 1541 3579 1f41 9f6b 6a41
00000040: 00d9 f440 07a4 2b41 74bb 2a41 d19d 2841
00000050: df0b e840 5d94 7441 804a 7c41 4a8c 2641
00000060: 0c76 1541 83c6 5041 e8f1 4c41 03ca 0941
00000070: 6932 4341 8a07 6941 1bd9 8c40 674f f840

depth_conv.0.weight f4 [64, 1, 16]
-0.14973596 0.20458159 -0.53393507 -0.009752533 0.47648418 -0.46237865 0.2559104 0.12074546
-0.5448912 0.41637215 -0.073159486 0.35156962 -0.28452894 -0.00039733335 -0.41794524 -0.23830469
-0.4248326 -0.6602517 -0.181347 -0.055069704 -0.034640495 0.23509476 -0.10908285 -0.6973807
0.49258763 -0.1803281 0.2668158 -0.23705588 -0.0771166 -0.26178798 0.3954553 0.41197264
0.3747811 -0.107086666 -0.3084798 -0.05188938 -0.14056239 0.6653451 0.49475154 -0.89920413
-0.41482094 0.66797113 -0.25719592 -0.2705966 0.3273057 0.11202873 0.1418382 0.32444817
0.06477913 -0.061278235 -0.025475586 0.047277108 0.57033056 0.3027517 -0.95519245 0.24022259
-0.31165218 -0.019911151 0.3927704 -0.110176906 -0.3775257 0.24488054 -0.3226422 0.21770039
-0.34467107 0.09214064 -0.08969326 0.4611726 -0.5204066 0.5448429 0.24060255 0.60385317
-0.32784867 -0.08717669 0.27427927 -0.4107473 -0.009028323 0.19128227 0.4638644 -0.39597425
-0.3115563 -0.23636745 0.35869238 0.5541168 0.18686265 -0.09186347 0.36164844 -0.58030504
0.019129494 0.018320981 -0.5561552 -0.44084167 0.3079813 -0.089499764 0.4400783 -0.10985031
-0.3074544 0.1323765 0.12388271 -0.5211521 -0.006006519 0.7928147 -0.0095208995 -0.121722564
0.35762122 -0.00701765 0.19546446 -0.70202976 0.04999529 0.3962053 0.46955064 -0.027193623
0.2889803 -0.99301314 0.26778257 0.012182274 -0.48120806 0.17324677 0.33537126 -0.28522745
0.51889193 -0.27310327 0.013342253 0.3068909 0.29591978 0.1680528 0.2658451 -0.054235846
0.06040083 0.0023216328 0.21832058 0.15095158 -0.19495744 0.060416874 0.027520536 -0.14235893
-0.41783702 -0.4638743 0.8607584 -0.62016827 0.16590853 -0.2643101 -0.1369768 -0.35676718
0.9200431 -0.521062 0.06294754 -0.5628632 0.39672434 0.43023047 -0.7842586 -0.27743557
-0.29145458 0.24954371 -0.5997288 -0.55248934 0.06567129 0.02930547 0.79441386 -0.10692469
-0.79961544 -0.410778 -0.3450181 0.26313075 -0.08981161 0.6081527 -0.23762646 0.18181124
-0.23912677 0.18804033 0.2077813 -0.096787594 0.14129739 0.24153152 0.5550587 -0.38714096
0.31154576 -0.27896175 -0.07150309 -0.11052169 0.89396846 0.15402235 0.17344433 0.35111347
-0.89845645 -0.13334554 0.1228403 0.00847626 -0.2055373 0.5598708 0.41006666 -0.34105077
0.14540319 0.075007774 -0.3799707 0.33069348 0.28119245 -0.31819776 -0.00827272 -0.035746414
-0.21421094 -0.9614435 0.09570178 -0.38524112 -0.41492602 0.083404794 0.45918906 -0.31091657
0.13816538 0.3174925 -0.121044144 0.13121687 -0.16591743 -0.26069295 -0.19563314 0.22205083
-0.2924624 0.23801997 0.24945639 -0.05321897 0.28159246 -1.5080209 0.38943934 0.083521456
-0.12269133 -0.25243586 0.085547544 0.50021 0.058362577 0.5619837 -0.67452925 -0.22561207
-0.07733137 0.19542462 -0.2533496 -0.22786167 0.45504692 -0.56492186 -0.19220446 0.07569284
-0.010961869 -0.42030278 -0.47268513 0.39908156 0.16318075 -0.66787016 0.0927672 -0.051615853
0.041146684 0.32902813 -0.44169638 -0.21738344 0.36542755 -0.08380471 -0.5721294 0.16206144
00000000: 6254 19be d67d 513e f8af 08bf 17c9 1fbc
00000010: bcf5 f33e e5bc ecbe b006 833e 6549 f73d
00000020: fd7d 0bbf bb2e d53e a4d4 95bd ef00 b43e
00000030: c7ad 91be 2e51 d0b9 ebfc d5be 2506 74be
00000040: a983 d9be 4106 29bf 07b3 39be c590 61bd
00000050: 31e3 0dbd aebc 703e d466 dfbd 8b87 32bf
00000060: 7234 fc3e eea7 38be 159c 883e c7be 72be
00000070: 4fef 9dbd 1309 86be 1e79 ca3e 14ee d23e
00000080: 4fe3 bf3e 4150 dbbd 10f1 9dbe f589 54bd
00000090: 96ef 0fbe 0e54 2a3f 1350 fd3e 3e32 66bf
000000a0: 6963 d4be 2800 2b3f 2faf 83be a38b 8abe
000000b0: 9d94 a73e 526f e53d 083e 113e 121e a63e
000000c0: ecaa 843d e3fe 7abd 2db2 d0bc a4a5 413d
000000d0: 2f01 123f 4502 9b3e 7e87 74bf e9fc 753e
000000e0: e090 9fbe b61c a3bc 3419 c93e 6ea4 e1bd
000000f0: 0c4b c1be f7c1 7a3e 5c31 a5be daec 5e3e
00000100: ba78 b0be 3bb4 bc3d 1ab1 b7bd d11e ec3e
00000110: 5e39 05bf d37a 0b3f 8460 763e 1f96 1a3f
00000120: c8db a7be b189 b2bd 556e 8c3e 784d d2be
00000130: 88eb 13bc 80df 433e a27f ed3e 23bd cabe
00000140: 4f84 9fbe 4f0a 72be 87a6 b73e 99da 0d3f
00000150: ec58 3f3e ea22 bcbd fc29 b93e df8e 14bf
00000160: 75b5 9c3c e215 963c 3060 0ebf 00b6 e1be
00000170: baaf 9d3e a74b b7bd f151 e13e 33f9 e0bd
00000180: aa6a 9dbe b58d 073e 38b6 fd3d 396a 05bf
00000190: 55d2 c4bb e7f5 4a3f 8cfd 1bbc ae49 f9bd
000001a0: 211a b73e 51f4 e5bb d627 483e 39b8 33bf
000001b0: dcc7 4c3d 6cdb ca3e f168 f03e 29c5 debc
000001c0: 3af5 933e 1c36 7ebf cc1a 893e 2998 473c
000001d0: e760 f6be 9a67 313e c8b5 ab3e 5509 92be
000001e0: 1ad6 043f 31d4 8bbe 7799 5a3c ce20 9d3e
000001f0: cc82 973e 0916 2c3e d91c 883e 6826 5ebd
00000200: dc66 773d 8926 183b 6e8f 5f3e 0d93 1a3e
00000210: eca2 47be af77 773d bf72 e13c 8ac6 11be
00000220: bcee d5be ef80 edbe aa5a 5c3f 59c3 1ebf
00000230: ede3 293e a753 87be a543 0cbe 30aa b6be
00000240: f287 6b3f 5264 05bf a4ea 803d cd17 10bf
00000250: 741f cb3e 2b47 dc3e 2cc5 48bf 090c 8ebe
00000260: 8939 95be 6388 7f3e d487 19bf f16f 0dbf
00000270: ab7e 863d 0612 f03c b55e 4b3f 55fb dabd
00000280: 99b3 4cbf 7e51 d2be 36a6 b0be 13b9 863e
00000290: 26ef b7bd e5af 1b3f 5a54 73be ba2c 3a3e
000002a0: a6dd 74be a58d 403e 9fc4 543e 9338 c6bd
000002b0: 43b0 103e 0a54 773e 5418 0e3f 5737 c6be
000002c0: ed82 9f3e 13d4 8ebe 3670 92bd 3259 e2bd
000002d0: 1edb 643f 09b8 1d3e 649b 313e 25c5 b33e
000002e0: 3e01 66bf bc8b 08be b293 fb3d 03e0 0a3c
000002f0: 5f78 52be b153 0f3f 42f4 d13e 359e aebe
00000300: 93e4 143e ad9d 993d 858b c2be a850 a93e
00000310: 75f8 8f3e d1ea a2be 4d8a 07bc d56a 12bd
00000320: 1d5a 5bbe 2921 76bf 4bff c33d 533e c5be
00000330: 2f71 d4be 22d0 aa3d d41a eb3e 7530 9fbe
00000340: 3a7b 0d3e 618e a23e fee5 f7bd b75d 063e
00000350: 42e6 29be 8c79 85be 0e54 48be 4b61 633e
00000360: a2bd 95be 82bb 733e 7f71 7f3e 22fc 59bd
00000370: e32c 903e d406 c1bf 9864 c73e 4c0d ab3d
00000380: 9845 fbbd 463f 81be 8d33 af3d c30d 003f
00000390: 990d 6f3d 2ade 0f3f f3ad 2cbf da06 67be
000003a0: e95f 9ebd 641d 483e 0ab7 81be 9254 69be
000003b0: e9fb e83e b89e 10bf 3fd1 44be d904 9b3d
000003c0: 6999 33bc ed31 d7be c903 f2be 6b54 cc3e
000003d0: db18 273e 8af9 2abf bbfc bd3d 256b 53bd
000003e0: 6d89 283d 6076 a83e 0726 e2be c499 5ebe
000003f0: 5219 bb3e cea1 abbd 1377 12bf 6ff3 253e

depth_conv.1.weight f4 [64]
0.8582381 0.96096677 1.1706498 1.1697913 1.1933448 1.2710227 1.0885763 1.0043062
1.1039234 1.2943114 1.1227838 1.120341 1.0388143 1.108361 0.9535951 0.9983971
1.310543 1.025295 0.8534941 0.92221045 1.0458484 1.0074883 1.1544018 1.2820786
1.3460493 1.2843568 1.01281 1.05124 0.94050133 1.0610856 0.9388978 1.0089717
0.9934677 1.2119431 1.145697 1.0394287 1.1711334 1.2426374 0.87468827 0.95301944
0.9951806 1.0635682 1.057611 0.92500156 0.8923114 1.0217657 0.859546 1.0992477
0.97002286 0.9863633 1.0084194 1.3143487 1.186357 0.94733727 0.9578996 1.0586543
1.102058 1.1145574 0.97409403 1.0266747 1.5045434 1.0290511 1.0933872 1.026973
00000000: 7eb5 5b3f eb01 763f dad7 953f b9bb 953f
00000010: 86bf 983f dfb0 a23f 7856 8b3f 1b8d 803f
00000020: 5d4d 8d3f ffab a53f 61b7 8f3f 5567 8f3f
00000030: def7 843f c6de 8d3f cf1e 743f f496 7f3f
00000040: dfbf a73f de3c 833f 977e 5a3f fc15 6c3f
00000050: 5cde 853f 60f5 803f 70c3 933f 271b a43f
00000060: 584b ac3f ce65 a43f c2a3 813f 088f 863f
00000070: b2c4 703f a7d1 873f 9b5b 703f fc25 813f
00000080: e653 7e3f f420 9b3f 33a6 923f 000c 853f
00000090: b3e7 953f be0e 9f3f 92eb 5f3f 15f9 733f
000000a0: 28c4 7e3f 0123 883f cc5f 873f e7cc 6c3f
000000b0: 856e 643f 38c9 823f 350b 5c3f 26b4 8c3f
000000c0: 6b53 783f 4e82 7c3f e313 813f 943c a83f
000000d0: 8cda 973f b284 723f e838 753f fc81 873f
000000e0: 3d10 8d3f d1a9 8e3f 3a5e 793f 146a 833f
000000f0: e194 c03f f2b7 833f 1df4 8b3f da73 833f

depth_conv.1.bias f4 [64]
0.09171708 -0.045061257 -0.2802985 -0.065377414 -0.33398005 -0.16646594 0.019257521 0.10438236
-0.09919922 -0.095768705 -0.15278164 -0.13023536 -0.1678589 -0.13218345 -0.10500482 0.1734854
-0.36612532 -0.11555471 0.00062174385 0.012606247 0.19342832 -0.11580931 -0.105330035 -0.24646983
-0.25618407 -0.24567346 -0.04192681 0.06463054 0.14911012 -0.18512933 0.2690526 -0.08624428
-0.062341623 -0.30138364 -0.20749791 -0.18266825 0.029082404 -0.008201144 0.052353088 -0.10698532
0.036803305 0.026624383 0.09054077 -0.054788038 -0.23536009 0.078708425 -0.05346612 0.001250498
0.08723604 0.08100718 -0.15454257 0.10689738 -0.2790366 -0.16449624 0.17489862 -0.19640502
-0.15954624 0.11760564 -0.17034602 0.14681597 -0.4106233 -0.13727897 0.06373351 0.03264517
00000000: 2ad6 bb3d 2792 38bd 4983 8fbe 98e4 85bd
00000010: 6fff aabe 0c76 2abe f3c1 9d3c 6bc6 d53d
00000020: f628 cbbd 6222 c4bd ca72 1cbe 6b5c 05be
00000030: 34e3 2bbe 195b 07be c40c d7bd 28a6 313e
00000040: c774 bbbe f3a7 ecbd 86fc 223a 6f8a 4e3c
00000050: 1312 463e 6e2d edbd 46b7 d7bd 9662 7cbe
00000060: 8f2a 83be d391 7bbe 72bb 2bbd 045d 843d
00000070: 53b0 183e 8b92 3dbe 43c1 893e d7a0 b0bd
00000080: ee59 7fbd f54e 9abe 557a 54be 630d 3bbe
00000090: 393e ee3c 175e 06bc 3170 563d 1f1b dbbd
000000a0: 10bf 163d 611b da3c 706d b93d 6c69 60bd
000000b0: 3c02 71be e231 a13d 4aff 5abd c0e7 a33a
000000c0: cfa8 b23d 18e7 a53d 6840 1ebe 03ed da3d
000000d0: e3dd 8ebe b471 28be a018 333e 661e 49be
000000e0: 1760 23be 3adb f03d 306f 2ebe ed56 163e
000000f0: 383d d2be dc92 0cbe b786 823d f1b6 053d

depth_conv.1.running_mean f4 [64]
-0.07777178 -0.09299691 0.021937791 -0.004020726 -0.023482338 0.006146332 0.0003608404 0.00024372418
-0.104189046 -0.0767756 0.0037463407 -0.012379921 -0.11942071 -0.04092339 -0.061401077 -0.13000657
-0.00038428028 0.011629894 0.12550962 -0.15208235 -0.04153332 0.1835961 0.0025836513 0.0048081204
-0.04034111 -0.032834277 -0.25733086 -0.020164473 -0.00172211 0.033766255 -0.12856108 0.48475605
-0.018999575 0.0049027554 -0.0053343833 0.07752886 0.0057534096 0.00919498 -0.14739364 0.11267193
-0.054925203 0.012714364 1.4839665e-05 -0.055482786 -0.25910926 -0.23069866 -0.18142703 -0.020772513
0.0059811855 -0.11837417 -0.4601956 0.086634815 0.05112282 -0.2782303 0.20621747 -0.23358044
0.06697095 -0.047919754 0.06979669 0.02562681 -0.00031899946 -0.0052389232 -0.029421225 0.0019235127
00000000: d046 9fbd 2a75 bebd e2b6 b33c 4bc0 83bb
00000010: 085e c0bc 2b67 c93b 2e2f bd39 3690 7f39
00000020: 1161 d5bd 873c 9dbd 2b85 753b 27d5 4abc
00000030: d892 f4bd 499f 27bd b27f 7bbd 7120 05be
00000040: 3a79 c9b9 508b 3e3c 9885 003e 7abb 1bbe
00000050: d81e 2abd 9e00 3c3e 7a52 293b 708d 9d3b
00000060: b83c 25bd 3c7d 06bd dfc0 83be f72f a5bc
00000070: 6cb8 e1ba 7c4e 0a3d 84a5 03be f231 f83e
00000080: ffa4 9bbc 4ba7 a03b 0dcc aebb 73c7 9e3d
00000090: 1987 bc3b 8ba6 163c 5cee 16be 8ac0 e63d
000000a0: 40f9 60bd e84f 503c e0f7 7837 eb41 63bd
000000b0: f8a9 84be 453c 6cbe 02c8 39be 1e2b aabc
000000c0: d2fd c33b 286e f2bd c29e ebbe 986d b13d
000000d0: 2966 513d 3474 8ebe ac2a 533e b62f 6fbe
000000e0: 1128 893d 8147 44bd 91f1 8e3d 51ef d13c
000000f0: 623f a7b9 46ab abbb c804 f1bc 601e fc3a

depth_conv.1.running_var f4 [64]
1.2361887 2.248294 2.2182457 1.7020565 1.1501691 1.0601194 1.6760441 1.7741812
1.3554578 2.6863916 2.4070358 2.331398 2.1199608 1.6250058 1.2986307 1.7179129
3.0931823 3.933579 2.0373871 3.1357715 1.6166466 2.8596363 1.2396339 1.9458328
1.5842959 1.0452142 2.3229961 2.640661 1.5624093 2.4881413 2.0759451 10.003987
1.989551 0.9126044 1.2922517 2.2053144 1.5868475 1.0371842 1.6676477 1.869233
1.7363106 1.5605441 0.795005 10.771342 1.6645399 2.3225598 3.6548302 0.93265915
1.448843 3.3047268 2.915835 1.3739094 2.154725 2.9959862 1.3689635 2.055098
4.4082575 3.2969525 2.5874882 1.3383245 2.1984553 0.5548928 1.359856 1.1853725
00000000: 6e3b 9e3f 0de4 0f40 bdf7 0d40 fddc d93f
00000010: be38 933f feb1 873f 9d88 d63f 5f18 e33f
00000020: a47f ad3f d7ed 2b40 e00c 1a40 a035 1540
00000030: 70ad 0740 3100 d03f 8839 a63f 92e4 db3f
00000040: b3f6 4540 c2bf 7b40 8d64 0240 7bb0 4840
00000050: 47ee ce3f 4804 3740 53ac 9e3f 0d11 f93f
00000060: 35ca ca3f 94c9 853f f8ab 1440 9700 2940
00000070: 07fd c73f b53d 1f40 49dc 0440 5510 2041
00000080: 9ba9 fe3f 71a0 693f 8168 a53f df23 0d40
00000090: d21d cb3f 74c2 843f 7b75 d53f 0743 ef3f
000000a0: 6d3f de3f e9bf c73f 7385 4b3f 6b57 2c41
000000b0: a50f d53f d2a4 1440 bde8 6940 c0c2 6e3f
000000c0: b073 b93f a580 5340 0a9d 3a40 43dc af3f
000000d0: 04e7 0940 3dbe 3f40 323a af3f ba86 0340
000000e0: 7210 8d40 4501 5340 6899 2540 384e ab3f
000000f0: 7eb3 0c40 740d 0e3f c30f ae3f 49ba 973f

point_conv1.0.weight f4 [128, 64, 8]
-0.10529546 -0.059425663 0.06794073 0.07214415 -0.01965657 -0.07067298 -0.0034031982 0.026590984
0.040472943 0.049850635 -0.0034361007 -0.13863431 -0.148252 -0.10248824 -0.050064392 0.05267866
-0.032211337 -0.037243824 -0.030138243 -0.16146411 0.0115053225 0.021392457 -0.16011643 -0.07508895
-0.05834387 0.0033339337 -0.024858026 -0.02996252 0.15823032 0.06432651 -0.09899341 0.017907577
0.006581491 0.039658893 -0.021401132 -0.00707423 -0.006689166 0.030784221 -0.0200085 0.069127016
-0.069680445 -0.026128044 -0.11870057 0.12061074 0.02386005 0.12719628 -0.02694145 -0.17765811
0.08587427 -0.11508211 -0.034113374 -0.095845245 -0.04481781 -0.0026682 -0.019618956 -0.121159814
0.020872107 -0.13191468 -0.035817545 -0.057610467 -0.18535887 -0.13570307 -0.0440133 0.03260714
-0.12885334 -0.007438973 0.13200109 0.0014921163 0.12888654 0.07958355 0.042660285 -0.084636256
-0.12347907 -0.120475404 -0.0018126464 0.048006747 -0.050665177 0.046122234 0.08217231 0.02985501
-0.064279854 0.017171398 0.067392655 0.10562957 -0.05508229 -0.15907854 -0.032109402 -0.002533388
0.09728614 0.07511431 -0.037189502 0.05635875 0.00042788434 -0.017687839 -0.0054867677 -0.1459401
0.008022523 0.015208992 0.11865335 0.06907365 -0.08348479 -0.077430986 -0.09897854 -0.08780607
-0.122101486 0.012012388 -0.036373522 -0.056084063 -0.06392132 -0.13166468 -0.0745644 0.061738554
0.039217506 -0.03661269 -0.08796277 0.076708786 -0.052334365 0.06422249 -0.003576254 -0.016016154
-0.06308013 -0.072537966 -0.02463076 0.11953866 0.0023706509 -0.020454274 -0.09608245 -0.015334354
-0.11177437 -0.060363825 -0.14731403 -0.01681353 -0.102631845 -0.10605834 -0.06861485 -0.04478525
0.04858368 0.12610187 0.0558056 0.01303943 -0.13151146 -0.10398536 -0.10740648 -0.016522998
0.0072240876 -0.047520567 -0.071389385 0.036581825 0.03492026 0.053048752 0.019254899 -0.06656412
0.0032493288 0.034814075 -0.014439281 0.018711064 0.050544478 0.05480703 0.06745848 -0.095360756
-0.11444439 -0.14558421 -0.07576328 -0.0741252 -0.030231444 -0.11327551 0.09812543 -0.08500758
-0.050057553 -0.158484 -0.07262518 -0.09967466 -0.13943674 0.034844916 0.037285376 0.045389578
-0.060433995 0.022884918 0.04340568 0.08289553 0.095796406 0.04958067 0.09650222 -0.02900177
0.025519961 0.007316801 -0.0084816 0.026979135 0.024119072 0.09099729 0.14514236 0.09098192
-0.049910527 -0.12992159 0.059318934 -0.043485206 -0.0275164 0.004877941 0.12747565 0.041123826
-0.050610103 0.0326843 -0.07730036 0.10120374 0.09849031 0.09541041 0.08878477 -0.100141376
-0.02772941 0.0071195466 0.11400899 0.03809128 0.063632585 0.008524663 -0.11896549 -0.043984994
0.17269546 -0.14456822 -0.11175063 0.17170979 0.040486258 0.10427706 0.0073992102 -0.09695817
-0.12053352 -0.0541659 -0.16420554 0.09927396 0.001602915 0.082840964 -0.01488502 -0.059124295
0.07324344 0.04047321 0.08473607 -0.10543389 -0.038746517 -0.102022134 -0.03182611 -0.124136396
-0.1653631 -0.011410881 0.020038197 0.09912186 0.02327435 -0.02578877 0.08008217 -0.005728057
0.05859583 0.07431766 0.011205867 0.055577137 0.010057673 -0.056535225 -0.088709086 -0.17711703
00000000: 25a5 d7bd 5368 73bd 8224 8b3d 50c0 933d
00000010: d106 a1bc ffbc 90bd 3108 5fbb 56d5 d93c
00000020: f5c6 253d 2e30 4c3d 3430 61bb 27f6 0dbe
00000030: 5fcf 17be 5be5 d1bd 5210 4dbd 94c5 573d
00000040: 09f0 03bd fb8c 18bd 7ae4 f6bc d956 25be
00000050: d280 3c3c 3c3f af3c 90f5 23be 3cc8 99bd
00000060: fbf9 6ebd 207e 5a3b 0fa3 cbbc f573 f5bc
00000070: 2107 223e 9ebd 833d 0fbd cabd e9b2 923c
00000080: 8ca9 d73b 5d71 223d 6d51 afbc f1ce e7bb
00000090: cb30 dbbb 312f fc3c dee8 a3bc 7792 8d3d
000000a0: 9fb4 8ebd 7b0a d6bc 4919 f3bd c302 f73d
000000b0: 2776 c33c be3f 023e 51b4 dcbc 02ec 35be
000000c0: d9de af3d 2bb0 ebbd 77ba 0bbd 834a c4bd
000000d0: e192 37bd f8dc 2ebb efb7 a0bc a322 f8bd
000000e0: fbfb aa3c a414 07be 6bb5 12bd f4f8 6bbd
000000f0: b7ce 3dbe bff5 0abe 4a47 34bd 108f 053d
00000100: 21f2 03be a1c2 f3bb 4b2b 073e 1d93 c33a
00000110: d5fa 033e b3fc a23d 8dbc 2e3d c655 adbd
00000120: 98e2 fcbd cfbb f6bd 5296 edba b9a2 443d
00000130: 4a86 4fbd abea 3c3d f549 a83d 7e92 f43c
00000140: 28a5 83bd 08ab 8c3c 2905 8a3d 5154 d83d
00000150: f89d 61bd 7ce5 22be 2685 03bd 3307 26bb
00000160: f53d c73d 88d5 993d 0554 18bd 6fd8 663d
00000170: aa55 e039 16e6 90bc 58ca b3bb 5271 15be
00000180: e670 033c 232f 793c 8700 f33d 7c76 8d3d
00000190: 13fa aabd 2394 9ebd 43b5 cabd abd3 b3bd
000001a0: 5810 fabd 9bcf 443c 67fc 14bd 67b8 65bd
000001b0: 2ee9 82bd 1bd3 06be 38b5 98bd 91e1 7c3d
000001c0: 89a2 203d 30f7 15bd d325 b4bd 7f19 9d3d
000001d0: 8f5c 56bd 1587 833d 965f 6abb 4f34 83bc
000001e0: 2830 81bd c98e 94bd 73c6 c9bc afd0 f43d
000001f0: ec5c 1b3b b98f a7bc e0c6 c4bd f13c 7bbc
00000200: f6e9 e4bd 0f40 77bd 7dd9 16be 87bc 89bc
00000210: a530 d2bd 1d35 d9bd f185 8cbd bd70 37bd
00000220: aeff 463d d920 013e 6a94 643d 55a3 553c
00000230: f1aa 06be 47f6 d4bd eef7 dbbd 3d5b 87bc
00000240: 0ab8 ec3b eda4 42bd 9934 92bd d3d6 153d
00000250: 8c08 0f3d a649 593d 73bc 9d3c c552 88bd
00000260: b1f2 543b 3499 0e3d bc92 6cbc f247 993c
00000270: ba07 4f3d 567d 603d ac27 8a3d 804c c3bd
00000280: d261 eabd 0714 15be c729 9bbd f4ce 97bd
00000290: efa7 f7bc fefc e7bd fcf5 c83d 7418 aebd
000002a0: 2609 4dbd a149 22be 83bc 94bd 3a22 ccbd
000002b0: 81c8 0ebe 8bb9 0e3d 8db8 183d 6cea 393d
000002c0: a389 77bd 2779 bb3c 28ca 313d 22c5 a93d
000002d0: e830 c43d 1a15 4b3d f5a2 c53d 1f95 edbc
000002e0: 3d0f d13c c7c1 ef3b 69f6 0abc 5903 dd3c
000002f0: 5c95 c53c ca5c ba3d 33a0 143e bb54 ba3d
00000300: fb6e 4cbd 2a0a 05be 69f8 723d 8b1d 32bd
00000310: 136a e1bc 23d7 9f3b fa88 023e 7571 283d
00000320: 8a4c 4fbd f9df 053d a74f 9ebd e843 cf3d
00000330: 4ab5 c93d 8866 c33d cad4 b53d ec16 cdbd
00000340: ca28 e3bc 164b e93b 8c7d e93d 9a05 1c3d
00000350: cd51 823d 07ab 0b3c 2ea4 f3bd 9c29 34bd
00000360: 14d7 303e b109 14be 84dd e4bd b1d4 2f3e
00000370: ebd4 253d 368f d53d 1375 f23b 0192 c6bd
00000380: 47da f6bd 10dd 5dbd 7f25 28be 2550 cb3d
00000390: e718 d23a 86a8 a93d 4de0 73bc 512c 72bd
000003a0: a800 963d 3dc7 253d 1b8a ad3d b9ed d7bd
000003b0: abb4 1ebd fbf0 d0bd 185c 02bd 393b febd
000003c0: f254 29be b4f4 3abc 2527 a43c 6700 cb3d
000003d0: daa9 be3c f842 d3bc 1f02 a43d 6db2 bbbb
000003e0: 2e02 703d db33 983d d098 373c daa4 633d
000003f0: f0c8 243c 7b91 67bd 1cad b5bd 2b5e 35be

point_conv1.1.weight f4 [128]
0.933276 0.89056736 0.99029034 0.86277646 0.8648055 0.8538301 0.90066373 0.8105766
0.9054452 0.827946 0.9242871 0.7919686 0.915159 0.782892 0.87093717 0.8358557
0.91822 0.8944094 0.87432605 0.9004551 0.8789981 0.7946829 1.0167143 0.9669463
0.8795479 0.84278727 0.8295292 0.94879377 0.9929127 1.0039076 0.805717 0.90922564
0.9217451 0.83009994 0.82110876 0.8781791 0.87169814 0.9079515 0.9025335 0.95290214
0.8353364 0.85134184 0.91133285 0.9430037 0.93144757 0.79886705 0.86404717 0.83071804
0.90474516 0.99117047 0.94256186 0.86998665 0.98405147 0.7412272 0.89486617 1.0337532
0.91144115 0.95838356 0.97973603 1.0200545 0.79669714 0.8660641 0.8738055 0.87523603
0.9899723 0.99147666 0.94618016 0.9351121 0.99466145 0.8415299 0.93649733 0.805414
0.86218256 0.9247874 0.8934426 0.9584422 0.85536736 0.9632164 1.0499252 0.80290294
0.89658713 0.8572219 0.8761813 0.90995514 0.8974142 0.96427673 0.9029432 0.8903454
0.8919941 0.7574975 0.8412239 0.890723 0.84390026 0.8888415 0.7910196 0.9122844
0.9055185 0.95346415 0.95349365 0.9547037 0.84140766 1.0257002 0.91416955 0.9004264
0.94532895 0.94869566 0.92614615 0.9198153 1.0180357 0.9097267 0.83780587 0.8968258
0.9048269 0.83141005 0.8836647 0.798363 0.88541 0.89005995 0.8383092 0.8098132
0.8464112 0.8745607 0.96736103 0.93774307 0.91892827 0.9879351 0.8052431 0.85307914
00000000: 2deb 6e3f 39fc 633f ab83 7d3f ebde 5c3f
00000010: e563 5d3f 9c94 5a3f e691 663f f381 4f3f
00000020: 42cb 673f 45f4 533f 149e 6c3f 74be 4a3f
00000030: dc47 6a3f 9c6b 483f bdf5 5e3f a4fa 553f
00000040: 7710 6b3f 04f8 643f d5d3 5f3f 3a84 663f
00000050: 0506 613f 5770 4b3f b223 823f cb89 773f
00000060: 0d2a 613f e8c0 573f 075c 543f 26e4 723f
00000070: 872f 7e3f 0b80 803f 7843 4e3f 03c3 683f
00000080: 7df7 6b3f 6e81 543f 2f34 523f 58d0 603f
00000090: 9c27 5f3f 826f 683f 6f0c 673f 65f1 733f
000000a0: 9bd8 553f 8af1 593f 1c4d 693f b168 713f
000000b0: 5973 6e3f 8d82 4c3f 3232 5d3f f0a9 543f
000000c0: 619d 673f 59bd 7d3f bc4b 713f 72b7 5e3f
000000d0: ccea 7b3f 11c1 3d3f f315 653f 0652 843f
000000e0: 3554 693f a058 753f fbcf 7a3f 2591 823f
000000f0: 58f4 4b3f 60b6 5d3f b8b1 5f3f 780f 603f
00000100: d36e 7d3f 6ad1 7d3f dd38 723f 8263 6f3f
00000110: 22a2 7e3f 816e 573f 4abe 6f3f 9d2f 4e3f
00000120: ffb7 5c3f debe 6c3f a7b8 643f 785c 753f
00000130: 5bf9 5a3f 5a95 763f f363 863f 0c8b 4d3f
00000140: bc86 653f e572 5b3f 6b4d 603f d2f2 683f
00000150: f0bc 653f d7da 763f 4927 673f aded 633f
00000160: ba59 643f 5beb 413f 735a 573f 6c06 643f
00000170: d909 583f 1e8b 633f 4380 4a3f 788b 693f
00000180: 0fd0 673f 3a16 743f 2918 743f 7667 743f
00000190: 7e66 573f 254a 833f 0407 6a3f 5882 663f
000001a0: 1401 723f b8dd 723f ea17 6d3f 0479 6b3f
000001b0: fe4e 823f d9e3 683f 727a 563f 6096 653f
000001c0: bca2 673f 4ad7 543f da37 623f 8461 4c3f
000001d0: 3baa 623f f8da 633f 6f9b 563f eb4f 4f3f
000001e0: 68ae 583f 36e3 5f3f f9a4 773f ee0f 703f
000001f0: e23e 6b3f 51e9 7c3f 6924 4e3f 6563 5a3f

point_conv1.1.bias f4 [128]
0.00033794605 -0.0070790197 0.11655861 -0.089527294 0.040539287 -0.06129995 0.07382189 -0.16415188
0.023645148 -0.07306325 0.036874127 -0.1929264 0.029329885 -0.12948303 -0.04298395 -0.11530113
-0.004831381 -0.0032865223 -0.13319106 0.0055559776 0.003150431 -0.13497029 0.014750166 -0.06914916
-0.060975023 -0.078743674 -0.13462652 -0.059442226 0.022143815 0.019729735 -0.11864443 0.016553022
-0.00223917 -0.112493105 -0.0084143365 0.02286842 0.033505965 0.030411096 -0.031152057 -0.061458204
-0.09024993 -0.0023551413 0.0100971395 0.043940328 -0.004808013 -0.14485948 -0.012678864 -0.026900887
0.016431332 0.015501446 0.049840108 -0.07582637 0.058117114 -0.1963472 -0.03891863 0.0054674195
0.02646646 -0.020653622 0.09847071 -0.054346994 -0.11541231 -0.061383992 -0.076098196 -0.021874234
0.08128911 0.06215491 0.031051107 0.012857611 -0.008638984 -0.016853636 0.004152901 -0.070592605
-0.07681661 0.011268392 -0.047922228 0.07705036 0.019512305 0.040639836 0.06229244 -0.120034635
-0.0636584 -0.10745718 -0.018416395 -0.066106535 -0.045025326 0.018333787 -0.042243954 -0.060176518
-0.028270371 -0.15749206 -0.18386325 -0.119452514 -0.10049795 -0.09595435 -0.13820924 -0.0215461
-0.002146249 -0.08435577 0.041852526 -0.014464342 -0.02983294 0.046286862 -0.08304383 0.021725249
0.019356698 0.01378869 -0.008726504 -0.07179007 -0.011422628 -0.08318701 -0.054756753 4.666089e-05
0.10599919 -0.1758529 -0.021621635 -0.102596514 -4.7659523e-06 -0.021225022 -0.09504602 -0.002165508
-0.08610329 -0.1177452 0.0017223932 0.013315649 -0.014693589 0.049925543 -0.04101837 -0.15200117
00000000: 5a2e b139 1ff7 e7bb 48b6 ee3d 165a b7bd
00000010: 860c 263d a815 7bbd ee2f 973d 6e17 28be
00000020: 78b3 c13c 2fa2 95bd 5309 173d 808e 45be
00000030: 3a45 f03c 3397 04be f00f 30bd 0023 ecbd
00000040: 9050 9ebb b262 57bb 3d63 08be eb0e b63b
00000050: 7677 4e3b a735 0abe aeaa 713c 139e 8dbd
00000060: f2c0 79bd 5d44 a1bd 89db 09be b179 73bd
00000070: f266 b53c 41a0 a13c dafb f2bd 349a 873c
00000080: 0abf 12bb c962 e6bd 49dc 09bc 8e56 bb3c
00000090: 8d3d 093d b120 f93c 9932 ffbc 99bb 7bbd
000000a0: f5d4 b8bd b758 1abb 796e 253c c6fa 333d
000000b0: 898c 9dbb 0b56 14be 03bb 4fbc 405f dcbc
000000c0: 009b 863c c7f9 7d3c 2425 4c3d db4a 9bbd
000000d0: 360c 6e3d 3e0f 49be 2469 1fbd 0a28 b33b
000000e0: 31d0 d83c c931 a9bc 03ab c93d f49a 5ebd
000000f0: 4a5d ecbd c86d 7bbd 5fd9 9bbd 9831 b3bc
00000100: e87a a63d 2696 7e3d e45e fe3c bba8 523c
00000110: 868a 0dbc a310 8abc 0f15 883b db92 90bd
00000120: 0752 9dbd 109f 383c 194a 44bd 94cc 9d3d
00000130: 45d8 9f3c f575 263d 5c26 7f3d b8d4 f5bd
00000140: 565f 82bd 8312 dcbd fbdd 96bc dd62 87bd
00000150: 7a6c 38bd bd30 963c ff07 2dbd a77b 76bd
00000160: 4497 e7bc 9945 21be a646 3cbe 85a3 f4bd
00000170: dfd1 cdbd b783 c4bd b986 0dbe 7281 b0bc
00000180: 15a8 0cbb b8c2 acbd 8e6d 2b3d d9fb 6cbc
00000190: 3664 f4bc 4b97 3d3d e212 aabd 26f9 b13c
000001a0: f091 9e3c f5e9 613c 9cf9 0ebc ac06 93bd
000001b0: f925 3bbc f35d aabd 9e48 60bd c0b5 4338
000001c0: 1a16 d93d c812 34be db1f b1bc 1f1e d2bd
000001d0: 38eb 9fb6 19e0 adbc 7da7 c2bd 32eb 0dbb
000001e0: ec56 b0bd 6524 f1bd edc1 e13a e129 5a3c
000001f0: 61bd 70bc ba7e 4c3d e102 28bd 32a6 1bbe

point_conv1.1.running_mean f4 [128]
-0.43405664 -0.20622884 -0.7840345 0.26011565 -0.15681219 -0.5285044 -0.4611555 -0.3074045
-0.5771794 0.010903619 -1.1233156 -0.061136406 -0.5081204 0.7324032 -0.3105574 -0.72420555
-0.8167836 -0.45047435 -0.9200295 -0.22612661 -0.69664925 -0.50503755 -1.0350025 -0.5435465
-0.39099726 -0.18976462 -0.8584377 -0.11485958 -0.31014553 -0.47149792 0.10100611 -0.2714786
0.004981517 0.17219885 -0.5569899 0.024996594 0.2119935 -0.8432685 -0.07053363 -0.29673472
0.5134698 -0.33054394 -0.31816655 -1.0061557 0.40929398 -0.6645682 -0.25973132 -0.24109758
-0.26679015 -0.5222705 -0.9297291 -0.025291175 0.8414999 -0.6324879 -0.5650119 -0.32319692
-0.28019008 -0.3971331 -1.327559 -0.47184932 -0.4746121 -0.0886645 -0.090548255 -0.6865907
-0.6780592 -0.7803775 -1.0049806 -0.37760505 -0.85177624 -0.18980491 -0.27376428 0.1359643
-0.4853673 -0.49999213 -0.17300743 -0.26828328 -0.45775086 -0.7913568 0.8810918 0.19154528
0.6198383 -0.5786516 0.7019984 -0.77212983 -0.32240146 -0.65955895 -0.02231399 -0.45297357
0.28642055 -0.14322802 -0.54226124 -0.89149636 0.2963603 -0.60843664 -0.93448293 -0.34893644
-0.7983512 -0.28344 -0.98704785 -0.5453159 0.62323 -1.0318663 -0.3935141 -0.42411688
-0.39162365 -0.8006393 -0.35390577 0.9420767 -0.78866434 -0.28723162 -0.28448525 0.02715581
-0.60566443 -0.34147167 -0.09072822 0.6763133 -0.41589326 -0.36608124 -0.03973149 -0.09839269
0.16786478 -0.2456799 -0.29425782 -0.54666203 -0.6440517 -0.44613093 0.2142017 -0.62005365
00000000: ac3c debe a72d 53be 7cb6 48bf e12d 853e
00000010: 6093 20be 104c 07bf 931c ecbe 1f64 9dbe
00000020: 07c2 13bf 18a5 323c cec8 8fbf 2b6a 7abd
00000030: 2e14 02bf c77e 3b3f 6101 9fbe 8965 39bf
00000040: bb18 51bf 93a4 e6be 0e87 6bbf bc8d 67be
00000050: 9b57 32bf 244a 01bf f67a 84bf dd25 0bbf
00000060: cb30 c8be a851 42be 93c2 5bbf 803b ebbd
00000070: 65cb 9ebe 2d68 f1be 4bdc ce3d 3eff 8abe
00000080: fe3b a33b e554 303e e496 0ebf a8c5 cc3c
00000090: d314 593e 72e0 57bf f073 90bd 9ded 97be
000000a0: c272 033f 0e3d a9be bae6 a2be b6c9 80bf
000000b0: fb8e d13e 2421 2abf 81fb 84be 49e2 76be
000000c0: b898 88be 85b3 05bf ba02 6ebf 702f cfbc
000000d0: 8a6c 573f baea 21bf 9fa4 10bf 117a a5be
000000e0: 1375 8fbe 0855 cbbe 74ed a9bf 3c96 f1be
000000f0: 5b00 f3be bc95 b5bd 5d71 b9bd 68c4 2fbf
00000100: 4a95 2dbf d2c6 47bf 34a3 80bf 7355 c1be
00000110: 020e 5abf 385c 42be d52a 8cbe 3a3a 0b3e
00000120: 1082 f8be f8fe ffbe dc28 31be 6d5c 89be
00000130: 525e eabe 5c96 4abf 3b8f 613f 7224 443e
00000140: b9ad 1e3f 8322 14bf 2bb6 333f 4daa 45bf
00000150: ce11 a5be dbd8 28bf d4cb b6bc 27ec e7be
00000160: b7a5 923e 5eaa 12be a2d1 0abf 1b39 64bf
00000170: 8abc 973e 81c2 1bbf 463a 6fbf cca7 b2be
00000180: bf60 4cbf 0c1f 91be 2baf 7cbf d399 0bbf
00000190: 008c 1f3f 3214 84bf ae7a c9be d925 d9be
000001a0: e582 c8be b2f6 4cbf 2333 b5be f02b 713f
000001b0: e8e5 49bf 0610 93be 0da8 91be dc75 de3c
000001c0: d30c 1bbf 60d5 aebe b8cf b9bd de22 2d3f
000001d0: f6ef d4be 006f bbbe 7dbd 22bd 1b82 c9bd
000001e0: bfe4 2b3e 8393 7bbe f6a8 96be 0bf2 0bbf
000001f0: 92e0 24bf 466b e4be b157 5b3e d6bb 1ebf

point_conv1.1.running_var f4 [128]
4.0240483 2.6737876 7.321175 4.495412 3.5234177 3.9163916 3.2697968 5.052415
4.316482 1.9421289 5.6799717 5.7020054 4.0001307 2.3470001 3.6648068 4.7084208
5.0723796 3.768065 5.2048697 4.4559546 3.416346 4.4387245 4.168232 5.2479496
4.078926 4.3277206 3.6170375 3.9554152 3.271256 5.763045 2.4314406 6.076027
2.383748 2.307849 5.4039373 4.041029 3.9656377 3.8325064 2.5516124 7.03019
3.137396 2.729985 3.2912169 6.4670796 6.4166102 2.7179074 3.7017891 2.9922569
5.0161285 5.0194054 5.7246556 3.8361335 7.5556498 3.301478 3.2501364 4.9647465
2.6705225 3.2790508 5.640093 3.8600547 4.3162975 2.702828 3.1043153 2.4105365
7.907775 4.4868817 3.6733923 3.07032 5.4880815 4.2785683 4.473681 2.5967
4.115668 3.3913434 2.6757436 6.3561754 3.6510377 4.30098 9.991054 4.8408666
2.6510036 3.9698477 6.124848 3.742436 3.871701 5.374475 4.5774293 3.1503282
3.240342 2.842958 4.0662804 3.715366 3.5121622 4.9061117 3.4018943 2.7349215
3.3548775 4.520121 4.3799133 5.417983 4.5851793 5.554182 7.287457 3.9216783
3.5671885 4.068697 5.2769275 6.83115 5.672183 4.44216 2.0131764 4.592166
5.038384 4.438313 4.216021 2.7258685 2.6310391 3.2614002 1.8396351 2.2436206
2.27429 4.9560976 5.1502104 4.3302383 5.4296103 5.3519554 2.2166374 6.120976
00000000: 01c5 8040 561f 2b40 1147 ea40 6ada 8f40
00000010: ad7f 6140 29a6 7a40 5a44 5140 62ad a140
00000020: 9f20 8a40 ae97 f83f 54c2 b540 d476 b640
00000030: 1201 8040 4035 1640 328c 6a40 62ab 9640
00000040: ef50 a240 fa27 7140 4b8e a640 2e97 8e40
00000050: 6aa5 5a40 080a 8e40 2862 8540 34ef a740
00000060: 9086 8240 b07c 8a40 8b7d 6740 8625 7d40
00000070: 425c 5140 dd6a b840 b99c 1b40 d06e c240
00000080: 548f 1840 ccb3 1340 0eed ac40 1c50 8140
00000090: 02cd 7d40 c947 7540 9e4d 2340 51f7 e040
000000a0: 19cb 4840 13b8 2e40 4ca3 5240 51f2 ce40
000000b0: df54 cd40 32f2 2d40 1dea 6c40 2381 3f40
000000c0: 2084 a040 f89e a040 6130 b740 3683 7540
000000d0: e2c7 f140 6a4b 5340 3c02 5040 34df 9e40
000000e0: d7e9 2a40 f8db 5140 a47b b440 230b 7740
000000f0: 1c1f 8a40 22fb 2c40 1aad 4640 3b46 1a40
00000100: 7e0c fd40 8994 8f40 dc18 6b40 1f80 4440
00000110: 5d9e af40 08ea 8840 6528 8f40 5530 2640
00000120: 8db3 8340 c50b 5940 623f 2b40 ca65 cb40
00000130: 9aaa 6940 a1a1 8940 5bdb 1f41 61e8 9a40
00000140: 0baa 2940 fc11 7e40 c1fe c340 1284 6f40
00000150: f3c9 7740 b3fb ab40 4d7a 9240 fa9e 4940
00000160: c361 4f40 06f3 3540 f81e 8240 8ec8 6d40
00000170: 44c7 6040 defe 9c40 a3b8 5940 f408 2f40
00000180: 50b6 5640 d5a4 9040 4028 8c40 1e60 ad40
00000190: cab9 9240 dcbb b140 d932 e940 c7fc 7a40
000001a0: d14c 6440 c432 8240 97dc a840 c898 da40
000001b0: 8682 b540 2d26 8e40 e2d7 0040 06f3 9240
000001c0: 713a a140 a906 8e40 a5e9 8640 a174 2e40
000001d0: f262 2840 c8ba 5040 2a79 eb3f 7b97 0f40
000001e0: f88d 1140 5a98 9e40 86ce a440 5091 8a40
000001f0: 5ebf ad40 3843 ab40 63dd 0d40 09df c340

attention.0.weight f4 [1, 128, 1]
-0.016987646 -0.06627836 -0.17953111 0.026017737 -0.086753435 -0.016711984 -0.10233548 0.07090469
-0.026622795 -0.008578033 -0.16877349 0.07566079 -0.08346919 0.016862884 -0.025242018 0.012480751
-0.07036254 -0.077145554 0.16413549 -0.060829453 -0.052760426 0.032149464 -0.1356438 -0.08685616
-0.04594654 0.03490325 0.07181549 0.00442162 -0.056316637 -0.1319105 -0.0028004858 -0.04354661
-0.024398904 0.036300007 -0.024494093 -0.07305693 -0.07649129 -0.047170505 -0.037431534 -0.020505575
0.10482284 -0.05165767 -0.047073387 -0.087383576 -0.079673186 -0.0022708545 -0.032596577 -0.016617686
-0.07314363 -0.22114614 -0.09571638 -0.002190516 -0.1378045 0.12530556 -0.041043054 -0.119186305
-0.049656443 -0.071601376 -0.23049259 0.0001039597 0.012987018 0.017479384 -0.045386087 -0.016268963
-0.22758757 -0.16737135 -0.036025986 -0.053613648 -0.08635396 -0.030151788 -0.057358667 -0.004852809
0.036510393 -0.087892525 -0.03214726 -0.12752557 -0.027018944 -0.18825057 -0.18519726 -0.026229285
0.009510125 0.012832698 -0.008242107 -0.041902363 0.010465915 -0.05449954 0.0055770907 -0.06340838
-0.078579195 0.026582696 0.11786824 0.011775145 0.051045362 -0.027730312 0.018794399 -0.018934986
-0.05682727 0.020761574 -0.012399437 -0.07828348 0.008721256 -0.15711862 -0.02464654 -0.0554435
-0.06783621 -0.07780047 -0.07612945 0.021458657 -0.11156194 -0.03153352 -0.0043064067 -0.07438234
-0.109070815 0.16584764 -0.07478433 0.038393807 -0.074603595 -0.057343557 0.035556115 -0.016333664
0.017520139 0.04715114 -0.082608394 -0.13216634 -0.10955412 -0.14071685 -0.027597055 0.10909597
00000000: ad29 8bbc f3bc 87bd 01d7 37be 2623 d53c
00000010: c9ab b1bd 92e7 88bc 4495 d1bd 7a36 913d
00000020: 0c18 dabc e18a 0cbc f5d2 2cbe 0bf4 9a3d
00000030: e5f1 aabd 0824 8a3c 59c8 cebc 107c 4c3c
00000040: 3c1a 90bd 7dfe 9dbd 2213 283e 4e28 79bd
00000050: 511b 58bd 28af 033d 35e6 0abe a4e1 b1bd
00000060: 7032 3cbd b6f6 0e3d 0014 933d 3de3 903b
00000070: 46ac 66bd 8c13 07be 5b88 37bb ee5d 32bd
00000080: 36e0 c7bc 51af 143d d6a7 c8bc df9e 95bd
00000090: 77a7 9cbd dc35 41bd cf51 19bd 4ffb a7bc
000000a0: 5bad d63d fe96 53bd 06d0 40bd 29f6 b2bd
000000b0: b22b a3bd 9ed2 14bb fd83 05bd d021 88bc
000000c0: 54cc 95bd 2274 62be f306 c4bd c38e 0fbb
000000d0: 9f1c 0dbe 1a50 003e c31c 28bd f317 f4bd
000000e0: 8e64 4bbd bea3 92bd 4006 6cbe f004 da38
000000f0: 80c7 543c ed30 8f3c c3e6 39bd 7d46 85bc
00000100: b70c 69be 6563 2bbe fc8f 13bd fc99 5bbd
00000110: 58da b0bd e200 f7bc ecf0 6abd 5004 9fbb
00000120: ec8b 153d ff00 b4bd d8ac 03bd 1096 02be
00000130: d556 ddbc c2c4 40be 5aa4 3dbe ccde d6bc
00000140: 5bd0 1b3c 3d40 523c e709 07bc d0a1 2bbd
00000150: 3b79 2b3c e93a 5fbd 07c0 b63b 41dc 81bd
00000160: 21ee a0bd f4c3 d93c e764 f13d 8aec 403c
00000170: f114 513d ae2a e3bc b6f6 993c 8b1d 9bbc
00000180: b6c3 68bd 2d14 aa3c 0227 4bbc 1753 a0bd
00000190: 99e3 0e3c b4e3 20be 8ae7 c9bc b918 63bd
000001a0: b6ed 8abd da55 9fbd c2e9 9bbd 11ca af3c
000001b0: 967a e4bd 4b29 01bd c21c 8dbb c555 98bd
000001c0: 8560 dfbd f7d3 293e 8728 99bd d342 1d3d
000001d0: c5c9 98bd 14e1 6abd 4aa3 113d 2dce 85bc
000001e0: 6586 8f3c 8e21 413d 972e a9bd 9d56 07be
000001f0: e95d e0bd 1418 10be 3813 e2bc b56d df3d

classifier.0.weight f4 [256, 128]
0.061387338 0.038215473 0.00641963 -0.030700188 0.0059608333 -0.0034782402 0.029620454 0.10254658
-0.052508578 -0.08214884 0.021666238 -0.044720843 -0.011270228 0.082510576 0.052342627 0.19817609
-0.053424943 0.027637852 0.10582855 -0.004193416 0.016859919 -0.11216833 -0.049900316 0.0011262906
-0.028932145 -0.026509603 0.1166887 0.072108254 0.06273231 -0.18851864 0.042765405 0.034414124
-0.18276018 -0.0680068 -0.029686593 -0.1730955 -0.0107633695 0.037870854 -0.05225906 -0.04293933
-0.011081726 0.02258606 0.030453747 0.0052394345 0.057793256 -0.12555818 0.029776879 0.14745775
-0.01768864 -0.087981686 0.010745283 -0.0017147299 -0.07557894 0.09888383 0.15644711 0.009453308
0.027115254 0.0037535734 0.031652108 0.00011521877 -0.055621177 -0.029455615 -0.048027977 0.10486797
-0.027115906 0.15316239 -0.02470682 -0.04701043 -0.06139243 -0.0060597863 0.016866175 -0.009378353
-0.062504254 0.072626345 -0.05986369 -0.036921777 -0.030494137 0.022959363 -0.048805155 -0.07853711
0.042176545 0.02825861 0.008702974 0.06643485 0.13301922 0.1862805 0.06750738 0.027285336
-0.024049934 0.036923118 -0.055722915 0.089580506 0.01405741 0.019340878 0.010814827 0.06812725
-0.04799296 -0.059579507 0.08683551 0.056138285 -0.11327994 -0.0046686605 -0.059414662 -0.11258915
0.07210231 -0.07402266 0.09415868 -0.015041794 -0.057412874 0.051521584 -0.10331998 0.0010542118
0.07115785 0.0026633895 0.066941544 -0.16558842 -0.0035236925 -0.04113579 -0.007308467 0.0071928385
-0.04924961 -0.19522986 -0.15658394 0.041511275 -0.007898513 0.08462076 0.13971165 0.15126887
-0.10000562 0.06812771 -0.11744235 0.30275327 -0.1051277 -0.020704769 0.07208298 0.11262237
0.08622577 0.048022214 -0.01113703 0.043340243 -0.036724254 -0.045687035 0.21045811 0.09334475
0.034379054 0.11423342 0.12909164 0.07793402 -0.16093716 -0.05441698 0.14029442 -0.08686588
0.1388553 0.086029045 0.062768556 0.09031855 -0.043721646 0.10695343 -0.031494834 0.07246322
-0.07964394 0.061110392 0.08940028 0.10254768 -0.062498566 -0.009536661 0.16117956 0.14073673
-0.09918056 -0.047024805 -0.13487151 0.04003746 -0.042202823 0.060729448 0.112884164 0.06698607
0.049821608 0.033777624 0.09387868 -0.023655534 -0.042869654 0.1037662 -0.006800872 -0.15701775
0.16543466 -0.23818375 0.082162455 -0.034539018 0.06604466 -0.0723986 -0.022390848 0.14139214
-0.11666682 -0.065479495 -0.0050976733 -0.1893375 -0.1480741 0.16536888 0.0003246002 -0.078774504
0.038306236 0.08341128 0.06328419 -0.08230912 0.045991793 0.22497055 0.020093678 -0.109207116
0.000659582 -0.20804964 -0.122606486 0.1020172 -0.102591395 0.008066093 0.07637281 -0.07051077
-0.18378137 -0.12577784 -0.033802666 0.108021535 -0.061881877 -0.04269835 0.1496159 0.10026755
-0.015036673 -0.015835434 -0.062683195 -0.012974799 0.041100547 0.05468482 0.17784505 0.16320206
0.0068717804 -0.056120377 -0.0013114997 -0.11139195 0.100176 -0.23959467 0.14773256 -0.17603195
0.09737121 -0.023376953 0.01757692 0.042576153 -0.23983634 -0.018878119 -0.06475409 0.011546242
0.018766327 0.085602194 0.11280091 0.11403486 0.0007270311 -0.021350939 0.10626435 -0.13392235
00000000: 4a71 7b3d d487 1c3d c25b d23b f67e fbbc
00000010: 1853 c33b 30f3 63bb 98a6 f23c f103 d23d
00000020: 3c13 57bd a73d a8bd 657d b13c 342d 37bd
00000030: c3a6 38bc 4efb a83d 3965 563d acee 4a3e
00000040: 1dd4 5abd c768 e23c a4bc d83d ec68 89bb
00000050: d01d 8a3c 82b8 e5bd 4664 4cbd 0ba0 933a
00000060: 1b03 edbc ab2a d9bc 7cfa ee3d 7ead 933d
00000070: cc79 803d 080b 41be c72a 2f3d d3f5 0c3d
00000080: 7c25 3bbe 2647 8bbd 4c31 f3bc f23f 31be
00000090: d858 30bc 781e 1b3d 990d 56bd 27e1 2fbd
000000a0: 2190 35bc 6706 b93c 237a f93c 90af ab3b
000000b0: 9fb8 6c3d 5392 00be a4ee f33c 2aff 163e
000000c0: c4e7 90bc be2f b4bd fc0c 303c cac0 e0ba
000000d0: 22c9 9abd 9b83 ca3d ac33 203e 0ce2 1a3c
000000e0: cf20 de3c 83fe 753b a4a5 013d 9ba1 f138
000000f0: 08d3 63bd e74c f1bc fcb8 44bd 05c5 d63d
00000100: 2d22 debc 9ad6 1c3e f565 cabc 028e 40bd
00000110: a176 7bbd 2c91 c6bb ef2a 8a3c aaa7 19bc
00000120: 3b02 80bd 1fbd 943d a133 75bd 4a3b 17bd
00000130: d7ce f9bc 4615 bc3c eae7 47bd 10d8 a0bd
00000140: 50c1 2c3d 9a7e e73c eb96 0e3c ff0e 883d
00000150: 3136 083e 51c0 3e3e 4f41 8a3d 7f85 df3c
00000160: 5e04 c5bc b23c 173d b63d 64bd fc75 b73d
00000170: 0d51 663c c370 9e3c ac30 313c 4d86 8b3d
00000180: 4494 44bd a409 74bd d1d6 b13d 42f1 653d
00000190: 50ff e7bd 90fb 98bb ca5c 73bd 2495 e6bd
000001a0: 60aa 933d 3199 97bd 44d6 c03d db71 76bc
000001b0: c329 6bbd 4c08 533d 6d99 d3bd 7a2d 8a3a
000001c0: 35bb 913d 438c 2e3b a618 893d 0390 29be
000001d0: c0ed 66bb 017e 28bd dd7b efbb e7b1 eb3b
000001e0: f6b9 49bd 56ea 47be 8a57 20be ba07 2a3d
000001f0: c468 01bc a64d ad3d 9210 0f3e 3ae6 1a3e
00000200: bfcf ccbd 8a86 8b3d 9d85 f0bd 7a02 9b3e
00000210: 314d d7bd 0c9d a9bc 3ea0 933d 8fa6 e63d
00000220: 2397 b03d f1b2 443d 1778 36bc 8a85 313d
00000230: 2c6c 16bd 5422 3bbd 5582 573e 882b bf3d
00000240: 0dd1 0c3d 36f3 e93d 9930 043e df9b 9f3d
00000250: b6cc 24be 57e4 5ebd 57a9 0f3e bde6 b1bd
00000260: 1530 0e3e ff2f b03d cd8c 803d eff8 b83d
00000270: 7815 33bd 660a db3d ba00 01bd 9967 943d
00000280: 5d1c a3bd e44e 7a3d 7e17 b73d 8504 d23d
00000290: 7ffe 7fbd a83f 1cbc 410c 253e 4a1d 103e
000002a0: 2d1f cbbd 159d 40bd c21b 0abe 52fe 233d
000002b0: dedc 2cbd 71bf 783d d02f e73d fe2f 893d
000002c0: be11 4c3d 685a 0a3d 7743 c03d 40c9 c1bc
000002d0: 1798 2fbd 6083 d43d d9d9 debb 43c9 20be
000002e0: b467 293e 71e6 73be ca44 a83d c978 0dbd
000002f0: 6c42 873d b845 94bd 036d b7bc 1ac9 103e
00000300: 04ef eebd 1d1a 86bd 620a a7bb b1e1 41be
00000310: bda0 17be 7656 293e 1a2f aa39 8754 a1bd
00000320: 00e7 1c3d 88d3 aa3d 249b 813d af91 a8bd
00000330: e461 3c3d ae5e 663e 7f9b a43c fba7 dfbd
00000340: cce7 2c3a f70a 55be 1c19 fbbd 65ee d03d
00000350: 701b d2bd a527 043c 5969 9c3d f367 90bd
00000360: 2f31 3cbe e8cb 00be aa74 0abd 653a dd3d
00000370: da77 7dbd 77e4 2ebd e934 193e 1359 cd3d
00000380: 615c 76bc 50b9 81bc 0c60 80bd 4094 54bc
00000390: 0c59 283d 31fd 5f3d 031d 363e 711e 273e
000003a0: ac2c e13b 7bde 65bd a1e6 abba 7621 e4bd
000003b0: 1329 cd3d 4e58 75be 3447 173e b841 34be
000003c0: 8f6a c73d 0681 bfbc 79fd 8f3c 5564 2e3d
000003d0: a897 75be 49a6 9abc cb9d 84bd 732c 3d3c
000003e0: d7bb 993c 3450 af3d 2a04 e73d 1c8b e93d
000003f0: 3b96 3e3a 2ae8 aebc 20a1 d93d f122 09be
