models/sweep_top_c_lr7e-4_wd2e-3.pth (torch, 462775 bytes, 20 tensors)

conv1.0.weight f4 [32, 6, 64]
00000000: 915a 86bc 8356 c73d dca3 dc3b 9af2 fd39
00000010: 9707 ebbd 0151 19bc a3f0 15bd d218 30bc
00000020: 9961 8ebd 4475 9a3c 7631 56bd ab0a 81bd
00000030: 7a93 b9bd eb34 ae3c f7d0 9bbd 6de4 d53c
00000040: 8841 16be 8fb0 17bd cc77 d23c 2cfa 43bd
00000050: 4097 1abe 36c3 bbbd 59a6 8abb 165e bb3b
00000060: 2be6 ad3d f63d 91bd 929a a0bd 9b1c 253e
00000070: efbd efbc a83e a23c 780e 1abd 937c 5e3c
00000080: 16a9 443d 34e2 8a3d 391d ac3c 0f5b 193e
00000090: fb36 933b 5428 213e e82b 1ebd 75cb b7bd
000000a0: f2ba 6bbb 8232 a63d b45c 343c 0f91 5b3d
000000b0: 2360 90bd ea15 c9bc 15d3 f63d 7361 a33d
000000c0: a063 dfbc 9d5a 46bd 89a6 a2bc 3827 ab3d
000000d0: 436d b8bd 1cfe 70bd b68c 2b3d 61e5 a9bc
000000e0: 3381 be3b 0cab 8d3c ff3c 1a3d 2e5e f93c
000000f0: 111e 1f3d d920 a7bc 4851 94bc 1334 bbbc
00000100: 946b 88bd 56d7 063e f9e2 80bd 3385 54bd
00000110: 33b2 823d a4d4 b9bd 5fa9 6b3c 7a70 b23c
00000120: 45d5 1f3e c536 0c3e 6832 d0bc 4afb b3bd
00000130: 27b1 febc 0096 5d3d 52e1 d9bd 95f9 7fbd
00000140: 61ff 62bd 0428 5cbd ff05 adbd 8b6f 5cbd
00000150: 3837 47bd 85c3 b63c be73 873d cd78 1abe
00000160: 19d5 743d 6d6e 5abd dbff 0abd 23c8 3fbe
00000170: c215 08be 33b8 94bd ad64 23bd 1525 043e
00000180: ebd5 d2bd 45c5 4ebd ff6a 3c3c bf78 cabd
00000190: b9dd 143e 4373 f5bd 4246 8abd 44db 5fbd
000001a0: 7957 833d 770e eb3d 4840 513d 35b7 0f3e
000001b0: 58b5 05bd 63ed be3d 4dc2 283d 0df4 a53c
000001c0: 8a3a 063e bed3 e73d 6cb4 81bd 6b16 f63c
000001d0: 5a33 d33d d08d d13d 7d5c 823d 06db cabd
000001e0: f5c7 b43d b4f8 7d3d ee08 493d 2d9f dcbb
000001f0: e5e1 b93d 1a82 4d3d a73b 7a3d b1a8 a73a
00000200: 063d 323d 7e3e 523c fee2 25ba 12ad 1b3b
00000210: 6172 0f3e 7b1a 9e3c 365a 953b 1f32 e83a
00000220: af82 97bd 9cd0 ddbb f338 cdbd 64e7 ab3c
00000230: 40e6 033d c8dc 913d 3eb4 513d bf0e 82bd
00000240: 8f03 0c3d 59c1 46bd 14a5 873b a162 96bd
00000250: 9ad5 4cbe 8bd5 443e fce5 e4bd aa04 0f3e
00000260: 186a a53d 514b 813d a6ba b9bb 24b6 17bd
00000270: 8ef1 903d 9ec2 c13a 781f 52bd f924 58bd
00000280: 932e 02bd 7215 0abe 08e5 08bd 9cb4 bf3c
00000290: 1df6 05bd 1b02 d9bd 2a52 1ebd cb97 dfbc
000002a0: ebc4 88bd 4bf6 11be 932f b53b f71b 4d3d
000002b0: 0812 213d 8c5f 493c d770 153d 8f51 43bd
000002c0: 2922 933d 0731 f5bd 7e7c bfbd d705 abbc
000002d0: b93e 3b3d a980 04be e3f5 823d f98b a1bd
000002e0: 72da 14bd 41fe 6c3d 8781 a1bd 4c76 2abe
000002f0: 9fa4 a4bd 5fe9 1abe 52d6 35bd f76c bebd
00000300: ff7d 86bd d6cb 92be 4111 cabd d1d4 47be
00000310: 25fc 66be ed1b c83b 1ac1 56be 8c9b 17bb
00000320: a4b7 00be 882b ddbd 1f57 5cbd dcac 17be
00000330: 7e0f 79be 4394 22be 5960 88be b7fe 2ebe
00000340: e073 43be 0d56 33bd 164d 99bd 79c9 80be
00000350: 87fb 09be 5ef2 09be 3132 74bb ef55 eabd
00000360: 632f 09be 9cc9 03be 70f0 babd 09c3 6fbd
00000370: 7f6c 1d3e cdcd a13d 5100 4ebd 1a2a d6bb
00000380: 9a0c 253c 6d33 a4bc 1775 ee3d 2b4a 53bd
00000390: 37b4 d73d 0ce0 5f3e 2d79 273d 531b a93d
000003a0: 1367 233e 6792 0b3d 648c ee3d 6dd5 90bd
000003b0: d44e c63d 6d27 f73d 2c8a 123e 2649 373e
000003c0: 1c1c b03d 2867 0c3e feac 2abe 196f de3d
000003d0: 1686 a93d 741a 033e 5730 de3d dad9 0b3e
000003e0: 55a1 e73d 5dbd 483e 37b1 d63d 57b3 6d3e
000003f0: c6e7 293e 2813 d23d c8c8 273e 4291 973d
-0.016400607 0.09733298 0.0067334007 0.00048436673 -0.11476057 -0.009357692 -0.036606442 -0.010748105
-0.06952209 0.018854745 -0.052293263 -0.06300863 -0.09061332 0.021265468 -0.07608216 0.026109898
-0.14673436 -0.037033614 0.02569189 -0.047846004 -0.1509676 -0.09168093 -0.004231256 0.005718003
0.08491167 -0.07091896 -0.07841982 0.16124193 -0.029265372 0.019805267 -0.037611455 0.0135795055
0.048012815 0.06781426 0.021010028 0.14976142 0.004492638 0.1573804 -0.03861609 -0.08974353
-0.0035969582 0.08115102 0.01100843 0.053605136 -0.070495866 -0.024546582 0.120519795 0.07977571
-0.027269185 -0.04842626 -0.0198548 0.0835709 -0.09005215 -0.058836088 0.04188224 -0.02073926
0.0058137416 0.017293476 0.037655827 0.030440416 0.038847033 -0.020401405 -0.018105164 -0.02285198
-0.06661144 0.13168082 -0.062932916 -0.05188484 0.06381645 -0.09073761 0.014383643 0.021782149
0.156087 0.13692768 -0.02541466 -0.08788164 -0.031090332 0.05409813 -0.106386796 -0.06249388
-0.05541933 -0.0537491 -0.08448409 -0.053817313 -0.048636645 0.022310028 0.06613873 -0.15085144
0.05977354 -0.053327966 -0.03393541 -0.1872869 -0.1328955 -0.07261696 -0.039890934 0.1290477
-0.10294708 -0.0504811 0.011500119 -0.09886312 0.14537705 -0.11984875 -0.06751682 -0.054652467
0.064131685 0.11477368 0.051086694 0.14034732 -0.032643646 0.09322622 0.041200925 0.020257974
0.13108268 0.113196835 -0.06333241 0.030039987 0.10312529 0.10232127 0.06365297 -0.09905057
0.08827201 0.06200476 0.04908078 -0.0067328424 0.09076289 0.050172903 0.061092045 0.0012791363
0.043515228 0.012832282 -0.0006328075 0.002375428 0.14008476 0.019299736 0.004557873 0.0017715133
-0.07397973 -0.006769253 -0.10020628 0.02098436 0.032202005 0.07122189 0.051197283 -0.06350469
0.03418308 -0.048524234 0.004139552 -0.07343031 -0.20003358 0.19222085 -0.111766785 0.13966623
0.080768764 0.063131936 -0.005668002 -0.037038937 0.07077323 0.0014782732 -0.051299542 -0.052769635
-0.031782698 -0.13484743 -0.033421546 0.023401551 -0.032705415 -0.10596105 -0.038652577 -0.02729406
-0.06678184 -0.1425411 0.005529353 0.050075497 0.039323837 0.012290847 0.036484566 -0.047685202
0.0718425 -0.11972242 -0.09349917 -0.020876808 0.045714114 -0.12939705 0.063945554 -0.07888026
-0.03634114 0.057859663 -0.078860335 -0.16646689 -0.080392115 -0.15128087 -0.044393845 -0.09298127
-0.065670006 -0.2867114 -0.09866572 -0.19514777 -0.22557123 0.0061068446 -0.209721 -0.0023133485
-0.12570053 -0.107993186 -0.053794023 -0.14812034 -0.24322316 -0.1587687 -0.26636007 -0.17089354
-0.19087172 -0.043783236 -0.07485406 -0.2515371 -0.13474856 -0.13471362 -0.0037261362 -0.11442172
-0.13396983 -0.12869877 -0.09127891 -0.05853561 0.15373419 0.079005815 -0.05029327 -0.0065357806
0.010073805 -0.020044053 0.11643427 -0.051584404 0.1053242 0.21862811 0.040887047 0.08257165
0.15957288 0.034075167 0.11647871 -0.07071958 0.09683004 0.12068067 0.14310521 0.17898998
0.085991114 0.13711226 -0.16667554 0.10861034 0.08277528 0.1280306 0.10849064 0.13657323
0.113100685 0.19603486 0.1048302 0.23212944 0.16592321 0.1025756 0.16385186 0.074007526

conv1.1.weight f4 [32]
00000000: 6212 b33f f622 813f 52b0 5b3f 54be 953f
00000010: 44e6 973f 8879 813f e2b2 973f 5c24 af3f
00000020: a70b 983f 6338 a43f d0dd 8d3f 5a9a 6d3f
00000030: 247f 823f 4a11 8a3f 6a03 813f 26a3 483f
00000040: 7d02 8b3f ab54 ad3f 3e80 803f 058e 8e3f
00000050: 510e 813f 7632 7c3f ef6e 953f 1a70 6d3f
00000060: ca25 883f 9ea9 613f 7e57 6b3f fe23 653f
00000070: 7ba6 5f3f 4270 813f 69b0 7a3f 568b 833f
1.3989985 1.0088794 0.8581592 1.1698709 1.1867146 1.0115213 1.1851466 1.3682971
1.1878556 1.2829708 1.1083317 0.92813647 1.019505 1.0786526 1.0079167 0.78373945
1.0860134 1.3541464 1.0039136 1.1137091 1.0082494 0.985145 1.1674479 0.9274918
1.0636532 0.8814944 0.9193038 0.89508045 0.87363404 1.0112383 0.9792543 1.0276897

conv1.1.bias f4 [32]
00000000: dad3 b7be 901a 843d 5dc3 70be 63e0 5ebe
00000010: fa24 cc3d 81d5 b43d a6d9 afbd 65bf b4be
00000020: c033 b3be 134b aebd d5d7 ddbd bf19 44be
00000030: e773 29be 642c e6bb 2197 69be d1d1 c03d
00000040: 7f7f f9bb dffd 93be 5730 62be a1b5 22be
00000050: 66cc 1fbd 263a 7b3d 5c4d 33be d638 f6bd
00000060: 6cdc dc3d dcdd e7bc bff5 d5bd 0990 4ebe
00000070: e6e6 2a3c 234c 413d f233 3cbe 3af2 79bd
-0.35903817 0.06450379 -0.23512025 -0.21765284 0.0996799 0.08829785 -0.08586435 -0.35302272
-0.3500042 -0.08510413 -0.10832182 -0.19150446 -0.1654812 -0.0070243347 -0.22811557 0.09415019
-0.0076140757 -0.28904626 -0.22088753 -0.15889598 -0.03901329 0.06133475 -0.17509979 -0.12022559
0.1078423 -0.028304033 -0.10447263 -0.20172133 0.010431027 0.04719175 -0.1837919 -0.06102202

conv1.1.running_mean f4 [32]
00000000: cc0d 4aba 7a44 6a3c ec00 5f3c a9b1 313c
00000010: b06f 473c eeb5 8fba 8822 0bbc 4a33 673a
00000020: a831 b73b 1ecd 55bb 1e3c 343c 06c9 a03b
00000030: 80f9 4038 5270 1e3b 3c5e 743b b114 b7ba
00000040: 6c8b 7ebb 1109 ffbb ef1d 9d3b 1679 82bc
00000050: 0074 b9bb 3a9f dabb 64f7 7839 05ca 54bc
00000060: d832 553c 10ec 86bb 63f2 0d3b ecb6 903c
00000070: 939a f53b f2c8 e23b 79fe 04bb 5894 c03a
-0.00077077444 0.014298553 0.01361106 0.01084558 0.0121726245 -0.0010964253 -0.00849212 0.00088195933
0.0055906363 -0.003262348 0.011000661 0.0049067764 4.6008732e-05 0.0024175835 0.0037287613 -0.0013967959
-0.0038840426 -0.007783063 0.004794828 -0.015926879 -0.00565958 -0.0066718133 0.00023743283 -0.012987618
0.01301261 -0.0041174963 0.0021659366 0.017665349 0.0074952333 0.006920927 -0.002029328 0.0014692647

conv1.1.running_var f4 [32]
00000000: b4c6 7641 d5d9 c141 c395 b041 ac10 8d41
00000010: 1147 9441 1055 0f41 0dbe 3441 b58e 5441
00000020: 78e1 ca41 0d3f c241 110d 0941 c227 5e41
00000030: f18d fd40 ee0a b241 1202 1741 cdd6 ff40
00000040: 8a97 7441 01e4 0e41 50a5 3041 ad7a 5341
00000050: 442f 8d41 591f 5b41 6138 6541 07fd 6941
00000060: 6031 7f41 0f56 0041 483c 0641 95b2 2c41
00000070: 7dfd 8d41 adb5 8c41 b537 5d41 a518 2041
15.4235115 24.231363 22.073126 17.63314 18.5347 8.958267 11.296399 13.284841
25.360092 24.280787 8.56569 13.8847065 7.923577 22.255337 9.438005 7.994971
15.286997 8.930665 11.0403595 13.21745 17.648079 13.695153 14.326264 14.624274
15.949554 8.02101 8.389717 10.793599 17.748774 17.588709 13.8261 10.006017

depth_conv.0.weight f4 [64, 1, 16]
00000000: b90d c43e 19f8 9b3e 2269 103e fcf8 40be
00000010: d87f 94be 741c eb3e d469 043f 1e48 bc3d
00000020: bc9c eb3e 7395 0b3f 170a e93e ced9 c93d
00000030: 1e43 c3be e050 91bd 44dc 0bbf 3ebf 253d
00000040: 536b 52be 1c8c 053e 15aa 8ebe c21b 4abe
00000050: 4811 ecbd 0def 973e 4e8d a8be 262e babe
00000060: 8dd1 043e d285 be3d 430c aa3d ded7 6d3e
00000070: d9b0 e43e 7063 90bc 0cbb 9d3e cd58 0d3f
00000080: 26fd 43be 1c30 653d ba02 703d 66e5 3bbf
00000090: 313e 97be f4c3 c7be 291a 373e 95b5 2e3e
000000a0: 2833 c93d 5275 d9be 1a97 0ebf e324 823c
000000b0: 890a 173e b141 223d 5c7e e5bc 9ef8 ac3e
000000c0: 5625 313d 1698 13be 763c c43d a940 8dbe
000000d0: 5fed 0cbe 2c74 b8bd 41b1 80bf c6fd 133e
000000e0: 65a7 873f eb41 1e3f 7f79 073d ee51 9fbe
000000f0: 856b 14bd 117a 583e ad19 b4be f865 393d
00000100: 76a0 7cbe ed2f 183f f18b efbe e5e9 10be
00000110: 082a 593e e12d 3f3e d070 34be bf38 8f3e
00000120: 65e1 803d bd59 63be 2eff b43c 69ca e63e
00000130: 1794 21bf 2d9a d13e 2596 16bf acb2 ad3d
00000140: 60f9 53be 6440 2dbd c3c0 c8be 27af 0dbf
00000150: 968d aabe bc00 15bf 0f0f e83e 5c9e 12bf
00000160: b7f5 7fbd a1cb bf3e 75ad c03e 3fba 50be
00000170: 6613 893e 015e f33d f7f6 99bd c3f1 b43e
00000180: b7ba 19bf a03c 5bbe 4530 14bf 694e bbbd
00000190: d571 bd3e 32a8 89be 4a3a e73d 670a a93e
000001a0: 5674 3f3e 3cbd f33d 8e99 fdbd fcca a7bd
000001b0: 1cdd 893e 4399 b4be 20a4 a13d 0cea bb3e
000001c0: 2215 05bf 9c31 57be ee51 54be a36e bdbe
000001d0: 6af9 8abe b38b 96be 593f ce3c cbd2 1c3e
000001e0: 7f6a 9bbe 032c 9fbd f528 56be 6870 473e
000001f0: 82f6 43be 877c c63d 620b de3e 863d e93e
00000200: d8cc 05be fa95 13bf 45a6 0dbf 5493 c0be
00000210: c4a8 49be 1d1f c43b f5e3 a23e 4bae b4bd
00000220: 4b01 22bf 29cf 04be 7367 533d 4724 48be
00000230: d708 f3be 5ea3 f33e e86c 2e3f c392 c33e
00000240: bfb7 813e 8984 d43d 1312 b13e 3773 2d3e
00000250: eb1d 653e 42c9 e03e 298d 4d3e 422e f03d
00000260: d139 13be ec6a 083f 1f8b 92bd 197f edbe
00000270: 833e 08bf 1803 b2bd 4c9e ecbe cf81 b33e
00000280: 3161 0bbe beb7 d2bd 426d 9b3c b3d7 5b3f
00000290: 46e1 ffbd 115f 813e 9553 a4be 39f5 aa3e
000002a0: d09b bf3e 3a7c 033e 9fd9 78bd dac8 06be
000002b0: c807 a9be 43ed 45be 6468 0fbf 24a7 6d3e
000002c0: 36ea 06be b193 69bf b1d7 7f3d 3ab0 043e
000002d0: ef9b 033f f8d8 06bf 33c8 493f 87f5 183e
000002e0: bf18 6dbe fb7e 94be 7662 663e 0af2 a2bd
000002f0: d213 2e3d 7a31 cdbe a4d6 4c3f 43d2 59be
00000300: 9395 943e c1e7 06bf c687 d6bc 05d9 d43e
00000310: 79d0 2bbf 3769 8c3e ce95 dfbe 68c9 a7be
00000320: a98a f13e cb92 0b3e b7ca 043f d692 773e
00000330: b941 7c3e dcfb 943e 255b 13bf d2e5 733d
00000340: 3d4f b8bc 09f0 cfbe c023 063e b533 6a3e
00000350: bcf0 e83e b539 853d 1396 e13d a2ed bc3e
00000360: 967b c6bd e62a 83bc 2b24 de3d 4a45 f0bd
00000370: 28db 20bf 1f15 b9be e9f4 09be 62d5 3e3f
00000380: d42e 2cbe 43f2 c2bd cc0e 4d3e 4db1 18be
00000390: eb1c 193f 4bbf 6a3e 52b8 fdbd 5903 143e
000003a0: d8ab 9cbd f65a 3cbe 7b7a 0dbe c2aa 2dbe
000003b0: 0fdd 46be 2fda 183e 6815 473f a96f 553f
000003c0: 5688 853d d131 5cbf 6a96 2f3f 5f26 f7be
000003d0: 8a64 6d3e 17ea be3c 0a7e aabd 2fb2 153e
000003e0: af32 223d 1e52 2a3e a4e8 863e 6fc2 67be
000003f0: 14a0 003e bb5d 1f3b f92c 08bd e6a5 143f
0.3829172 0.3046272 0.14102605 -0.1884498 -0.29003787 0.45920146 0.5172398 0.09193443
0.46018016 0.54524916 0.4551551 0.09855996 -0.38137144 -0.07095504 -0.54632974 0.040465586
-0.20548753 0.13041729 -0.27864137 -0.19737151 -0.11526734 0.2967457 -0.32920307 -0.36363333
0.12970562 0.09302868 0.0830312 0.23226878 0.44666174 -0.01762554 0.30806768 0.55213624
-0.19139537 0.055954084 0.05859635 -0.7339691 -0.29539636 -0.39016688 0.17881073 0.17061456
0.098242104 -0.4247232 -0.5569931 0.01588673 0.14750113 0.03961343 -0.028014354 0.3378343
0.043248497 -0.14413485 0.095818445 -0.27588394 -0.13762425 -0.09006533 -1.0054094 0.14452276
1.059796 0.6181933 0.033074852 -0.31117195 -0.03623535 0.21140315 -0.3517584 0.04526326
-0.24670586 0.5944813 -0.46786454 -0.14151724 0.2120744 0.18669845 -0.1762116 0.2797298
0.062929906 -0.22202201 0.022094335 0.45076302 -0.6311659 0.4093794 -0.5882285 0.084813446
-0.20700598 -0.042297736 -0.39209566 -0.55345386 -0.33311146 -0.58204246 0.4532399 -0.5727289
-0.06249019 0.37460044 0.37632337 -0.20383547 0.26772612 0.11883164 -0.07517808 0.353407
-0.6005053 -0.21409845 -0.57886153 -0.09145815 0.3700091 -0.26886135 0.11290415 0.3301575
0.18696722 0.11901328 -0.12382804 -0.08193013 0.26926506 -0.3527318 0.078926325 0.36702
-0.5198537 -0.21015018 -0.20734379 -0.36998472 -0.27143413 -0.29403457 0.02517669 0.15314786
-0.30354688 -0.077720664 -0.20914061 0.19476473 -0.19137004 0.096917205 0.4336806 0.4555475
-0.13066423 -0.5765072 -0.5533183 -0.37612402 -0.19693285 0.0059851543 0.31814542 -0.08822306
-0.6328322 -0.1296965 0.05161233 -0.19545089 -0.47467682 0.47585577 0.6813493 0.38197908
0.253355 0.103768416 0.34584102 0.16938482 0.22374694 0.43903548 0.2007338 0.11727573
-0.14377524 0.5328815 -0.071554415 -0.4638603 -0.53220385 -0.08691996 -0.4621452 0.35059974
-0.13611294 -0.10288952 0.018972997 0.85876006 -0.124941394 0.25267842 -0.32095018 0.33390215
0.37423563 0.12840357 -0.060754415 -0.13162556 -0.3301375 -0.1932879 -0.5601866 0.2320829
-0.13175282 -0.91240984 0.06246156 0.1295785 0.5140981 -0.5267482 0.78821105 0.14937411
-0.23153971 -0.29003128 0.22498497 -0.079563215 0.04249937 -0.4007681 0.80015016 -0.21271615
0.29020366 -0.5269738 -0.026187789 0.41571823 -0.6711498 0.27424023 -0.4366898 -0.32770848
0.47176102 0.13630216 0.5187182 0.24177107 0.24634446 0.29098403 -0.5756095 0.059545346
-0.022498721 -0.4061282 0.13099575 0.22871287 0.45496166 0.06505147 0.110149525 0.3690005
-0.09691541 -0.016011667 0.10846742 -0.11731966 -0.62834406 -0.36148927 -0.13472332 0.74544346
-0.16814739 -0.09518864 0.20025176 -0.14911385 0.5980975 0.22924535 -0.12388672 0.14454402
-0.07649964 -0.18394074 -0.13816254 -0.1695967 -0.19420265 0.1492698 0.7776704 0.83373505
0.06520145 -0.86013514 0.6858889 -0.48271462 0.23182884 0.023304982 -0.08324821 0.14618753
0.039599117 0.16632888 0.26349366 -0.22632764 0.12561065 0.0024317342 -0.033246014 0.5806564

depth_conv.1.weight f4 [64]
00000000: fd04 8b3f 75b5 903f d33c 7f3f 29e7 543f
00000010: 7e0b 873f 3c15 a63f b37b 613f 109f 8c3f
00000020: 3a9d 7f3f 7571 843f dd30 763f 37a1 713f
00000030: b28f 893f 399d 973f ce7a 873f ed17 8d3f
00000040: 3f95 823f 278d 723f f3ff 853f 17b4 8b3f
00000050: 936f 723f f5a1 8b3f 49c8 6b3f 2bad 583f
00000060: 8d5f c63f 9842 c83f 1c15 7f3f 7fc7 7e3f
00000070: c872 913f dc16 863f 925c 843f 0026 5e3f
00000080: 61e0 873f b9ca 893f 7036 ab3f bdc3 953f
00000090: 2f60 8c3f 2848 893f b138 843f 5e05 653f
000000a0: 7164 713f 8dc5 843f 74fd 7e3f 0f58 663f
000000b0: 9210 8e3f 7f62 843f 6236 833f fd2f 603f
000000c0: ca66 6c3f 804d 783f 7edb 9d3f 5bb1 9b3f
000000d0: b2e2 b93f e9e4 9b3f 560c 753f d550 993f
000000e0: e95f 923f 2e61 9d3f cff8 863f ff52 693f
000000f0: 679f 873f d8fb 913f efe1 723f 0184 823f
1.0860897 1.1305376 0.99702185 0.8316522 1.0550382 1.297523 0.88079375 1.0986042
0.99849284 1.0347124 0.9616831 0.9438662 1.0746977 1.1844856 1.0584352 1.1022927
1.0201796 0.9474663 1.0468735 1.0914334 0.947015 1.09088 0.92102486 0.84639233
1.549791 1.5645323 0.99641585 0.99523157 1.1363153 1.0475726 1.034075 0.86776733
1.061535 1.0764991 1.3375988 1.170036 1.0966853 1.0725145 1.0329801 0.89461315
0.94293886 1.0372788 0.9960549 0.89978117 1.1098807 1.0342559 1.0250971 0.87573224
0.92344344 0.96993256 1.2332609 1.21635 1.4522307 1.2179233 0.9572195 1.1977793
1.143552 1.2295282 1.054468 0.91142267 1.0595521 1.1404982 0.94876 1.0196534

depth_conv.1.bias f4 [64]
00000000: c035 9c3d 2237 23be 2042 5ebe e026 f8bd
00000010: 41f3 9ebd 68fc bc3d af33 85bb 4181 323d
00000020: 3526 d1bd d8df e2bd f6c4 cf3c 287b 1a3e
00000030: 1c96 58be e9f1 13be 9c44 5ebe d51b c5bd
00000040: 8ce7 b1be e64f 1cbe fc16 f03d 6a85 1fbe
00000050: 79ff e6bd 5d5e 4a3e 11e2 f23d 5605 57be
00000060: bf49 a4be a820 b8be f3ca 1cbe a3b0 cb3c
00000070: 54a9 47be 8a36 463e 91a2 cd3d e16e 0abe
00000080: daf5 03be a8db 5abe 00e9 97be 7a36 afbe
00000090: a197 cdbc c7c8 b6bd 3b02 6a3c a34c 18be
000000a0: df1f 27bc 756c 82be 3a0a 19be 9f23 3abe
000000b0: 7711 cabd 48ca 9c3d c1b7 e3bb 2878 cbbd
000000c0: a54f 81be e2d6 723b 384e 1bbe 108f bdbd
000000d0: 5412 d6be 3aef 9bbe 7f80 c33d b764 db3c
000000e0: 8db6 9bbe c4c6 8a39 741a 53bc 861a f1bd
000000f0: 8450 bcbd c6ee 66be 75c0 163d 04ae 663d
0.076274395 -0.15939 -0.21704912 -0.1211679 -0.07761241 0.0922783 -0.004064999 0.043580297
-0.102123655 -0.11077851 0.025362473 0.15086043 -0.21151012 -0.1444775 -0.2170586 -0.09624449
-0.3474697 -0.15264854 0.11723134 -0.15578237 -0.11279196 0.19762559 0.11859525 -0.20998129
-0.32087514 -0.35962415 -0.15311794 0.0248645 -0.19498187 0.19356743 0.10040773 -0.1351886
-0.12886754 -0.21372855 -0.29669952 -0.3422125 -0.025096716 -0.08925014 0.014282758 -0.14872985
-0.01020047 -0.2547337 -0.14945307 -0.18177651 -0.098666124 0.076557696 -0.0069493954 -0.09935027
-0.25256076 0.003705435 -0.15166557 -0.09255803 -0.41810858 -0.30455953 0.09545993 0.026781423
-0.30412713 0.00026469503 -0.012884725 -0.11772637 -0.09195045 -0.22552022 0.036804635 0.056318298

depth_conv.1.running_mean f4 [64]
00000000: 20bb 04be 1a52 30bd 4886 97be d38d b1bc
00000010: 0aa7 d93b aff8 ae3d 2052 833b 6470 813b
00000020: 1171 b9be 2fa8 7f3e f696 4e3d 7206 dbbb
00000030: f044 3b3d f6cc 533d 938a 27bd eeb9 79bc
00000040: 9851 2cbe ff37 3c3d 1777 4b3e aa10 51be
00000050: cf78 bcbd f261 e43c 7f2b c7bb 0ebe 32bd
00000060: 8a0f 353c 60a6 8cba ad72 2abe bd5a 1a3e
00000070: 9c87 03bc a96c 3c3b 8ebd 5bbe 63a5 54bc
00000080: 6377 ed3d 89cc c73d 2d02 903c e667 c53c
00000090: 7cd7 aabc 1001 f8bc 1e01 2ebd 3381 043e
000000a0: 3034 e4bb 3618 d93c 6117 2bbe 7476 3abe
000000b0: 0532 2bbd 1098 6a3d 51f6 b83b b02a 8cbb
000000c0: 9985 ca3c 6964 e3be 2e3b ea3c d3fd c9bc
000000d0: 7e86 e6b9 0787 34bc 930c 29bd c630 343c
000000e0: 7bdc fe3b 6167 83bd 8e55 3abe 1c59 1cbe
000000f0: 68ff 7cba dc26 d33a 9cf6 17be 49a7 d83c
-0.12962008 -0.04304705 -0.29594636 -0.021674072 0.006642227 0.085435264 0.004007593 0.0039501656
-0.36219075 0.249665 0.050436936 -0.006684118 0.04572004 0.051709138 -0.04090364 -0.015242083
-0.16828 0.04595184 0.19869648 -0.20416513 -0.0920273 0.027878735 -0.006078183 -0.04363828
0.011051068 -0.0010730736 -0.16645308 0.15073676 -0.008027937 0.002875129 -0.21459028 -0.012978884
0.11595037 0.09755809 0.017579162 0.024097394 -0.020854704 -0.030273944 -0.042481534 0.1293991
-0.006964229 0.026500802 -0.16708137 -0.18209249 -0.04179575 0.057273924 0.0056445976 -0.0042775497
0.024721907 -0.44412544 0.028592672 -0.024657166 -0.00043969223 -0.011018521 -0.041271757 0.010997957
0.007777748 -0.06416202 -0.18196699 -0.15268368 -0.00096510956 0.0016109603 -0.14840168 0.026446955

depth_conv.1.running_var f4 [64]
00000000: 451a c940 be57 7340 5b86 2340 449c 0d40
00000010: 70a3 733f e34e 0d40 08f9 0b40 371f 7340
00000020: 485c cb40 f886 8740 c44b 1640 02bf 2a40
00000030: 7860 4040 832c 3040 0657 4d40 4254 1440
00000040: 8615 7a40 e0cd f23f a1fa a840 b38d ad40
00000050: 5783 6b40 1da4 d73f d0a8 7d3f f0f6 db3f
00000060: 4b92 2840 e612 3940 b376 1f40 190a 1640
00000070: 8b5a c13f 1a89 c73f 25bc c83f a8f9 723f
00000080: a8b4 f23f 4c12 2640 1297 3140 0e1d 1640
00000090: d41f 8c3f 1a53 4540 1d30 3040 4ddc 7640
000000a0: 4ad3 b33f 89a8 ab3f f834 cd3f b6df f03f
000000b0: d2bc 3640 31ad 0940 812f af3f e961 1540
000000c0: ec27 8540 dd56 8740 87c7 dd3f 8b67 b93f
000000d0: 51f5 2740 a572 eb3f 9e4c 0640 3344 a93f
000000e0: 35e0 a63f b38c db3f be30 cf3f 95d3 4640
000000f0: 3e03 1940 ec39 d63f bd81 3640 2ef0 2d40
6.2844567 3.8022304 2.5550754 2.2126627 0.9517126 2.2079399 2.1870747 3.7987802
6.355015 4.2352257 2.3483744 2.6679082 3.005888 2.7527168 3.2084365 2.3176427
3.9075637 1.8969078 5.2805943 5.4235473 3.6798913 1.6846958 0.9908571 1.7184734
2.633929 2.8917785 2.4916198 2.3443663 1.5105757 1.5588715 1.5682417 0.94912195
1.8961382 2.5948668 2.7748456 2.3455234 1.0947213 3.083197 2.7529366 3.857196
1.4048855 1.3410808 1.603179 1.8818271 2.8552747 2.1511958 1.3686372 2.334101
4.1611233 4.2293534 1.7326516 1.4484724 2.624348 1.8394362 2.0984263 1.3223938
1.3037173 1.7152313 1.618675 3.106664 2.390823 1.6736426 2.8516686 2.7177844

point_conv1.0.weight f4 [128, 64, 8]
00000000: 7954 17bc fd71 b53c 6afe b9bc 1492 efbd
00000010: 6252 65bd eb1c 7dbe b320 39be 255b 0abe
00000020: c605 81bd 73fa 00be 3862 10be 1b71 1bbe
00000030: 8ab7 81be 8da4 9fbc 83df 5abd b779 b6bb
00000040: 9d23 f1bd 09a4 963c f765 10bd 18bb 513e
00000050: 95e8 9a3d da0e 24bd a693 f23c f9cf 003e
00000060: 73a1 c33c 4308 c4bd bfaf 03be 50e9 38be
00000070: 309f bbbd a918 763d dc6b f3bb cfda 1b3c
00000080: 389a 323e c1f0 c43d bdbd 883e fac5 7a3d
00000090: d474 f6bd 8e22 5bbe d347 69be e549 5ebd
000000a0: 4387 b03d 3d4d 3a3e b237 c4bc 8412 703e
000000b0: 0d57 dbbd 23cd 86bd c525 22bb 40fa 97bd
000000c0: 08a4 b6bd ac83 903d 9248 ddbc 79ec b63d
000000d0: 2e93 c5bd 9fe4 0cbd 79d0 d4bd d8c9 8ebd
000000e0: 2607 c53d ec68 003e cc14 a0bc 723f 5cbd
000000f0: 642a f7bd 6493 8c3d c325 11be 8280 97bd
00000100: 0048 6a3d f803 d63c fa4a ee3d f873 443d
00000110: c748 51bc 54f7 a8bd d677 cbbd 0bf7 46be
00000120: 0903 01be d494 30be f3bb 453d 32a5 8bbd
00000130: 3456 93bd b624 d63d 1e56 05bd ee01 82bc
00000140: f84b 1dbd 4127 86bd 504f cfbd 49fc 78bd
00000150: e893 cf3d 75ac 1a3d fb41 efbd 6000 0fbe
00000160: f905 ce3d cca6 b8bd cda1 073d ba3e 8abd
00000170: 8c97 a5be 58f3 fb3d d435 c0bc 6cef d1bb
00000180: 8eb8 0a3e 6e95 9a3d 71e1 983d b662 98bd
00000190: 1749 61bd 5468 973c cff8 e9bd b499 b3bc
000001a0: ba98 2ebd cabc 913c 2402 223d 177f 603d
000001b0: d711 0bbd a971 bcbd 2821 633d 76a8 a4bd
000001c0: 2504 b73c ec09 ea3c 9b71 0dbd f3a6 433d
000001d0: e7d5 023e 81ee 1ebd 822d 11be aa42 b5bd
000001e0: a7fe 053e 3419 b33c 321c 9cbd 75ce 0bbe
000001f0: bdfa 48bd abac 153e 1b96 ffbc 928f dbbd
00000200: 9400 0cbe e7cf 5bbd 3402 c9bd 3dcc d8bc
00000210: da64 10bd 7765 3abd ac74 9c3d 227b acbd
00000220: 9207 c1bc 80e9 483b f102 efbc d1e6 98bd
00000230: 3975 da3c ea4c 3bbd d608 093d f647 c63b
00000240: 0fbf b1bd c3c4 013d c44e 95bc 07b6 8ebd
00000250: 3a9b 4ebe 41f5 53be bcb4 abbc 7f49 7dbe
00000260: faa0 6f3c 5638 a33d 5e36 053d 23f2 92bd
00000270: 0e12 f0bd 028e dfbc 5958 453d 4381 8d3d
00000280: d6bd 22be 5640 81bd 6627 1fbe 2952 c7bc
00000290: 41c3 02be 706b bbbb 3f78 08bc 21e7 1d3e
000002a0: c898 80bd ae28 17be 4ef5 3c3d a0fa 1abd
000002b0: cda3 bdbd 0a84 14be 4b4b ab3d c65b eb3c
000002c0: e781 9fbd f5b3 c63c 632f 2b3e 824f 26bc
000002d0: 94b0 a0ba 8eb5 1e3e 5b4c 77bc a75a 47ba
000002e0: f8e7 5ebd 5414 943a 346c 61bd 50ac 20be
000002f0: 0f82 9fbd faeb bb3d 3921 1d3e 55b2 1f3d
00000300: caa4 5b3e a488 6bbd c07d 693d 0ee7 343e
00000310: 7943 313d 8e3e 42bd 64b9 463c bae1 223d
00000320: 806f 3bbd a1af 813b 4b78 d0bd e245 67bd
00000330: 85c5 42be 2bf9 4cbd c0ee c43d b0a8 983c
00000340: 6bca 8e3d 777f 8ebd d408 273d 5be1 2e3d
00000350: a857 84bd 8966 48bd 04cb c4bd e80d 86bc
00000360: 5bff da3c f2e4 ab3d 85d5 afbd d3a9 74bd
00000370: a463 0cbd 9c43 14bd 44cc 96bd 97f4 b8bc
00000380: 6985 1ebd 23ca 163d 18a2 d63d d687 97bd
00000390: 3d58 73bd dd4d 1a3d 5505 a53c 258a 8c3d
000003a0: 56fb 80ba f6e0 493e 550c 9cbd 4a68 88bd
000003b0: 11b5 a4bd 42ae 2cbe b248 973d b027 943d
000003c0: 7291 443c aa8f c73d cd1d db3d a851 b9bd
000003d0: 2d68 c0bd 146b f5bc c8ab eabc aa34 ffbc
000003e0: 0d43 e23d 5bc8 1ebd 7b91 623d 6236 a33d
000003f0: 56bd b53d 90a4 93bc 56c9 64bd d322 d7bd
-0.009236448 0.02214908 -0.022704322 -0.11697784 -0.05598677 -0.24718063 -0.1807888 -0.13511331
-0.06299929 -0.12595539 -0.14099967 -0.15179865 -0.25335342 -0.019487644 -0.053435814 -0.0055687088
-0.11774371 0.018388765 -0.03525349 0.20481527 0.07563893 -0.040053226 0.02961142 0.12579335
0.023880696 -0.09571888 -0.1286001 -0.18057752 -0.09161222 0.06008211 -0.0074286293 0.009512617
0.17441642 0.09616233 0.2670726 0.06122396 -0.12034002 -0.213999 -0.22781305 -0.05426969
0.08619549 0.18193527 -0.023952339 0.23444563 -0.10709963 -0.065820955 -0.002474175 -0.07420778
-0.08918005 0.070563644 -0.027012143 0.08931822 -0.09647213 -0.034397718 -0.103913255 -0.069720924
0.09620504 0.12540025 -0.019541167 -0.053771444 -0.12068632 0.0686405 -0.14174561 -0.07397558
0.05719757 0.02612494 0.116353944 0.04796216 -0.012773699 -0.08250299 -0.09934966 -0.19430177
-0.12598814 -0.17244273 0.048274945 -0.06818618 -0.07194176 0.10456221 -0.03255283 -0.01587006
-0.038402528 -0.06550456 -0.101225495 -0.060787473 0.10135633 0.037762124 -0.11682507 -0.13964987
0.10059733 -0.09016189 0.03311329 -0.067502454 -0.32342184 0.123022735 -0.023463167 -0.006406715
0.13546965 0.07548033 0.074648745 -0.074407026 -0.055001345 0.018482365 -0.114244096 -0.021923877
-0.04262612 0.017790217 0.039552823 0.054808702 -0.03395256 -0.092013665 0.055451542 -0.08039944
0.022340843 0.028569184 -0.03453217 0.047766637 0.1277691 -0.038801674 -0.14177516 -0.08850606
0.13085423 0.021862604 -0.07622565 -0.13652976 -0.049067248 0.14616649 -0.031199506 -0.10720743
-0.13672096 -0.053665068 -0.09814873 -0.026464576 -0.03525243 -0.04550692 0.07639441 -0.08421923
-0.02356318 0.0030656755 -0.029176207 -0.074659 0.026667224 -0.045727648 0.033455692 0.006051059
-0.0867902 0.031681787 -0.018226035 -0.06968313 -0.20176402 -0.20699026 -0.020960204 -0.24735068
0.014625782 0.079697296 0.03252255 -0.0717509 -0.11722194 -0.027289394 0.048179958 0.0690942
-0.15892729 -0.06311099 -0.15542373 -0.02433117 -0.12769796 -0.0057195947 -0.00832945 0.154202
-0.06279141 -0.14761612 0.04613238 -0.03783667 -0.09259758 -0.14503494 0.0836397 0.028730284
-0.07788449 0.024255732 0.16717295 -0.010150792 -0.0012259656 0.15498945 -0.015093888 -0.0007604756
-0.05442044 0.0011297562 -0.05503483 -0.15690732 -0.077884786 0.09175868 0.15344705 0.03898843
0.21449581 -0.057503358 0.05700469 0.17666265 0.043277238 -0.047422938 0.0121291615 0.03976605
-0.04576063 0.003957704 -0.10179194 -0.05646313 -0.1902066 -0.050042313 0.096158504 0.018635124
0.06972202 -0.06957906 0.040779904 0.042695384 -0.064620316 -0.04892591 -0.09609035 -0.016364053
0.026733091 0.08393277 -0.085856475 -0.05973227 -0.034274712 -0.03619729 -0.07363179 -0.022577567
-0.03870145 0.036813866 0.10480136 -0.073989555 -0.059410322 0.037671912 0.020144144 0.068622865
-0.0009840529 0.19714722 -0.0761954 -0.066605166 -0.08042348 -0.16863349 0.073869124 0.07234132
0.0119975675 0.097441986 0.106990434 -0.09048778 -0.0939487 -0.029958285 -0.028646365 -0.031153042
0.11047945 -0.038765293 0.055314522 0.07969357 0.088740036 -0.018022805 -0.05585607 -0.10504689

point_conv1.1.weight f4 [128]
00000000: 7686 413f 6867 953f 3082 803f a78a 2d3f
00000010: 58a6 7d3f 3dea 5d3f ad81 323f 148f 443f
00000020: 3ba0 593f 6276 513f 3755 243f df09 6c3f
00000030: 547c 533f 359c 6c3f c432 433f af11 6f3f
00000040: 3760 643f 1c0f 593f 0499 473f 5e7b 5f3f
00000050: a5a9 653f 2e0b 353f 5b79 433f add9 453f
00000060: 7f58 473f 68e0 5a3f f840 513f c76f 553f
00000070: 9c22 4d3f 828e 3e3f fff5 4b3f 33f6 443f
00000080: 5445 5c3f 2936 503f 13f8 4b3f 6cef 4f3f
00000090: 70c4 583f 7494 4a3f 71d2 4f3f d6d4 2c3f
000000a0: 416a 543f 184b 393f 8b1b 4e3f 2659 663f
000000b0: 77e0 603f b43e 3d3f d62b 333f 415b 3e3f
000000c0: 6991 503f 352a 473f a15d 5e3f aa0d 463f
000000d0: 09fe 523f 0b8f 533f dac0 523f cf00 713f
000000e0: 8fb8 4e3f fe87 6b3f f450 373f a287 4d3f
000000f0: 51de 4e3f 38e2 353f f573 3d3f 1653 543f
00000100: ed0c 5c3f 5f63 633f d1f0 553f b0ef 593f
00000110: 4d69 4f3f 5ed6 493f 8002 5d3f 5fcf 483f
00000120: 63bc 743f 2197 653f a5e8 563f e2c6 713f
00000130: e4cf 753f bb75 373f 5583 6a3f 1953 5d3f
00000140: 1ea5 533f 8488 3e3f 3ce6 5e3f 2c30 603f
00000150: bd9b 3c3f a7ef 5c3f 906e 4f3f 6504 543f
00000160: 5527 3d3f e688 553f d586 363f 1a25 5f3f
00000170: 24a2 823f 0102 693f 6736 5e3f 8eb8 543f
00000180: a1f8 6e3f bf82 523f 2334 573f aea2 5f3f
00000190: 1133 553f 6619 443f a676 7f3f a168 793f
000001a0: 7d96 423f a220 4e3f dc7c 683f cc0b 503f
000001b0: 00af 763f bdf2 4d3f 5406 423f 6c6e 7a3f
000001c0: 3513 4e3f 285a 4b3f c9bc 393f a084 4c3f
000001d0: 8af7 473f fd22 6f3f f08d 833f ceab 513f
000001e0: dead 493f 6514 533f ec21 483f cebd 413f
000001f0: 9575 563f b32e 573f 6d7e 453f 4ed7 5b3f
0.75595796 1.1672182 1.003973 0.6778969 0.99081945 0.86685544 0.6972912 0.7678082
0.8501012 0.8182126 0.6419253 0.9220256 0.82611585 0.92425853 0.7624934 0.9338636
0.8920931 0.8478868 0.7796786 0.8729762 0.8971198 0.70720184 0.7635705 0.7728527
0.7786941 0.85498667 0.8173976 0.83373684 0.80130935 0.744362 0.79672235 0.7693817
0.86043286 0.8133264 0.79675406 0.81224704 0.8467474 0.7913277 0.81180483 0.6751226
0.8297463 0.7238021 0.8051078 0.8997978 0.87842506 0.739238 0.69988763 0.7435799
0.8147188 0.7779878 0.86861616 0.773646 0.82418877 0.8264014 0.8232552 0.9414186
0.80750364 0.9200438 0.716079 0.80285084 0.8080798 0.7104831 0.7400506 0.8293928
0.85957223 0.88823503 0.8357058 0.8513136 0.8102005 0.78842723 0.8633194 0.78441423
0.95599955 0.8968373 0.8394874 0.94444096 0.9602034 0.7166402 0.91606647 0.8645492
0.82673824 0.74427056 0.8707006 0.87573504 0.7367514 0.8630318 0.8102808 0.82819206
0.7388814 0.83412015 0.7129949 0.8716599 1.0205731 0.9101868 0.8680176 0.8309411
0.9334813 0.8223075 0.8406393 0.87357605 0.83281046 0.76601255 0.9979042 0.97425276
0.76010877 0.80518544 0.9081552 0.81268 0.9636078 0.80448514 0.75790906 0.9782474
0.8049806 0.7943444 0.7255369 0.7988987 0.7811209 0.9341276 1.0277691 0.8190278
0.78780925 0.82452995 0.7817676 0.75680244 0.83773166 0.8405563 0.77146035 0.85875404

point_conv1.1.bias f4 [128]
00000000: 661c 47be 44af b5bc 3a33 21bd 748b 38be
00000010: 530d 08bc dffa 423c df63 79bd 6d0c 3bbe
00000020: 1e41 79bd dec4 12be 2860 5bbe 1821 f23c
00000030: d808 48bd dc21 a5bc b54a 25be e466 993d
00000040: 0f05 923d 6c99 67bd 5315 37be 7385 0abe
00000050: d7b2 72bc 88d4 24be 0b3c 66bd 9380 16bc
00000060: 1338 4ebd d8c3 ecbc b913 23be 2f93 9ebc
00000070: 537c 56bd 64a0 ebbd df57 00bd 9c6e c4bd
00000080: 26ec 073c 7e58 10bd 528b ba3d e898 02bd
00000090: fccc a5bd c513 98bd 5cde d9bd f5cd bfbd
000000a0: d084 f0bd c964 24be d77d ebbc 7a03 2e3c
000000b0: d72a 863b 0ef0 7fbd 064f d2bd 4717 d4bc
000000c0: 7213 43be 9ad6 01be 7fe9 563d 7c10 bbba
000000d0: 031a 85bd 4c42 a1bc ddbb 8fbd 84e4 3e3d
000000e0: bf13 b63d 1a0c a4bd 0e4c 16bd b9ba 54bd
000000f0: b4ce f7bd 7201 21be 2095 823a 599d ccbd
00000100: 5d64 f3bd 4a03 443a b9b0 9fbd b10c 1cbd
00000110: c61c aabd 4b7f 593c 7278 313c 78f1 1bbc
00000120: 54e2 d7bd ebb1 68bd fa8b 0a3c dccc 763c
00000130: bae8 8fbd 2ff4 3cbd 3f1a 9cbb fc26 873d
00000140: 2be5 bbbc 1433 80bd 944e 04be cfe6 f4bc
00000150: caee 39be fec4 253a 4851 83bd b4f1 12be
00000160: 338c 22be 0f0f 26be dfa6 86bd 9669 853c
00000170: dafe ae39 4da6 0bba f87d 683d 4c62 74bd
00000180: cfa1 4d3d fd61 193d 3b32 82bd 4057 8cbc
00000190: 0976 0dbe 11b8 0cbe 6df7 963d f8e4 533b
000001a0: 5756 953d c5f2 dfbd 38e3 c4bb d460 56bd
000001b0: 2582 dc3b e5f9 833d 279e 3cbd 9238 53bc
000001c0: be32 313d 0dc5 a8bd 31b9 2bbe ec86 bbbc
000001d0: 9d26 1abe c6f3 b73c 0f95 963c 0ae0 92bd
000001e0: a6cd cabc fbaf 9f3d be07 8e3c 0225 01be
000001f0: 80fb 2fbe e67e c73c dd3d 15be f9e8 a2bd
-0.19444427 -0.0221783 -0.039355494 -0.18021947 -0.008303958 0.011900633 -0.06088626 -0.18266459
-0.060853116 -0.14332911 -0.214234 0.029556796 -0.04883656 -0.020157747 -0.1614178 0.07490328
0.07129871 -0.0565428 -0.17879228 -0.1352747 -0.014813147 -0.16096699 -0.056209605 -0.009185928
-0.050346445 -0.02890198 -0.15925492 -0.019357292 -0.05236466 -0.115052015 -0.0313338 -0.095914096
0.008296048 -0.035240643 0.091086045 -0.031884104 -0.08095738 -0.07425646 -0.10638115 -0.09365455
-0.11744082 -0.16054071 -0.028746529 0.010620946 0.0040944624 -0.062484793 -0.10268979 -0.025890006
-0.19050387 -0.1267952 0.052468773 -0.001427188 -0.06499102 -0.019684933 -0.07018254 0.04660465
0.08890485 -0.08010121 -0.036693625 -0.051935885 -0.12099972 -0.15723208 0.0009962656 -0.09990949
-0.11884377 0.0007477297 -0.07797379 -0.03809804 -0.08306269 0.013274978 0.010831939 -0.00951802
-0.105412155 -0.0568103 0.008456225 0.015063491 -0.07026811 -0.04613131 -0.004763871 0.065992326
-0.022936424 -0.062597424 -0.129206 -0.029895214 -0.18157497 0.00063236046 -0.064119875 -0.14350015
-0.15873794 -0.16216682 -0.06574797 0.016285699 0.00033377745 -0.000532721 0.05676076 -0.059664056
0.05020314 0.037446965 -0.06357237 -0.017131448 -0.13814558 -0.13742091 0.073714115 0.003233252
0.07291859 -0.109349765 -0.006008532 -0.052338436 0.0067293816 0.06444148 -0.046049263 -0.012891905
0.043261282 -0.082407095 -0.16769864 -0.022891484 -0.15053792 0.022455107 0.018381624 -0.07171638
-0.024756264 0.077972375 0.017337676 -0.12611774 -0.17185783 0.024352502 -0.1457438 -0.07954592

point_conv1.1.running_mean f4 [128]
00000000: e50b 39bf ce48 bbbe 4301 98be 762b eb3e
00000010: c398 29bf f039 01bf dde0 b6be 903d 76be
00000020: 18a4 55be b446 0fbf 61c7 12bd 01f2 b1be
00000030: d2af 7abf 5740 db3d 7e9b 0ebe 4c5b 12bf
00000040: f5a5 62bf 29d7 2dbf 0364 58be b396 9cbe
00000050: 2446 0bbf 5c45 b2bd 74f0 2ebf 5c40 c5bd
00000060: 62af 9d3e 12f8 0cbf 7724 05bd 18dc 49be
00000070: 844e 8dbe b0ad 31be 68d4 8d3b 5ca4 2d3e
00000080: a06e 44bf 7aab 81be b7ad e1be 11ec 2fbe
00000090: 5847 ad3d 5d1b 7fbe 3405 bdbe 0fc5 1dbf
000000a0: 4eda 37bf db87 2bbf e842 19bf f240 dfbd
000000b0: 352c 583d a60d 563e 8499 393f 1bdc ee3d
000000c0: 7bd4 07bf 58ff fcbe 6542 5abf 5a3d 893a
000000d0: b92f 13bf b882 4ebf 7aa3 76be 5d0d 78bf
000000e0: 4170 cabe 2e26 64be 9cd0 0fbf 8fbd a1be
000000f0: 64e9 64be 5615 4abf e63e 83bd a7ac fdbe
00000100: 91c5 113f 14a9 ddbe 0ac1 e5bd 915f f6be
00000110: a86f c2bc 11eb 61bd 60f5 56be a28c 35be
00000120: cd8a 8fbf a33c 4ebe 1635 49be 932c 7b3e
00000130: 4ebf b6bf 4eda 78be 3371 aabe c75a f3be
00000140: c0e8 79be 9a65 d03d a156 adbf a286 3cbf
00000150: 4463 95be c968 cabe 2a41 04be dcb4 73bf
00000160: 86f2 28bf a21c 56bf 9f94 64be bedd 0bbe
00000170: f479 b7be f26b 98bf 61d2 0ebe 5692 c33d
00000180: 192f 1dbf 17db efbe 8f4a 8bbe 3e35 743e
00000190: d8b4 dd3d 1aa4 39bf 8e9a 32bf 0506 f3be
000001a0: 531e 96be c5d1 12bf 60a7 90bf 293f 45bf
000001b0: acdb 10bf 2613 cabe cf3a 1ebf e62e f73e
000001c0: c923 03bf ee38 cdbe e418 e8be 7635 d5bd
000001d0: 585b 47bf 5057 16bf 2c7c 1d3e ea95 81be
000001e0: 3c48 373e b7a6 c23c 776e 543e 9399 68bd
000001f0: 969f 95bf 2cb5 a13e 7fcb fdbe acd8 30bf
-0.72283775 -0.36578983 -0.29688463 0.45931596 -0.6624872 -0.5047903 -0.35718432 -0.24046922
-0.20863378 -0.5596726 -0.035834674 -0.34754947 -0.9792453 0.10705631 -0.13926503 -0.5717056
-0.8853448 -0.67906433 -0.21131901 -0.30583724 -0.544039 -0.087046355 -0.6833565 -0.09631416
0.3079787 -0.55066025 -0.03250548 -0.19712865 -0.27598965 -0.17351413 0.0043282993 0.1695723
-0.767313 -0.2532614 -0.44077846 -0.17179896 0.08460873 -0.24912782 -0.36918032 -0.6162881
-0.7181748 -0.67004174 -0.59867716 -0.10901059 0.052776534 0.20903644 0.7249987 0.116630755
-0.53058594 -0.49413562 -0.8525756 0.0010470555 -0.57494694 -0.8066821 -0.24085799 -0.9689539
-0.39538768 -0.2228019 -0.5617769 -0.31589934 -0.22354656 -0.78938806 -0.06408481 -0.49545786
0.5694209 -0.4329306 -0.1121846 -0.48119786 -0.023734882 -0.055155817 -0.2099204 -0.17729428
-1.1214234 -0.20140319 -0.19649157 0.24528722 -1.4277132 -0.24302027 -0.3328949 -0.47530195
-0.24405193 0.10175629 -1.3542062 -0.73642933 -0.29177296 -0.3953307 -0.12915483 -0.95197845
-0.6599506 -0.8363744 -0.2232232 -0.13658807 -0.3583523 -1.1907942 -0.1394744 0.09549396
-0.6139999 -0.4684684 -0.2720532 0.23848435 0.10825509 -0.72516024 -0.6976708 -0.4746553
-0.2932001 -0.5735133 -1.1301079 -0.770495 -0.5658519 -0.39467734 -0.61808485 0.48277968
-0.5122648 -0.40082496 -0.4533149 -0.104105875 -0.77873755 -0.5872698 0.15379399 -0.25309688
0.17898649 0.023761136 0.20745264 -0.056787085 -1.1689327 0.31583536 -0.49569318 -0.69080615

point_conv1.1.running_var f4 [128]
00000000: ed42 1c41 1d60 1e41 f5b6 0241 b954 8f40
00000010: e628 0141 d70a db40 b5e1 fb40 85c3 1941
00000020: 660e 0b41 76b9 d040 5c9f cd40 cf74 c540
00000030: 7195 cf40 da38 ee40 ee30 0941 f17b 1041
00000040: ff71 fa40 76b1 cd40 8156 0341 3ca5 9a40
00000050: db7f b540 c740 da40 ccc3 8140 3929 ed40
00000060: 8f4a 1241 1094 0041 b604 f540 b890 5840
00000070: 0e6e ec40 a14c fb40 6ff9 c240 a433 ce40
00000080: bfff c940 51e6 a540 d1bf d840 cbe8 0241
00000090: e712 9140 1c3a fe40 a282 9640 7602 4740
000000a0: fba0 fa40 5753 9c40 40a9 a740 0fd4 2141
000000b0: 3e34 fa40 81f9 c340 3097 0f41 2dfb 9240
000000c0: b4c9 1641 7d72 b340 b44a fe40 17c2 d840
000000d0: fb37 b140 d6c3 b640 553e 6040 7a18 dd40
000000e0: b2a9 e240 cab0 df40 0705 e740 f348 4540
000000f0: 94d4 de40 cfb6 8740 3ac6 cb40 187e 5a40
00000100: 18ed 5c41 7e1d e140 9769 3740 6dc5 d440
00000110: 966d 6140 174e 7a40 4645 9240 1337 1241
00000120: 6f7d dc40 0153 f340 9f95 fe40 082d 1141
00000130: 67bf fb40 2647 d540 04ea f940 bd9e d940
00000140: 64a8 0541 56c1 7940 5aa5 e740 7474 8440
00000150: b70a 8740 6901 0541 271b eb40 6af1 1a41
00000160: bccd 4f40 d855 e840 f213 7740 4eca e440
00000170: 73db 1c41 faa3 ee40 00d6 a640 3128 3d41
00000180: 567a 1f41 324a c040 8aa6 3b40 c61a 0241
00000190: 58fe fc40 4493 a340 a1e6 4941 f553 4c41
000001a0: eef0 a440 bd75 0f41 3c21 f740 0154 5c40
000001b0: ffa7 2141 abb5 9d40 08fa b440 2e6c 0441
000001c0: e8c6 c440 ea24 a540 46d8 2c41 94f7 7d40
000001d0: 4072 ce40 c595 1641 b9e7 2741 e060 f140
000001e0: b0e9 9140 93a3 a040 8403 5840 736d c640
000001f0: a806 0141 20ea fc40 d019 8f40 bfdf e340
9.766339 9.898465 8.169667 4.479092 8.072485 6.845073 7.871302 9.610234
8.691015 6.5226393 6.425703 6.170509 6.4869924 7.44444 8.574446 9.030259
7.8264155 6.4279127 8.208619 4.83267 5.6718574 6.8204074 4.055151 7.411282
9.143203 8.036148 7.656825 3.383833 7.3884344 7.853104 6.0929484 6.443804
6.312469 5.184365 6.773415 8.181834 4.5335574 7.9445934 4.7034464 3.1095252
7.832151 4.8851733 5.2394104 10.114272 7.818877 6.124207 8.974411 4.593161
9.424244 5.6077256 7.946619 6.7736926 5.5380836 5.7114058 3.5038044 6.909238
7.0832148 6.9903307 7.2193637 3.0825775 6.9634495 4.2410655 6.3679476 3.4139462
13.807884 7.03485 2.8658197 6.6491 3.5223136 3.9110162 4.570956 9.138446
6.8903117 7.6038823 7.9557643 9.073494 7.8671145 6.664935 7.8098164 6.800627
8.353611 3.9024253 7.2389345 4.1392155 4.220058 8.312844 7.3470645 9.683939
3.246932 7.260479 3.8605924 7.1496954 9.803576 7.4575167 5.213623 11.822312
9.967367 6.009057 2.9320397 8.1315365 7.906048 5.1117268 12.618806 12.770497
5.1544104 8.966245 7.722807 3.4426272 10.103515 4.9284263 5.6555214 8.276411
6.1492805 5.160756 10.802801 3.968236 6.4514465 9.411565 10.494073 7.5430756
4.5597763 5.0199676 3.3752146 6.2008605 8.064125 7.9035797 4.471901 7.1210628

attention.0.weight f4 [1, 128, 1]
00000000: e2a1 bd3d 2150 0ebe b379 1cbe c679 b73b
00000010: 4bd5 54bd a6fa d2bd 4a32 32bd 099a e53d
00000020: 2cc6 553b db84 0a3e 84b4 b93d 44f4 fbbd
00000030: b1fd e5bc 8134 1ebe 6217 3b3d acc6 f4bd
00000040: 7a8d 2fbe ca24 90bd 3557 d93d df8e 833d
00000050: 7ed9 e8bd ee94 b73d f337 23bd 79da 2cbc
00000060: 1343 743c a4ed 20be cd71 923d 6cd9 383c
00000070: 5558 2bbd f432 793d 9435 8fbc 5230 003d
00000080: 6307 b8bc 0c32 bdbc 8a11 5cbd dbd3 10bd
00000090: f301 70bc 0a5b df3c 48d1 993b 33ea 0bbc
000000a0: 6e49 913c 9edc 3bbc 8576 1abd 491e a1bd
000000b0: 297e a9bc 6da8 053d 457c c7bc 08a4 233d
000000c0: c4c3 163e 67a5 26bb 86e0 87bd 4b60 7abc
000000d0: 7908 c43c 050e f8bc 0bd1 44bc 6e20 ddbd
000000e0: 5319 94bd 531b 85bd 84e9 8dbc b758 b8bc
000000f0: c825 523d ecac 313d 4d86 3abd 5812 353d
00000100: 2188 4b3c 0953 81bd 0eb5 22bc 1adb 7abd
00000110: 5dee 543c adb6 48bd 1eaf 77bd 645a 71bd
00000120: 38da 54bd a4e9 013c fcc8 d9bd e34b eabd
00000130: d322 96bd a760 ecbc d799 80bd 0a40 ffbc
00000140: 8125 6bbc 135f 923c bae3 6b3d 37d2 6abd
00000150: 211e 773d c231 7bbd 548a c1bc c0ee 813c
00000160: ca6b 833c c5e0 133e 00c3 3cbc 8ff2 823b
00000170: cb80 2bbe 03ba 4ebe 797a d4bd a293 8bbc
00000180: ff93 1bbe 4332 06bd 7262 d3bc 61b0 63bd
00000190: 531d a73d 2725 da3c 7725 21be e0af e6bd
000001a0: 4e1e 73bd 9ca8 963c 65ba 27be cf24 2cbc
000001b0: 451f cdbd 674c b6bd 9d05 a13c 4b51 babd
000001c0: 3451 053c 7610 ea3a e297 b33d 7b32 4a3c
000001d0: 74bc 103d 9b88 1abe 0578 16be 5df5 9f3c
000001e0: f358 afbc 72f1 f0bd bf60 f33b 2841 7b3c
000001f0: e5e2 f13d 9548 b7bd 5900 023d b490 7dbd
0.09259392 -0.13897754 -0.152808 0.0055992333 -0.051961225 -0.10301714 -0.04350499 0.112110205
0.003261934 0.13527243 0.09067634 -0.12302449 -0.028075071 -0.15449716 0.045676596 -0.11951956
-0.17143813 -0.07038267 0.106123365 0.06423735 -0.11369608 0.08963953 -0.03984828 -0.010550135
0.01490857 -0.15715653 0.07150612 0.011282306 -0.041832287 0.06083961 -0.017481603 0.03129608
-0.02246446 -0.023095153 -0.053727664 -0.03535829 -0.014648902 0.02726509 0.0046941377 -0.008539724
0.01773521 -0.011466173 -0.037710685 -0.078671046 -0.02069004 0.032631326 -0.024351249 0.039951354
0.14723116 -0.0025428177 -0.06634621 -0.015281747 0.023929821 -0.030280123 -0.01201273 -0.10797201
-0.07231393 -0.06499352 -0.017323263 -0.02250324 0.051305562 0.0433778 -0.045538235 0.044206947
0.012422592 -0.06314666 -0.009930862 -0.061244108 0.012996283 -0.04900234 -0.06046974 -0.058924094
-0.051965922 0.007929239 -0.10634038 -0.114402555 -0.07330861 -0.028854681 -0.062793426 -0.031158466
-0.014352203 0.0178676 0.057590224 -0.057329383 0.060331468 -0.06132675 -0.02362553 0.015860915
0.016042609 0.14441212 -0.011521101 0.0039962004 -0.1674835 -0.20188145 -0.10374922 -0.01703817
-0.15193175 -0.032762777 -0.025803778 -0.05558813 0.0815989 0.026629044 -0.15736948 -0.11264014
-0.059355073 0.018390946 -0.16379698 -0.010506823 -0.1001573 -0.08901291 0.019655997 -0.09097537
0.008137036 0.0017857689 0.08769204 0.012341137 0.035335973 -0.15091173 -0.14694221 0.019526178
-0.021404719 -0.11764802 0.0074273045 0.015335359 0.11810855 -0.08949391 0.031738613 -0.061905578

classifier.0.weight f4 [256, 128]
00000000: f1bc 923d 058e ee3c ed60 4dbb df36 29bd
00000010: dc10 673d 8b51 ccbd ddd0 773c 753f ef3c
00000020: e860 60be 1827 99bd 3a98 aabc 59ab 653d
00000030: cf0a fb3b f2b9 bc3d 78c2 6c3c d1e3 71bd
00000040: 8a39 f33d 7cab 9a3d e198 523c 3702 6fbd
00000050: 9106 723d 7f1c 20bc d892 92ba 622e 0f3d
00000060: f0a3 1e3e 4d3c b7bc 5001 c73d 4352 99bd
00000070: 1fe3 40be d9ff eb3d 04d4 2fbb d5ae 99bd
00000080: 50b3 763c 303a 63bd 1606 ec3b 0224 073d
00000090: 1b1e a3bd a2e2 3f3d ff45 5c3c 9e90 8ebd
000000a0: f67f f13c 4be5 523d 2cd4 a7bb 8cf6 413d
000000b0: 15a3 1fbd 0bc6 45bd 517d 093e a306 953d
000000c0: 0e95 cfbd 5f45 24bd 0804 86bd 1a5f debd
000000d0: 2308 ca3c 62ca c93c 3961 a23d 4a3d 473e
000000e0: d3f5 c5bd 79f7 cf3b 7225 babd af7c e03c
000000f0: 3d57 8d3d fb33 f23d 8418 1ebd 0af5 9cbd
00000100: 5c1a 9bbd e897 c1bd deb9 a53c b6f3 c1bc
00000110: a4c4 e03b 2b5c f23d 0d8f 123d 049e 063d
00000120: 0b24 29bc 4c73 7ebd aacf eebc 1773 ab3d
00000130: e78c e03d 66a6 0dbe 1942 93bd 2ad6 a93d
00000140: ed1f 353e d782 0bbd 0fac e13d 149b 0cbd
00000150: 084d 493e c44f 85bd 4faf a7bd 6ae6 c83b
00000160: 2eb7 a7bd d2c9 8f38 ec73 e83c 3531 c3bb
00000170: d0e0 a83c e503 4cbd 0c72 5ebd 5a0c b9bc
00000180: 4d07 ef3c e40e 2bbd 60c1 05bd 5fc6 b13d
00000190: a838 a3bd 397b 273e 802f ef3c e76b 27bd
000001a0: 3958 12bd b263 1c3d f22a 04bc 0086 0b3e
000001b0: 34bb 7dbc 8df3 fd3c 2ba2 91bc 4490 273d
000001c0: 84a7 88bd 2369 3ebd fde0 d3bd 2441 a4bd
000001d0: 2150 8c3d 042d 4c3c 553f 4cbc 6f1a 94bd
000001e0: 1442 72bd abac eb3d d5bb 123c f348 cc3c
000001f0: 691f 6fbd 4f8b d2bd 932b c5bc 468b 973d
00000200: e9e6 76bd 9aa9 2a3d 42e2 57bd 5049 bf3d
00000210: f018 3fbc c9c5 a43d 73ab 9abd 22a7 00bd
00000220: 31a1 9b3d f4e5 c8bc 3723 b43d 6a52 5bbe
00000230: b196 8cbd 889f 3f3d b538 fb3c 3516 b5bb
00000240: f6b1 44bd 1476 2c3e 3d49 683d 8c86 22bb
00000250: dccc 7b3d c879 503d 4991 5c3d ccef 19bd
00000260: f25d 9f3d c60c 61bd a38b fd3c ef9c 7a3c
00000270: 06ba cfbd 636b a3bd 0aa9 30bd 9243 303d
00000280: ea1f 55bc 7a12 703d aecc 4ebe b8ea 4f3d
00000290: 9bce 073e b1f8 01be 043a 483c 89b9 03bd
000002a0: 005d cf3b f732 593c 1f87 57bc 3436 50be
000002b0: 96ca bebd dc7e e7bc 959d 563d 945a f43d
000002c0: 27fc ddbd 8073 c63d a117 293e 1beb bcbd
000002d0: a781 41bd 26b9 20bd 20dc 863d 53a0 aa3d
000002e0: 1081 883d b920 07bd 9adb 9bbd 4de3 bebd
000002f0: 1d3c 82bd 6e13 f6bc 7f3a 6e3d ca61 9a3d
00000300: 14cb a0bd 01c1 c43c 0233 22bd 6b6a 00be
00000310: 1165 e63c 3425 993d d9f7 b13b dcf5 df3d
00000320: 5142 0d3e 8f3d 03be 999a dbbd 7ef0 cdbd
00000330: a4fc 0bbb be90 ab3d 617d e13d 6904 7fbd
00000340: 831c c03a 6b6a 05bd 166e e0bc f3c3 c23d
00000350: fa4a 94bd 6d53 a33d 488e f93d 3e2d 4f3c
00000360: 0aac 56bd dbe7 9b3c fec2 f53c e3f9 11be
00000370: e538 883a bf5e d43d 78a4 8dbc 890a 333d
00000380: 8f8b b73d 35ea 05bd d56d 9fbc 8d08 0bbd
00000390: eb84 25bc a3b8 383e f40c 3d3d 6e9d 2f3e
000003a0: d905 d3bd 4bac d9bd 0bb2 f1bc e08c ac3c
000003b0: 559d d03b 2144 ca3c 9bb2 1cbe f5f2 f9bc
000003c0: 19e1 fe3c 7a9a 013e 9092 95bd 2429 9fbc
000003d0: 0de9 223d 2a2d e03d 34f4 f8bd 2883 25bd
000003e0: 5000 16bd 3fcd 73bd 52a5 38bd 4a2d 04bd
000003f0: 6b0b ccbd d845 493d fa55 463d 21fd 693d
0.07164944 0.029120455 -0.003133829 -0.041312095 0.056412563 -0.099764906 0.0151254805 0.029205063
-0.21911967 -0.0747816 -0.02082454 0.056071613 0.0076612006 0.09215154 0.014450662 -0.059055153
0.11876209 0.07552239 0.012853832 -0.05835172 0.059088293 -0.009772419 -0.0011182679 0.034956343
0.15492225 -0.02236762 0.09717047 -0.07486393 -0.1883664 0.115234084 -0.0026829252 -0.0750405
0.0150574 -0.055475414 0.007202874 0.032993324 -0.079647265 0.046846993 0.013444423 -0.06961177
0.029479962 0.051488202 -0.0051217284 0.047354266 -0.038973887 -0.04828457 0.1342671 0.072766565
-0.10135852 -0.04010522 -0.06543738 -0.10857983 0.024662083 0.024632636 0.079287 0.19456974
-0.09666028 0.0063466397 -0.090891734 0.027403204 0.06901405 0.11826321 -0.0385976 -0.07663925
-0.07573387 -0.09452802 0.02023023 -0.02367578 0.006859379 0.11833986 0.035780955 0.03286554
-0.010323535 -0.062121674 -0.029151756 0.08371561 0.10964375 -0.13833007 -0.071903415 0.08292802
0.1768796 -0.034060325 0.11019146 -0.03432758 0.19658291 -0.06509355 -0.08187734 0.006130983
-0.08189236 6.856363e-05 0.028375588 -0.0059567937 0.020615011 -0.0498084 -0.054307982 -0.022588897
0.029178286 -0.041762248 -0.03265512 0.086804144 -0.07969791 0.163556 0.029197454 -0.040874388
-0.035728667 0.038181014 -0.00806688 0.13625336 -0.015486527 0.030999923 -0.017777523 0.040909067
-0.06672576 -0.046486985 -0.103456475 -0.08020237 0.06851221 0.012461904 -0.012466271 -0.07231604
-0.05914505 0.11507543 0.008955915 0.024937129 -0.058379564 -0.10280477 -0.02406863 0.07399611
-0.060278807 0.04166565 -0.05270601 0.09340155 -0.01166366 0.08045537 -0.075522326 -0.03140939
0.07599104 -0.024523713 0.08795779 -0.21418157 -0.068646796 0.046783 0.030666688 -0.005526329
-0.04802128 0.16841918 0.05671047 -0.0024799434 0.061474666 0.05089739 0.053849492 -0.037582204
0.077815905 -0.054943822 0.030950373 0.015296205 -0.10142903 -0.07979467 -0.04312996 0.04303319
-0.013008097 0.05861137 -0.20195267 0.050760955 0.13262407 -0.12692524 0.012220863 -0.032159362
0.006328225 0.01325678 -0.013154774 -0.20333177 -0.09315984 -0.028258733 0.052396376 0.11931339
-0.1083911 0.096899986 0.1651292 -0.0922453 -0.047242787 -0.03923907 0.06584954 0.08331361
0.06665242 -0.03299019 -0.07610245 -0.09320698 -0.06359122 -0.030038562 0.058161255 0.07538183
-0.07851234 0.024017813 -0.039599426 -0.12540595 0.028124364 0.07477799 0.005431157 0.10935566
0.13794829 -0.12816451 -0.107228465 -0.10055636 -0.0021360302 0.08377217 0.11010242 -0.062260065
0.0014656935 -0.03257219 -0.027396243 0.095100306 -0.07240863 0.079748966 0.12185341 0.012645064
-0.052410163 0.019031456 0.030000206 -0.1425548 0.0010392932 0.10369634 -0.017290339 0.04371122
0.089621656 -0.03269406 -0.019461552 -0.0339437 -0.010102491 0.18039183 0.04615493 0.17149898
-0.1030385 -0.106285654 -0.029503843 0.021063268 0.0063664117 0.02469069 -0.15302508 -0.030511359
0.031113194 0.12656584 -0.07303345 -0.019428797 0.039773036 0.10946114 -0.12155953 -0.040408283
-0.03662139 -0.05952191 -0.045079537 -0.032269754 -0.09963115 0.049138874 0.048421837 0.05712617
