models/test_quick.pth (torch, 462261 bytes, 20 tensors)

conv1.0.weight f4 [32, 6, 64]
-0.033214267 0.039441276 -0.027790286 0.059791 -0.011369473 -0.014785519 -0.01464572 0.016291661
-0.08877438 -0.037815712 -0.10195941 -0.03147212 0.05686289 0.05115175 0.042271987 -0.011097805
-0.043413375 -0.024000946 0.0010732014 -0.016751325 0.007654138 -0.015569052 0.028848838 -0.06335642
0.035729427 0.06283221 -0.11172647 0.07066179 -0.05788387 0.051240243 0.056142792 -0.07097932
0.00023700026 -0.041580338 0.011287293 -0.11985903 -0.0021674754 -0.12321478 -0.093490034 -0.04954823
-0.0058207237 -0.01044547 0.047699377 -0.0371631 0.0271831 -0.15762411 0.001668307 0.0063615222
-0.054045994 -0.073302306 -0.14261308 -0.15992194 0.003215345 0.04600398 -0.09685387 -0.07428062
-0.023008727 -0.009075927 -0.026903732 0.06592488 -0.012315545 -0.011827129 0.032665927 0.059594493
-0.029658062 0.001995605 0.02773189 0.03743153 0.0321112 -0.047565974 0.16269611 -0.022514503
0.011062196 -0.07716345 -0.017669149 0.030588811 -0.04195844 0.107540116 -0.09698988 0.09633244
-0.06853679 -0.05477282 0.09176736 -0.024814723 -0.12515847 -0.0356293 -0.039456226 0.011827283
0.015284123 -0.057505365 0.043570537 -0.052314293 0.11738186 0.05255321 0.07446681 0.056104697
-0.011658465 0.037835497 0.018325426 -0.14794534 0.008925224 -0.06804084 0.034090094 0.07387454
-0.07444431 -0.0039436123 -0.03291768 0.079680316 -0.003184765 0.06933903 0.078316614 -0.09220126
-0.048564494 -0.07038516 -0.05870516 -0.027078072 0.052063935 -0.104978554 0.0097892955 0.050638143
0.0069348775 -0.020962138 -0.04354461 -0.037159823 -0.020534677 0.033184096 -0.026213203 -0.080228046
0.118759595 0.02145223 0.11297598 0.12291878 -0.06805783 -0.039913572 0.14216107 0.042898227
-0.08659452 -0.057240676 0.01604249 0.061348453 0.043434355 0.06225307 0.10868299 0.0100214165
0.033596832 0.017507635 0.10479742 0.041888326 -0.087243065 0.15133286 -0.06387922 0.05009733
0.06342371 -0.042329244 -0.09336436 0.11965926 -0.10216599 -0.009095838 -0.07002412 0.15865436
-0.083634175 0.061377212 -0.011305857 -0.0108074015 -0.047570273 0.010822131 -0.0063435533 0.043515783
0.06847998 -0.017015176 -0.03525384 -0.12253129 0.16861223 -0.14132279 -0.14419937 -0.083707675
-0.04291712 -0.12374092 -0.029327257 -0.08120687 -0.007977805 -0.015016212 0.024774691 0.01630896
-0.035614986 -0.10131286 0.015052516 -0.10047994 -0.05954679 -0.05777285 -0.09877697 -0.040639743
-0.14506266 -0.054693196 -0.12869498 -0.0521752 0.03577843 -0.08194582 0.039317224 -0.07748855
-0.073957056 -0.008160368 0.02978778 -0.08908528 0.045802575 -0.061588395 -0.099239595 -0.016485207
-0.07118896 -0.11069274 0.048911233 -0.076171465 -0.018618079 -0.03524361 -0.082108036 0.08032029
-0.090958744 -0.0971138 0.017601058 0.05811616 -0.09751635 0.041914094 0.016106043 0.089633144
-0.13212278 -0.03392254 -0.032002974 0.03915487 -0.027317343 -0.016304754 -0.060239784 -0.08414935
-0.079234526 -0.034069397 -0.059029967 -0.10421745 0.011187778 0.007557992 -0.005100908 -0.13232811
0.048499268 0.009765105 -0.06375173 -0.12658402 -0.19475292 -0.13956751 -0.10401971 -0.05637069
-0.03244946 -0.040407196 0.025650792 -0.06513691 -0.09687378 0.07197499 0.03823152 0.0028947047
00000000: af0b 08bd 2d8d 213d 74a8 e3bc 68e7 743d
00000010: 0747 3abc f63e 72bc 9af4 6fbc 1776 853c
00000020: 58cf b5bd a6e4 1abd 18d0 d0bd e9e8 00bd
00000030: 10e9 683d 7f84 513d 6425 2d3d 91d3 35bc
00000040: 39d2 31bd a29d c4bc aaaa 8c3a 133a 89bc
00000050: 90cf fa3b 5615 7fbc 6654 ec3c 03c1 81bd
00000060: 0559 123d 2cae 803d d9d0 e4bd 21b7 903d
00000070: a317 6dbd 4ae1 513d fcf5 653d 9b5d 91bd
00000080: 4683 7839 2550 2abd 57ee 383c a778 f5bd
00000090: 340c 0ebb 0858 fcbd b477 bfbd 16f3 4abd
000000a0: c5bb bebb 7a23 2bbc 6c60 433d 5638 18bd
000000b0: 18af de3c 3768 21be 18ab da3a 5174 d03b
000000c0: 555f 5dbd 851f 96bd 2a09 12be 94c2 23be
000000d0: 8ab8 523b ab6e 3c3d 525b c6bd 7020 98bd
000000e0: cc7c bcbc 32b3 14bc 3765 dcbc a003 873d
000000f0: 24c7 49bc 93c6 41bc b5cc 053d 5b19 743d
00000100: 77f5 f2bc b2c8 023b fd2d e33c ce51 193d
00000110: 0987 033d 8ad4 42bd cf99 263e 5670 b8bc
00000120: 373e 353c df07 9ebd e4be 90bc 6395 fa3c
00000130: 9ddc 2bbd fe3d dc3d a1a2 c6bd f149 c53d
00000140: 045d 8cbd 7759 60bd 87f0 bb3d 3f48 cbbc
00000150: 8b29 00be 07f0 11bd da9c 21bd 38c7 413c
00000160: 426a 7a3c bf8a 6bbd 0577 323d 8347 56bd
00000170: e765 f03d 0942 573d 0e82 983d 0ace 653d
00000180: 2503 3fbc 65f9 1a3d 341f 963c fc7e 17be
00000190: 1a3b 123c ff58 8bbd 0ea2 0b3d 894b 973d
000001a0: 4276 98bd 6b39 81bb b0d4 06bd 6f2f a33d
000001b0: 7eb7 50bb 9f01 8e3d 7664 a03d 04d4 bcbd
000001c0: 90eb 46bd 1826 90bd d274 70bd d5d2 ddbc
000001d0: fe40 553d fffe d6bd 4863 203c f169 4f3d
000001e0: f83d e33b cab8 abbc d55b 32bd e634 18bd
000001f0: 5738 a8bc 0cec 073d 12bd d6bc 9a4e a4bd
00000200: 3b38 f33d 96bc af3c f35f e73d d7bc fb3d
00000210: e761 8bbd 6a7c 23bd ac92 113e 0db6 2f3d
00000220: 7858 b1bd 3375 6abd 8a6b 833c 8448 7b3d
00000230: 39e8 313d 13fd 7e3d 3095 de3d de30 243c
00000240: d59c 093d 2c6c 8f3c 08a0 d63d 1893 2b3d
00000250: 7eac b2bd 00f7 1a3e 1cd3 82bd dc32 4d3d
00000260: 4ae4 813d 6e61 2dbd d035 bfbd ea0f f53d
00000270: 673c d1bd b606 15bc ce68 8fbd 4a76 223e
00000280: 6548 abbd ac66 7b3d 343c 39bc 8711 31bc
00000290: 0cd9 42bd 4f4f 313c 95dd cfbb 9b3d 323d
000002a0: 3b3f 8c3d 6963 8bbc 5566 10bd aff1 fabd
000002b0: afa8 2c3e ecb6 10be 00a9 13be ee6e abbd
000002c0: ddc9 2fbd e16b fdbd b73f f0bc ca4f a6bd
000002d0: 57b5 02bc 8f06 76bc 4bf4 ca3c 5e9a 853c
000002e0: 05e1 11bd 1e7d cfbd d49e 763c 6dc8 cdbd
000002f0: 56e7 73bd 39a3 6cbd 944b cabd dc75 26bd
00000300: 4e8b 14be f905 60bd 9ec8 03be aab5 55bd
00000310: 678c 123d 36d3 a7bd 190b 213d 51b2 9ebd
00000320: cc76 97bd 10b3 05bc 8105 f43c 5872 b6bd
00000330: 7b9b 3b3d 1d44 7cbd 213e cbbd fc0b 87bc
00000340: 84cb 91bd e0b2 e2bd 2557 483d c9ff 9bbd
00000350: f184 98bc 9b5b 10bd 4228 a8bd f77e a43d
00000360: 9448 babd 9ae3 c6bd 1830 903c 360b 6e3d
00000370: a7b6 c7bd 1dae 2b3d d2f0 833c 9591 b73d
00000380: 324b 07be 5cf2 0abd 8d15 03bd db60 203d
00000390: 9fc8 dfbc 8c91 85bc febd 76bd 7f56 acbd
000003a0: b645 a2bd 5a8c 0bbd 68c9 71bd f56f d5bd
000003b0: f14c 373c 08a9 f73b 8525 a7bb 0581 07be
000003c0: 2ba7 463d d2fd 1f3c 4490 82bd 3e9f 01be
000003d0: 4f6d 47be c9ea 0ebe 4908 d5bd f4e4 66bd
000003e0: bae9 04bd 0482 25bd 9c21 d23c 8066 85bd
000003f0: c365 c6bd a067 933d a898 1c3d 16b5 3d3b

conv1.1.weight f4 [32]
1.0157306 1.034003 1.0582148 1.0469546 1.0344317 1.0160773 1.0481194 1.0131878
1.0269812 0.99236506 0.9977254 0.98723507 0.9658646 1.0490795 0.9952357 0.9936145
0.9818064 1.0186025 0.98535097 0.99882174 1.012332 1.017659 1.0325013 1.0020171
0.97240144 0.9743373 0.9753391 0.96913743 0.94338727 1.0118849 1.0166329 0.9918446
00000000: 7603 823f 365a 843f 9573 873f 9c02 863f
00000010: 4268 843f d20e 823f c728 863f 23b0 813f
00000020: 1f74 833f a30b 7e3f ef6a 7f3f 70bb 7c3f
00000030: e742 773f 3d48 863f c4c7 7e3f 855d 7e3f
00000040: aa57 7b3f 9161 823f f63f 7c3f c8b2 7f3f
00000050: 1894 813f a642 823f 0129 843f 1942 803f
00000060: 4def 783f 2b6e 793f d3af 793f 6419 783f
00000070: d481 713f 7285 813f 0721 823f 87e9 7d3f

conv1.1.bias f4 [32]
-0.0012651125 0.016585777 -0.0031063184 -0.031494614 -0.0034051358 -0.0077488753 -0.0073536094 0.009315003
-0.026819637 -0.026480328 -0.028413514 0.03894833 0.012651515 0.0034030748 -0.004075928 0.03079312
0.019311776 -0.011346633 -0.04393068 0.031107724 -0.03051777 -0.0135353515 -0.04522782 -0.010954577
-0.0070857275 -0.026911879 -0.043489844 0.028730908 -0.02581795 0.020303056 0.02813957 0.016034516
00000000: 22d2 a5ba e5de 873c 6093 4bbb 7f00 01bd
00000010: b328 5fbb 47ea fdbb 8cf6 f0bb f49d 183c
00000020: dbb4 dbbc 46ed d8bc 75c3 e8bc 4988 1f3d
00000030: 4d48 4f3c 1f06 5f3b 5d8f 85bb da41 fc3c
00000040: bb33 9e3c 3ae7 39bc a8f0 33bd a0d5 fe3c
00000050: 6700 fabc 61c3 5dbc ce40 39bd d37a 33bc
00000060: 642f e8bb 4d76 dcbc 6822 32bd 155d eb3c
00000070: 2a80 d3bc 9852 a63c f584 e63c d15a 833c

conv1.1.running_mean f4 [32]
0.00076350407 0.0017532946 0.0057220594 -0.0038055603 0.0010353543 -0.004890885 -0.0017806801 0.0033262062
0.0063540014 -0.0029441752 -0.0031321244 -0.00091620104 0.003664388 -0.00014877363 -0.00047835725 -0.003700071
0.0007113805 -0.0021887599 0.0019360769 -0.00056817825 0.002309002 0.0027667165 0.0025522397 0.0028264502
-2.1451648e-05 0.00058849744 0.004425936 0.000647228 -0.0042477106 0.00033574473 0.0022353292 -6.1852916e-07
00000000: e425 483a cece e53a 1d80 bb3b b566 79bb
00000010: bab4 873a b843 a0bb b665 e9ba 7bfc 593b
00000020: 3a35 d03b 10f3 40bb 5444 4dbb 362d 70ba
00000030: 3b26 703b 1e00 1cb9 06cc fab9 e47c 72bb
00000040: f07b 3a3a 4c71 0fbb f6c3 fd3a ccf1 14ba
00000050: a052 173b cd51 353b 7a43 273b f73b 393b
00000060: 10f3 b3b7 6545 1a3a 7107 913b bcaa 293a
00000070: 6130 8bbb e506 b039 9a7e 123b 0009 26b5

conv1.1.running_var f4 [32]
7.3350773 2.9217942 6.8828254 3.6410437 2.7088032 2.0392067 5.324589 4.2900834
8.254737 1.3446642 4.124217 2.7327526 9.699063 2.721545 3.057603 3.2054389
2.7428803 2.288331 2.4510498 3.740988 4.9966097 6.635825 4.664839 3.8759627
3.9431498 3.4829638 4.347735 3.6283212 3.1079462 2.8577688 4.0944567 2.3157346
00000000: f4b8 ea40 adfe 3a40 1b40 dc40 dc06 6940
00000010: 085d 2d40 5d82 0240 0863 aa40 5d48 8940
00000020: 6713 0441 f51d ac3f 96f9 8340 6be5 2e40
00000030: 5d2f 1b41 cb2d 2e40 c4af 4340 e925 4d40
00000040: 5a8b 2f40 0474 1240 00de 1c40 596c 6f40
00000050: 3ae4 9f40 ae58 d440 5c46 9540 c60f 7840
00000060: 915c 7c40 e1e8 5e40 a520 8b40 6a36 6840
00000070: 97e8 4640 afe5 3640 ca05 8340 ff34 1440

depth_conv.0.weight f4 [64, 1, 16]
-0.10462297 -0.24381723 -0.047766123 0.41881123 0.09231647 0.8868008 0.35121906 0.73549455
0.4890756 0.13673486 -0.81120867 0.3608409 0.27287292 0.17856786 -0.21870296 0.6374938
0.24430473 -0.23285328 -0.017459273 -4.4743374e-05 -0.19509296 0.3195019 0.07817634 -0.14500774
-0.5500782 -0.8937885 0.3211791 0.017440908 0.11628994 0.34331444 -0.18734206 0.3647992
-0.04920446 0.21371213 -0.58327454 -0.28530034 -0.054014698 0.18232895 0.33883822 0.60071313
0.14611213 -0.41368935 0.41770512 -0.26747206 0.2586536 0.43670717 -0.14841144 0.15555069
0.2190003 0.22969583 -0.014360257 0.19077973 -0.630955 -0.08658052 0.3694405 0.05531659
-0.5179306 -0.24843244 0.4688864 -0.18912497 -0.1242415 0.18569392 -0.26109612 0.10993729
-0.16851716 -0.13281341 0.09723963 -0.120780125 0.28890893 0.040275976 0.76199204 -0.12556076
-0.4792244 -0.29786307 0.073182635 0.14810333 0.62050647 -0.33662605 0.14350674 -0.29846364
-0.38130268 0.033672336 0.15251832 -0.074593335 -0.45681846 0.06401522 -0.06437045 0.11498039
0.20265156 -0.13340445 0.64403886 0.69442135 -0.54585713 -0.48899522 -0.65637535 -0.54523426
0.06608413 -0.35099995 0.3084549 -0.24709682 -0.12645085 -0.45433378 -0.2745668 -0.1113342
-0.026589975 -0.14576615 0.46809018 -0.061582737 -0.3523401 -0.09155328 0.2899524 0.50531244
0.0028522494 0.14148735 -0.6781455 -0.08966637 0.48438695 -0.6514713 -0.6594909 0.28273845
0.49785352 0.07682956 0.013172611 -0.36473948 0.36369398 -0.30931172 -0.079703994 0.42099345
-1.0098926 0.71896434 0.52907354 -0.24341702 -0.7152954 -0.11287916 0.36617592 0.03995667
-0.3006373 0.05223536 -0.17612462 0.4979252 0.56383246 -0.19578391 0.23459627 0.3030064
0.4219381 -0.13345274 -0.553259 -0.011991691 -0.0017091488 -0.5591773 -0.209562 0.49536955
-0.2857216 0.014886201 0.20320323 0.19793135 0.048112433 0.03787266 0.042985365 0.052011568
-0.08992049 -0.0048959847 -0.24048775 0.44776085 -0.22661644 -0.23774274 0.3545744 0.7609618
0.32619682 -0.36530662 0.19166571 -0.14796136 -0.43603805 0.14763162 0.07173159 -0.3999972
-0.24821404 0.12661423 0.01944062 -0.397379 0.52535516 0.26830584 -0.5673859 -0.36769322
-0.35627657 0.11727056 -0.2298559 0.20530142 0.3517188 0.11496885 -0.00429192 -0.24186571
0.45968947 -0.22185567 -0.28442255 -0.43354636 0.3644536 -0.09091341 -0.167231 -0.1858874
0.4253026 0.092141725 0.18404204 -0.044280495 0.13863887 0.019349318 -0.15623072 -0.5849713
0.17801107 -0.39671844 0.35733753 0.23185971 0.34504166 -0.35100785 0.13654183 0.42588416
0.15371531 -0.19645977 -0.16208528 0.20179729 -0.22872321 0.16833283 -0.14326204 0.3398552
-0.11674408 0.14337298 0.1369963 0.3235704 0.14898834 0.16039956 0.21049014 0.08024923
-0.026975408 -0.52961355 0.16242023 0.13516344 -0.4596694 -0.68758076 -0.45915845 -0.54575986
-0.3576263 0.13149789 0.11803903 -0.10057832 0.26325956 0.26839805 -0.15433036 0.07041847
0.12693433 -0.1421779 -0.2325146 0.70405287 -0.31057623 -0.48919865 -0.29270175 -0.9649803
00000000: 9144 d6bd 39ab 79be 69a6 43bd 6d6e d63e
00000010: 6b10 bd3d 6105 633f fcd2 b33e 5f49 3c3f
00000020: 1e68 fa3e 3904 0c3e 5fab 4fbf 23c0 b83e
00000030: 00b6 8b3e 7eda 363e abf3 5fbe cb32 233f
00000040: 052b 7a3e 1771 6ebe c006 8fbc d5aa 3bb8
00000050: 73c6 47be c195 a33e eb1a a03d e97c 14be
00000060: edd1 0cbf 53cf 64bf 9671 a43e 3ce0 8e3c
00000070: 6c29 ee3d e9c6 af3e 99d6 3fbe f6c6 ba3e
00000080: 9e8a 49bd 5ad7 5a3e 7b51 15bf e312 92be
00000090: 843e 5dbd 71b4 3a3e 347c ad3e 56c8 193f
000000a0: 6b9e 153e 17cf d3be 72dd d53e 19f2 88be
000000b0: 3f6e 843e 1598 df3e 2bf9 17be ae48 1f3e
000000c0: 9d41 603e 6235 6b3e 4947 6bbc c35b 433e
000000d0: 4486 21bf 2151 b1bd 4e27 bd3e a693 623d
000000e0: 1a97 04bf 1365 7ebe e111 f03e faa9 41be
000000f0: 5472 febd 8c26 3e3e 64ae 85be cd26 e13d
00000100: c38f 2cbe 3d00 08be 9225 c73d 925b f7bd
00000110: dfeb 933e 6cf8 243d e911 433f 0093 00be
00000120: e75c f5be 8281 98be c7e0 953d 66a8 173e
00000130: 83d9 1e3f 405a acbe 6ef3 123e 3ad0 98be
00000140: 1b3a c3be 01ec 093d c32d 1c3e 64c4 98bd
00000150: 1ce4 e9be 691a 833d a8d4 83bd d77a eb3d
00000160: e483 4f3e 2d9b 08be bbdf 243f 99c5 313f
00000170: 4bbd 0bbf 955d fabe 3708 28bf 7994 0bbf
00000180: 1e57 873d 44b6 b3be cded 9d3e f306 7dbe
00000190: 557c 01be 709e e8be 0594 8cbe 2f03 e4bd
000001a0: 38d3 d9bc b943 15be 84a9 ef3e 2e3e 7cbd
000001b0: ec65 b4be 4980 bbbd a474 943e 285c 013f
000001c0: ceec 3a3b 0fe2 103e f29a 2dbf 00a3 b7bd
000001d0: 9101 f83e d3c6 26bf 65d4 28bf 18c3 903e
000001e0: a8e6 fe3e d158 9d3d efd1 573c 22bf babe
000001f0: 1936 ba3e 1b5e 9ebe d93b a3bd 748c d73e
00000200: 2944 81bf 0c0e 383f 5d71 073f 5042 79be
00000210: 991d 37bf 302d e7bd 697b bb3e 9ba9 233d
00000220: 22ed 99be bff4 553d 035a 34be 0df0 fe3e
00000230: 5357 103f 947b 48be 013a 703e a823 9b3e
00000240: 4508 d83e d6a7 08be 62a2 0dbf cc78 44bc
00000250: 8405 e0ba 3e26 0fbf 6c97 56be 14a1 fd3e
00000260: 1a4a 92be 41e5 733c 8214 503e 84ae 4a3e
00000270: 8b11 453d 5d20 1b3d 6c11 303d 150a 553d
00000280: 3c28 b8bd 7f6e a0bb 6c42 76be e940 e53e
00000290: 240e 68be d572 73be c78a b53e 64ce 423f
000002a0: 4503 a73e 7809 bbbe 0444 443e 2f83 17be
000002b0: 6140 dfbe be2c 173e 03e8 923d 6fcc ccbe
000002c0: d22b 7ebe 29a7 013e ef41 9f3c 4375 cbbe
000002d0: ad7d 063f 625f 893e 3440 11bf 4942 bcbe
000002e0: e269 b6be 8c2b f03d 585f 6bbe 893a 523e
000002f0: 7d14 b43e ca74 eb3d 3ca3 8cbb a5ab 77be
00000300: 6b5c eb3e 222e 63be d59f 91be caf9 ddbe
00000310: aa99 ba3e cf30 babd 9a3e 2bbe 4459 3ebe
00000320: 43c1 d93e cdb4 bc3d 8475 3c3e 775f 35bd
00000330: 59f7 0d3e 7682 9e3c f2fa 1fbe aec0 15bf
00000340: 8948 363e ae1e cbbe f2f4 b63e a26c 6d3e
00000350: 4da9 b03e 4db7 b3be 9fd1 0b3e 7d0d da3e
00000360: 8c67 1d3e c02c 49be aff9 25be f3a3 4e3e
00000370: 6b36 6abe 715f 2c3e 49b3 12be 8001 ae3e
00000380: 8517 efbd 5ed0 123e c248 0c3e 05ab a53e
00000390: 6690 183e c83f 243e ba8a 573e b559 a43d
000003a0: 88fb dcbc c194 07bf 7d51 263e 4968 0a3e
000003b0: ca59 ebbe 4b05 30bf d116 ebbe ebb6 0bbf
000003c0: cb1a b7be 62a7 063e 72be f13d 02fc cdbd
000003d0: f5c9 863e 786b 893e c708 1ebe 8f37 903d
000003e0: 13fb 013e 1597 11be 4f18 6ebe cf3c 343f
000003f0: d903 9fbe 3f78 fabe 01dd 95be f308 77bf

depth_conv.1.weight f4 [64]
0.98174316 1.0398695 1.0058066 0.9695551 1.0100203 0.956411 1.0464302 1.0325892
1.0558273 1.0022771 1.0197452 0.98327726 1.0281957 0.9792103 0.9872939 1.0375092
1.0042392 1.0037041 1.0154918 0.97129035 1.0186052 1.0243871 1.0076096 0.98481786
0.98104864 0.9779733 0.95746887 0.9387894 0.9849833 1.0282934 0.96621466 0.9823158
1.0123061 1.0129591 0.9842118 1.0246723 1.0249541 1.0103216 1.0025697 1.0010107
1.0291792 1.0139682 1.0224456 1.029564 1.0483787 1.037897 0.9717609 0.99941826
0.9722697 0.98502946 0.9854641 1.0277809 1.0142593 0.98978835 0.9775595 1.0124378
1.0212871 0.9919896 0.9855499 0.99162805 1.0161337 0.97199893 0.9889151 0.9607248
00000000: 8553 7b3f 721a 853f 45be 803f c334 783f
00000010: 5848 813f 5ad7 743f 6df1 853f e22b 843f
00000020: 5925 873f 9e4a 803f 0387 823f 0fb8 7b3f
00000030: eb9b 833f 87ad 7a3f 4bbf 7c3f 1acd 843f
00000040: e98a 803f 6079 803f a3fb 813f 7ca6 783f
00000050: a861 823f 1e1f 833f 5af9 803f 061d 7c3f
00000060: 0126 7b3f 755c 7a3f ae1c 753f 8154 703f
00000070: de27 7c3f 1e9f 833f d859 773f 0c79 7b3f
00000080: 3f93 813f a5a8 813f 4ef5 7b3f 7628 833f
00000090: b231 833f 3852 813f 3454 803f 1e21 803f
000000a0: 25bc 833f b6c9 813f 7fdf 823f c1c8 833f
000000b0: 4631 863f cfd9 843f 53c5 783f e0d9 7f3f
000000c0: abe6 783f e42a 7c3f 6047 7c3f 538e 833f
000000d0: 40d3 813f c562 7d3f 5741 7a3f 9097 813f
000000e0: 89b9 823f 08f3 7d3f 004d 7c3f 56db 7d3f
000000f0: ab10 823f ecd4 783f 8a29 7d3f 0ff2 753f

depth_conv.1.bias f4 [64]
-0.040753797 -0.0119267125 -0.011156898 0.037111074 -0.031111691 -0.024477892 0.04725817 0.0076678423
0.045277584 0.040814567 0.023443006 -0.035943 0.036999904 0.0059576915 -0.014248385 0.038767148
-0.010439069 0.012689888 0.006697037 -0.0008662687 -0.017031798 0.06865486 0.0112600345 -0.015919868
-0.027169405 0.0058350214 -0.022467218 -0.018858356 0.043737337 -0.0007373108 0.034288593 -0.024037011
0.01025178 -0.008858849 -0.02608151 0.03891213 0.0040811603 -0.016485002 0.03154617 0.05153914
0.051184405 0.0036798923 0.018033985 0.006540884 -0.01649917 0.021986898 0.023399208 -0.020443775
-0.00055844587 0.0038430947 -0.01511687 0.072606444 -0.008659878 -0.013163265 -0.0046600276 -0.031224422
0.01735263 -0.013572017 0.056788478 0.04291496 0.048841123 0.011901421 -0.01843264 -0.054680433
00000000: 74ed 26bd 4268 43bc 6ccb 36bc c801 183d
00000010: f2dd febc dc85 c8bc c891 413d 8642 fb3b
00000020: fd74 393d 2d2d 273d 8c0b c03c f838 13bd
00000030: 368d 173d bd38 c33b 0f72 69bc 4dca 1e3d
00000040: a108 2bbc 3fe9 4f3c d172 db3b 4f16 63ba
00000050: 4586 8bbc eb9a 8c3d 027c 383c 626a 82bc
00000060: 5f92 debc b533 bf3b 2c0d b8bc d77c 9abc
00000070: ec25 333d 1748 41ba 3272 0c3d 44e9 c4bc
00000080: 15f7 273c b524 11bc e4a8 d5bc 5362 1f3d
00000090: 41bb 853b 8e0b 87bc 8f36 013d b51a 533d
000000a0: bda6 513d 592a 713b 02bc 933c e954 d63b
000000b0: 4429 87bc de1d b43c b2af bf3c b479 a7bc
000000c0: ab64 12ba 6edc 7b3b c0ac 77bc b0b2 943d
000000d0: 29e2 0dbc bcaa 57bc 25b3 98bb 5cca ffbc
000000e0: 1a27 8e3c 2a5d 5ebc 099b 683d 99c7 2f3d
000000f0: a10d 483d 2dfe 423c 0c00 97bc 97f8 5fbd

depth_conv.1.running_mean f4 [64]
0.4170845 -0.05702409 0.16140272 -0.042577263 0.032817587 -0.2123152 -0.06989605 -0.06260114
0.0838398 -0.035674486 0.023659077 -0.096929885 -0.06779963 0.14798942 -0.1836287 -0.18759732
-0.061532862 -0.35391378 -0.029619148 0.11533907 0.19639863 -0.011616992 0.09010393 0.081733406
0.084601775 0.19776632 -0.23394221 -0.2494004 0.10142875 -0.041174088 0.35748887 -0.06657223
-0.14339463 0.22359158 0.16766864 -0.16216427 0.04289462 0.109303184 0.029844388 -0.05301503
-0.0033306405 0.18537807 0.19089837 0.030790301 -0.09212427 -0.108648494 0.21765937 0.030961787
0.27412072 0.043910976 0.040866803 0.02159567 0.08559514 0.0145639 -0.08580576 -0.10222271
-0.20517349 0.1916165 0.37413046 -0.15367658 -0.3112823 -0.18866348 -0.2739459 -0.08132352
00000000: 198c d53e 1892 69bd c146 253e 7f65 2ebd
00000010: bc6b 063d 2869 59be a925 8fbd 0735 80bd
00000020: 33b4 ab3d 691f 12bd aed0 c13c 2d83 c6bd
00000030: 88da 8abd 8a8a 173e 2909 3cbe 8319 40be
00000040: e209 7cbd 3034 b5be dba3 f2bc e436 ec3d
00000050: b91c 493e 3255 3ebc 6988 b83d d863 a73d
00000060: b243 ad3d 4183 4a3e 8c8e 6fbe d262 7fbe
00000070: e0b9 cf3d 29a6 28bd c808 b73e 0557 88bd
00000080: 0bd6 12be 31f5 643e 54b1 2b3e 640e 26be
00000090: 45b2 2f3d 59da df3d 387c f43c 4a26 59bd
000000a0: e046 5abb c0d3 3d3e dd7a 433e f13b fc3c
000000b0: a6ab bcbd 1a83 debd 19e2 5e3e 93a3 fd3c
000000c0: 8d59 8c3e ffdb 333d f363 273d 67e9 b03c
000000d0: 814c af3d 6d9d 6e3c eeba afbd 245a d1bd
000000e0: 0019 52be 1e37 443e 078e bf3e 655d 1dbe
000000f0: 6560 9fbe 0031 41be a342 8cbe f28c a6bd

depth_conv.1.running_var f4 [64]
6.455386 1.5865604 1.8504832 1.0670321 1.2945578 2.8068101 1.6581624 2.0911534
3.018124 1.089138 1.917217 1.4025922 1.0680225 1.2147703 4.129621 3.112497
1.4449408 4.436911 0.92089605 2.344502 1.9517478 1.4363668 2.120523 3.5661383
1.8039774 2.094706 1.9262253 2.9644153 1.6429737 1.5079463 3.6956341 1.3317631
2.3851352 1.9997696 2.39045 1.8186572 0.7610612 1.6213772 1.9160651 1.1710774
1.9156274 2.638927 3.6134899 2.1911545 1.8467544 1.8488064 2.423309 1.8192092
3.4802213 1.5766014 3.709199 2.3943622 1.2673609 1.1045089 1.0387801 2.6794567
2.7875729 1.9138103 3.4257884 1.8438526 3.6729956 2.4890032 3.3886757 0.9022236
00000000: 8692 ce40 6914 cb3f a2dc ec3f 8294 883f
00000010: 12b4 a53f c7a2 3340 aa3e d43f 75d5 0540
00000020: f228 4140 e068 8b3f 5e67 f53f 2488 b33f
00000030: f6b4 883f 987d 9b3f db25 8440 2733 4740
00000040: d2f3 b83f 2dfb 8d40 d8bf 6b3f 520c 1640
00000050: dfd2 f93f deda b73f a6b6 0740 9c3b 6440
00000060: bbe8 e63f aa0f 0640 8d8e f63f fbb8 3d40
00000070: f64c d23f 6204 c13f 4585 6c40 3777 aa3f
00000080: 0ea6 1840 73f8 ff3f 22fd 1840 c2c9 e83f
00000090: e8d4 423f 4a89 cf3f 9f41 f53f dde5 953f
000000a0: 4733 f53f 2ee4 2840 6b43 6740 e03b 0c40
000000b0: 7362 ec3f b0a5 ec3f 7f17 1b40 d9db e83f
000000c0: f2bb 5e40 13ce c93f 8463 6d40 3b3d 1940
000000d0: e238 a23f 8c60 8d3f bff6 843f 387c 2b40
000000e0: 9867 3240 bcf7 f43f 1e40 5b40 5d03 ec3f
000000f0: 5c12 6b40 d44b 1f40 10e0 5840 20f8 663f

point_conv1.0.weight f4 [128, 64, 8]
0.02899015 -0.044250138 0.044885486 0.032460365 -0.047268454 -0.017138902 -0.0031102197 -0.039450772
-0.063211426 0.050198495 -0.12681207 0.02728189 -0.15873377 -0.13256373 0.018788569 0.06468438
0.09229614 0.054638665 0.080465704 0.05975587 -0.033353332 -0.073467456 0.03686781 -0.07829143
-0.023794046 0.00050001306 -0.019264782 -0.1031286 0.0021813125 -0.16142642 0.0049124844 0.17997687
0.015905512 -0.029649446 0.07853929 0.0011402281 -0.084763475 0.01789773 -0.06523607 0.06760406
-0.093210496 -0.020810628 0.040564314 -0.0136068035 0.040121704 0.08946074 -0.003566942 0.04935844
-0.075042315 0.06457028 0.099079154 0.061458416 -0.039202336 0.05677535 -0.024243087 -0.0062021036
-0.07940765 -0.061014026 -0.0206851 0.058975548 0.037864365 0.08128955 -0.00054080924 0.06310707
0.09924282 -0.03052521 0.16612653 -0.08067362 0.029228104 -0.057678234 0.021109853 0.04976419
-0.064532615 0.12266156 0.0018102019 -0.009035048 0.14630148 0.084223025 -0.004552308 -0.11937664
0.098693 -0.0694414 0.075432755 -0.1366578 0.061410863 -0.024307253 -0.016951555 -0.0037232095
0.05293926 -0.0016188012 -0.07597198 0.0065044975 0.009120126 -0.0987487 0.007819069 0.011800717
0.1180033 0.070373274 0.13946846 0.042858988 -0.015524831 0.086028896 0.016115624 0.15486962
-0.032715473 -0.033960946 0.0747112 -0.008620766 0.041527938 0.07665787 0.006819944 0.11087345
0.019588891 0.036571745 0.107342176 -0.05612054 0.07723878 -0.036422614 -0.07603444 -0.05883552
-0.019932672 -0.086683206 0.018822256 0.02534607 -0.09363624 0.003263518 0.041051492 -0.082297005
0.0061415853 -0.11963354 0.09423996 -0.059912268 0.07780993 0.11299175 0.022439737 -0.023266228
-0.01584854 -0.13508403 -0.0028827367 -0.018145472 -0.00030730048 -0.09352059 -0.037910357 -0.15610579
0.03607794 0.09992921 -0.026577197 0.08543643 0.048160292 -0.0237193 0.028117983 0.0821989
0.016280405 -0.027963607 -0.046414733 0.03796337 0.026558964 0.020394754 0.12506811 0.012178494
-0.05097866 -0.060822833 0.022430632 0.014644429 0.036976885 0.035009075 0.090560175 0.058444306
0.014214275 -0.079719506 0.097018644 0.050454453 0.010451568 0.05005661 0.12480842 0.016364576
-0.0628133 0.059070166 -0.080624916 0.06564448 -0.030296128 0.018831471 -0.026543738 -0.057157993
-0.112711765 0.07398978 -0.01618327 0.07907922 -0.02147252 -0.05867407 0.04205732 -0.12770693
0.093993634 -0.11274867 0.10734977 -0.062755436 -0.069856055 -0.11139205 -0.024325 -0.061968885
0.031433444 -0.017903073 -0.043812096 0.02970637 -0.067833856 -0.021038093 -0.13894476 -0.038750745
-0.10818952 -0.043116543 -0.007417657 -0.03426401 0.14050096 -0.07196963 -0.026077086 0.06042524
0.017999426 0.040182535 0.05622934 -0.07812501 -0.017814374 0.030854275 -0.03462534 -0.00041763115
0.08586919 0.024298599 0.026036331 -0.0005701355 0.043743946 -0.013514119 0.041691422 0.059463352
-0.0390713 -0.066422686 0.10686591 0.0015816395 -0.16835287 0.016416177 -0.10042882 0.08467289
0.09640651 0.12847304 0.13390744 -0.08449016 0.05298247 -0.015985958 -0.037242774 -0.0011145887
-0.111910105 0.05753313 0.093690395 0.0021147316 -0.06254913 0.030196106 0.045988303 0.04125601
00000000: c07c ed3c a23f 35bd d8d9 373d 29f5 043d
00000010: 919c 41bd e266 8cbc d4d4 4bbb 2297 21bd
00000020: fe74 81bd f09c 4d3d 06db 01be 457e df3c
00000030: 1b8b 22be c9be 07be 7cea 993c 3f79 843d
00000040: c205 bd3d cbcc 5f3d 34cb a43d 92c2 743d
00000050: 819d 08bd 1b76 96bd b302 173d 4257 a0bd
00000060: bbeb c2bc 4f13 033a 2dd1 9dbc 1635 d3bd
00000070: 5af4 0e3b f84c 25be e8f8 a03b db4b 383e
00000080: 474c 823c 65e3 f2bc 35d9 a03d b573 953a
00000090: 7998 adbd 439e 923c 7d9a 85bd ff73 8a3d
000000a0: 25e5 bebd 0d7b aabc c426 263d 12ef 5ebc
000000b0: a856 243d 3137 b73d 5bc3 69bb 132c 4a3d
000000c0: c9af 99bd 6c3d 843d 03ea ca3d d2bb 7b3d
000000d0: a192 20bd 458d 683d 7099 c6bc 043b cbbb
000000e0: 7aa0 a2bd d8e9 79bd cd73 a9bc 5890 713d
000000f0: aa17 1b3d 237b a63d 18c5 0dba 483e 813d
00000100: d23f cb3d 0110 fabc 131d 2a3e 3638 a5bd
00000110: c76f ef3c 0340 6cbd 92ee ac3c 89d5 4b3d
00000120: ad29 84bd fc35 fb3d 4c44 ed3a bd07 14bc
00000130: 0ed0 153e 1f7d ac3d 872b 95bb bd7b f4bd
00000140: 8e1f ca3d 4b37 8ebd 7d7c 9a3d 06f0 0bbe
00000150: f589 7b3d 0120 c7bc fddd 8abc 1701 74bb
00000160: d6d6 583d f42d d4ba 3397 9bbd ae23 d53b
00000170: 956c 153c c23c cabd 8d1b 003c cb57 413c
00000180: b7ab f13d dd1f 903d d2d0 0e3e e88c 2f3d
00000190: dc5b 7ebc eb2f b03d ea04 843c 2496 1e3e
000001a0: a900 06bd a21a 0bbd 3002 993d 1d3e 0dbc
000001b0: 3319 2a3d cdfe 9c3d d679 df3b 9f11 e33d
000001c0: e278 a03c 41cc 153d 37d6 db3d a7de 65bd
000001d0: 5e2f 9e3d e12f 15bd f2b7 9bbd 84fd 70bd
000001e0: d849 a3bc f786 b1bd 2231 9a3c 90a2 cf3c
000001f0: 5bc4 bfbd bfe0 553b 9c25 283d 558b a8bd
00000200: 5a3f c93b 6e02 f5bd e100 c13d 9166 75bd
00000210: d05a 9f3d 3868 e73d 8ad3 b73c d198 bebc
00000220: ccd4 81bc 7853 0abe 4cec 3cbb d0a5 94bc
00000230: 2c1d a1b9 b987 bfbd e447 1bbd 32da 1fbe
00000240: 76c6 133d b0a7 cc3d 6cb8 d9bc 4cf9 ae3d
00000250: ba43 453d fa4e c2bc af57 e63c e657 a83d
00000260: 7c5e 853c ef13 e5bc 601d 3ebd 7b7f 1b3d
00000270: 2f92 d93c e612 a73c db11 003e 4e88 473c
00000280: 00cf 50bd 5d21 79bd 72c0 b73c 30ef 6f3c
00000290: 1375 173d ad65 0f3d 9d77 b93d 4c63 6f3d
000002a0: fee2 683c fb43 a3bd b6b1 c63d 54a9 4e3d
000002b0: 0e3d 2b3c 2908 4d3d 8f9b ff3d 010f 863c
000002c0: 42a4 80bd 8ff3 713d ad1e a5bd 9d70 863d
000002d0: 962f f8bc 7544 9a3c 4172 d9bc 801e 6abd
000002e0: 6dd5 e6bd f487 973d c792 84bc 49f4 a13d
000002f0: 23e7 afbc 3954 70bd 4c44 2c3d 9bc5 02be
00000300: bc7f c03d c6e8 e6bd 32da db3d ec85 80bd
00000310: b110 8fbd 8421 e4bd 3945 c7bc 16d3 7dbd
00000320: 5bc0 003d 77a9 92bc 5074 33bd c65a f33c
00000330: 7aec 8abd 1458 acbc 8947 0ebe 1ab9 1ebd
00000340: 7892 ddbd f99a 30bd d10f f3bb 6b58 0cbd
00000350: 7cdf 0f3e d064 93bd 9d9f d5bc 7580 773d
00000360: 8873 933c 7196 243d bd50 663d 0100 a0bd
00000370: 73ef 91bc 1bc2 fc3c 4dd3 0dbd 81f5 dab9
00000380: 30dc af3d db0d c73c 254a d53c 2575 15ba
00000390: da2c 333d 536a 5dbc a0c4 2a3d d88f 733d
000003a0: 3a09 20bd 9e08 88bd 84dc da3d 044f cf3a
000003b0: b264 2cbe 387b 863c a0ad cdbd fb68 ad3d
000003c0: c770 c53d 708e 033e 081f 093e 2d09 adbd
000003d0: 2504 593d fcf4 82bc e18b 18bd 6417 92ba
000003e0: 2031 e5bd dca7 6b3d c0e0 bf3d 4f97 0a3b
000003f0: c219 80bd d35d f73c 3b5e 3c3d 10fc 283d

point_conv1.1.weight f4 [128]
0.9981382 0.99751246 0.9589896 0.987686 0.9814359 0.9774779 1.0187659 0.98853207
0.9506474 0.99892074 0.9899723 0.9094631 0.98665273 0.9760745 0.97898823 1.0239239
0.94960266 0.9872438 1.0287833 0.96811825 1.0248986 1.0024346 1.0329534 0.9939995
0.9645643 1.0140322 0.94234914 0.97051114 0.9713783 0.9937319 0.9446471 0.94258577
1.0070343 0.987825 1.0222205 0.978356 0.97307676 0.9699608 0.9889248 0.9493014
0.9709345 0.9613374 0.9934802 0.9948688 0.9304764 0.90383756 1.0110232 0.9665365
1.0168464 0.9329208 0.9563302 1.0290765 0.9576029 0.9740068 0.9592524 0.9536504
0.9876086 0.96963763 0.94318974 1.0033514 1.0278968 0.96009254 0.9749816 0.99155056
0.92797035 0.9819551 1.0131776 0.9777768 0.97261614 0.959435 0.9642365 0.96785414
0.9725795 0.9831633 1.0488334 0.93519294 0.99703366 1.0147792 0.9943057 1.0131778
0.97561985 1.016903 0.95617324 0.966032 1.0215132 0.98475885 0.97360164 0.9935739
1.0372187 0.9941447 0.9705333 0.9486696 0.920561 1.0163736 0.96308154 1.0184877
0.97079 1.0117172 0.99136156 0.963346 1.021405 0.9448316 0.9634599 0.97909975
0.9732848 0.97723836 1.021214 0.96278685 0.92435837 0.98960966 1.0044526 0.9496777
0.96185404 0.95895857 0.96750706 0.9733052 1.0408199 0.9820779 0.982365 0.9711857
0.95670855 0.97777325 0.9802034 0.9410523 0.9597193 1.0200336 1.0154812 0.9604039
00000000: fc85 7f3f fa5c 7f3f 5880 753f fdd8 7c3f
00000010: 623f 7b3f fe3b 7a3f ec66 823f 7010 7d3f
00000020: a15d 733f 45b9 7f3f d36e 7d3f 93d2 683f
00000030: 4695 7c3f 05e0 793f f99e 7a3f f00f 833f
00000040: 2919 733f 02bc 7c3f 2caf 833f 99d6 773f
00000050: e12f 833f c74f 803f d137 843f c076 7e3f
00000060: b0ed 763f cfcb 813f cb3d 713f 6b73 783f
00000070: 40ac 783f 3765 7e3f 64d4 713f 4d4d 713f
00000080: 80e6 803f 19e2 7c3f 1fd8 823f 8a75 7a3f
00000090: 8f1b 793f 5a4f 783f 2d2a 7d3f 6b05 733f
000000a0: 2a8f 783f 351a 763f b854 7e3f b9af 7e3f
000000b0: b433 6e3f e661 673f 3569 813f f06e 773f
000000c0: 0628 823f e6d3 6e3f 0ed2 743f c7b8 833f
000000d0: 7725 753f 8258 793f 9191 753f 6f22 743f
000000e0: ebd3 7c3f 2c3a 783f e274 713f d26d 803f
000000f0: 1f92 833f a0c8 753f 6598 793f 42d6 7d3f
00000100: 778f 6d3f 6961 7b3f ceaf 813f 954f 7a3f
00000110: 5ffd 783f 889d 753f 34d8 763f 4ac5 773f
00000120: f8fa 783f 97b0 7b3f 2c40 863f ce68 6f3f
00000130: 993d 7f3f 49e4 813f d18a 7e3f cfaf 813f
00000140: 39c2 793f e129 823f c5c7 743f e04d 773f
00000150: f2c0 823f 2819 7c3f f53d 793f dc5a 7e3f
00000160: 95c3 843f 4480 7e3f df74 783f 03dc 723f
00000170: e3a9 6b3f 8818 823f 838c 763f ce5d 823f
00000180: b285 783f f37f 813f dfc9 7d3f d89d 763f
00000190: 66bd 823f 7ce0 713f 4fa5 763f 48a6 7a3f
000001a0: 3129 793f 4b2c 7a3f 24b7 823f 3379 763f
000001b0: c0a2 6c3f 0f57 7d3f e791 803f 141e 733f
000001c0: 113c 763f 4f7e 753f 8bae 773f 882a 793f
000001d0: 9639 853f 7569 7b3f 467c 7b3f a09f 783f
000001e0: daea 743f 594f 7a3f 9cee 7a3f cee8 703f
000001f0: 2ab0 753f 7690 823f 4afb 813f 08dd 753f

point_conv1.1.bias f4 [128]
0.014561481 -0.013119816 -0.03631252 -0.0062751835 -0.02789412 -0.025367884 0.04154665 0.011725401
-0.030463979 0.02091391 -0.002852979 -0.085393384 0.0040261415 -0.025623884 -0.013799365 0.026025474
-0.049288474 -0.0025016512 0.024488159 -0.006038049 0.033548385 -0.0008603731 0.029530127 -0.011479292
-0.027571358 0.04067648 -0.0565993 -0.034833822 -0.020474264 0.0006581102 -0.07519313 -0.075717606
0.027789256 0.006515535 0.04378324 -0.022595609 -0.015759893 -0.029094359 0.012084221 -0.046981674
-0.015665028 -0.037499815 8.793852e-05 0.005367171 -0.03853859 -0.06842864 0.051168792 -0.046363987
0.023033956 -0.08795878 -0.04535822 0.022158807 -0.04669118 -0.03138906 -0.030627254 -0.017751284
0.004925706 -0.0030183813 -0.08180321 0.024904037 0.054320857 -0.0074966503 -0.01136165 -0.006693986
-0.08390215 -0.024823653 0.024371387 -0.019051734 -0.009152172 -0.06037934 -0.0072121304 -0.028701497
0.005145323 0.021371827 0.066955514 -0.07878168 -0.0024659496 0.03807928 0.027719034 0.03297333
-0.021485023 0.041120194 -0.05869126 -0.02256037 0.017385686 -0.002199848 0.06435842 0.018992452
0.056334868 0.018136203 -0.030153362 -0.07025691 -0.09314374 0.039631773 -0.03984998 0.04340092
-0.021659851 0.0372618 0.008610617 -0.03260556 0.0375019 -0.06401098 -0.015367717 -0.005792511
-0.040855385 -0.029037569 0.00860665 -0.040209685 -0.06859378 -0.009602288 0.0048969635 -0.02751818
-0.005132061 -0.01697207 -0.012835325 -0.0072953575 0.06639339 -0.0138013875 -0.02945241 -0.031174907
-0.040878613 -0.031445097 -0.02977638 -0.03226745 -0.0031979466 0.07817296 0.02248898 -0.028484015
00000000: 4793 6e3c 7ff4 56bc 70bc 14bd 0ea0 cdbb
00000010: 3682 e4bc 4fd0 cfbc d22c 2a3d e51b 403c
00000020: 988f f9bc a653 ab3c 0cf9 3abb bae2 aebd
00000030: b9ed 833b 2ee9 d1bc bb16 62bc 6033 d53c
00000040: b6e2 49bd bef2 23bb 649b c83c d3da c5bb
00000050: 086a 093d a98a 61ba 2ae9 f13c a413 3cbc
00000060: 54dd e1bc 619c 263d abd4 67bd e9ad 0ebd
00000070: a5b9 a7bc 0785 2c3a dbfe 99bd d511 9bbd
00000080: 4ba6 e33c 4580 d53b 0e56 333d 6d1a b9bc
00000090: e41a 81bc 4b57 eebc e5fc 453c db6f 40bd
000000a0: f253 80bc 6899 19bd a26b b838 18df af3b
000000b0: a4da 1dbd 5124 8cbd 5e96 513d 2ae8 3dbd
000000c0: b5b1 bc3c bc23 b4bd 8ac9 39bd 6386 b53c
000000d0: 403f 3fbd d191 00bd 02e6 fabc 246b 91bc
000000e0: d167 a13b 09d0 45bb 7188 a7bd 8d03 cc3c
000000f0: 8c7f 5e3d 76a6 f5bb 3726 3abc 3959 dbbb
00000100: e4d4 abbd f95a cbbc 81a6 c73c 6212 9cbc
00000110: fef2 15bc 5450 77bd bc53 ecbb 671f ebbc
00000120: 199a a83b f813 af3c f91f 893d 4a58 a1bd
00000130: c59b 21bb 05f9 1b3d 0713 e33c 0b0f 073d
00000140: 5c01 b0bc a66d 283d 3f66 70bd 86d0 b8bc
00000150: 6d6c 8e3c 532b 10bb 59ce 833d 0f96 9b3c
00000160: 64bf 663d 6092 943c 2f04 f7bc dbe2 8fbd
00000170: 25c2 bebd ed54 223d bc39 23bd 2ac5 313d
00000180: 0070 b1bc d49f 183d 8c13 0d3c 688d 05bd
00000190: 989b 193d 3018 83bd e0c8 7bbc 1bcf bdbb
000001a0: fa57 27bd 32e0 edbc e802 0d3c e9b2 24bd
000001b0: e57a 8cbd ea52 1dbc b576 a03b ce6d e1bc
000001c0: d92a a8bb 0309 8bbc 414b 52bc e50d efbb
000001d0: 42f9 873d 371f 62bc 2e46 f1bc 8562 ffbc
000001e0: 5570 27bd 93cc 00bd 98ed f3bc e02a 04bd
000001f0: a494 51bb 2519 a03d cf3a b83c 4f57 e9bc

point_conv1.1.running_mean f4 [128]
0.34464562 0.46272448 -0.024353508 0.13902923 0.37761387 -0.14297847 -0.23814611 0.2726886
0.42723805 0.1983759 0.29526302 -0.22433792 -0.056570377 -0.16343589 -0.007675589 -0.18898366
0.6476661 -0.17247294 -0.22067302 0.33015314 -0.2467416 0.22534591 -0.065991335 0.36445764
-0.029696012 -0.12596247 0.098892674 0.00734922 0.04799065 -0.019700417 0.1906472 0.20613244
-0.06089459 -0.007098295 -0.056709524 -0.36078623 0.048935007 0.037964687 0.29961511 0.4121093
0.35668132 0.0046801246 0.23740965 -0.5902409 -0.06069191 0.62222284 -0.35833144 0.6145366
0.24439614 -0.086415954 -0.26523152 -0.16092664 -0.057003137 0.5294743 0.48050922 -0.52768826
0.14457369 -0.2978572 0.0189866 0.40362197 0.23715317 0.23557645 -0.052329108 0.024833325
0.09169425 0.18371934 -0.16469467 0.48179898 0.74861455 0.73202395 0.029525273 0.56197995
-0.07516841 -0.2090481 0.07265406 0.2509089 0.07360639 0.31936255 0.059661992 -0.0035499844
0.09688488 -0.09720838 0.48969272 0.4968396 -0.17774923 0.21983777 0.49379462 0.011457313
-0.18830554 0.67970884 0.27294967 0.30610764 0.007202734 0.7602929 -0.07709467 -0.10912806
0.36210877 0.19328822 -0.35438907 0.24454445 0.064052984 0.3183827 0.16560629 0.05041723
-0.020893347 0.66788274 0.0036284318 0.20955536 0.1392481 -0.2665186 0.6979183 -0.08416439
-0.19464448 -0.007975766 0.2830185 -0.11605992 0.1952202 0.13784462 -0.102972746 0.3241992
-0.42353478 0.25697324 0.18492822 -0.32027107 0.24937038 -0.33615094 -0.073939346 0.68498665
00000000: 6475 b03e 39ea ec3e 0281 c7bc ae5d 0e3e
00000010: 9b56 c13e f368 12be 93dc 73be d79d 8b3e
00000020: f2be da3e 0d23 4b3e b72c 973e d7b8 65be
00000030: 57b6 67bd bd5b 27be 8283 fbbb ef84 41be
00000040: 72cd 253f bf9c 30be 1cf8 61be d509 a93e
00000050: d4a9 7cbe 14c1 663e 7726 87bd 319a ba3e
00000060: 0d45 f3bc 4efc 00be 3e88 ca3d bad1 f03b
00000070: d891 443d c562 a1bc 0539 433e 6214 533e
00000080: 9b6c 79bd d098 e8bb 3f48 68bd f9b8 b8be
00000090: 1370 483d dc80 1b3d 2767 993e fdff d23e
000000a0: ef9e b63e bb5b 993b 841b 733e 071a 17bf
000000b0: 1598 78bd ff49 1f3f 3877 b7be 4552 1d3f
000000c0: fb42 7a3e d9fa b0bd 6dcc 87be f4c9 24be
000000d0: 1f7c 69bd a18b 073f 4e05 f63e 9416 07bf
000000e0: 200b 143e bd80 98be c989 9b3c 8aa7 ce3e
000000f0: 48d8 723e f43a 713e 0c57 56bd 426f cb3c
00000100: 32ca bb3d ec20 3c3e b8a5 28be 5bae f63e
00000110: 34a5 3f3f ec65 3b3f fcde f13c ebdd 0f3f
00000120: e5f1 99bd b510 56be a7cb 943d 2277 803e
00000130: f2be 963d 7d83 a33e 2260 743d dba6 68bb
00000140: 946b c63d 3015 c7bd 01b9 fa3e c361 fe3e
00000150: e503 36be 271d 613e a6d2 fc3e 74b7 3b3c
00000160: 2bd3 40be 6601 2e3f 0fc0 8b3e 24ba 9c3e
00000170: e904 ec3b 8ea2 423f cfe3 9dbd 887e dfbd
00000180: 5266 b93e 59ed 453e 7c72 b5be dc69 7a3e
00000190: 362e 833d 0f03 a33e b294 293e 4c82 4e3d
000001a0: 8628 abbc 5dfa 2a3f fcca 6d3b ae95 563e
000001b0: 0e97 0e3e 2075 88be c6aa 323f 615e acbd
000001c0: e250 47be caac 02bc cde7 903e d3b0 edbd
000001d0: cee7 473e 2427 0d3e 60e3 d2bd 70fd a53e
000001e0: 8dd9 d8be ff91 833e d35d 3d3e 92fa a3be
000001f0: f35a 7f3e fa1b acbe 836d 97bd 495b 2f3f

point_conv1.1.running_var f4 [128]
1.2789512 1.487779 1.2800636 1.4062848 1.7152373 1.4045862 1.5381802 1.3829767
1.2281662 2.2394302 1.429518 1.9343103 1.6231272 2.021316 1.6651531 2.2978332
2.1881208 1.5614855 2.4880915 1.7781584 1.7860485 1.2879082 2.2279973 1.5762719
1.5308235 2.0166204 1.1828728 1.2472146 1.6119016 1.3802742 1.1920999 1.4942151
2.3900187 1.374551 2.4404707 1.658208 1.4622082 1.3007182 1.1770573 1.84424
1.4233172 1.2183962 1.5026958 1.5051877 1.2119101 1.9225303 1.7971902 1.6124558
2.1339526 1.2484524 1.7683929 1.8704203 1.4202365 1.2571791 1.7419885 1.899529
1.6282551 1.4658037 1.6775063 1.8379221 2.2761667 1.3745886 1.7702239 2.2681117
1.4704938 1.4133644 1.9131181 2.0666637 1.6678267 1.784968 1.2092819 1.6313223
1.7431622 1.24459 2.8615363 2.0591636 1.7284137 1.8730482 1.5145179 1.4721828
1.2126666 1.8773378 1.5977756 1.0867757 1.9000612 1.1842066 1.7354267 1.7073203
1.4316231 1.7946736 1.9507198 1.385762 1.9055074 2.2649264 1.7931573 1.8277494
1.5288143 1.3870939 2.0891879 1.8643014 1.4332594 1.3372384 1.4406666 1.618331
1.6911987 2.1121294 1.3121911 1.3839753 1.4002686 1.7118697 1.8274812 1.3796036
0.9915902 1.8364414 1.0318931 1.7244925 1.7073777 1.2576405 1.2910122 1.4477235
1.8668422 1.9546273 1.5447712 1.5670514 1.253932 1.6453567 2.1561315 2.1666167
00000000: acb4 a33f 8b6f be3f 20d9 a33f 2401 b43f
00000010: e58c db3f 7bc9 b33f 17e3 c43f 6105 b13f
00000020: 8d34 9d3f d352 0f40 72fa b63f 7b97 f73f
00000030: a2c2 cf3f 3e5d 0140 bd23 d53f b30f 1340
00000040: 2c0a 0c40 c2de c73f e43c 1f40 b29a e33f
00000050: 3d9d e43f 2dda a43f 8297 0e40 47c3 c93f
00000060: 06f2 c33f 4f10 0140 6068 973f baa4 9f3f
00000070: cb52 ce3f d3ac b03f bb96 983f 7142 bf3f
00000080: 11f6 1840 4af1 af3f ac30 1c40 2940 d43f
00000090: a329 bb3f ef7d a63f d0a9 963f 0e10 ec3f
000000a0: 422f b63f 68f4 9b3f 5658 c03f fea9 c03f
000000b0: df1f 9b3f 7915 f63f 540a e63f f464 ce3f
000000c0: ae92 0840 4acd 9f3f b35a e23f ef69 ef3f
000000d0: 4fca b53f 3feb a03f 7bf9 de3f c423 f33f
000000e0: aa6a d03f 759f bb3f 87b8 d63f 0841 eb3f
000000f0: b7ac 1140 85f2 af3f b296 e23f be28 1140
00000100: 2439 bc3f 20e9 b43f 0ee1 f43f 3844 0440
00000110: 587b d53f d579 e43f c0c9 9a3f 2bcf d03f
00000120: f01f df3f ba4e 9f3f 6923 3740 56c9 0340
00000130: a93c dd3f 0bc0 ef3f b9db c13f 7c70 bc3f
00000140: a938 9b3f 9b4c f03f e983 cc3f 771b 8b3f
00000150: 3535 f33f 1594 973f 7622 de3f 7989 da3f
00000160: 6d3f b73f ddb7 e53f 30b1 f93f a660 b13f
00000170: abe7 f33f 8ef4 1040 2e86 e53f b1f3 e93f
00000180: 30b0 c33f 4b8c b13f 41b5 0540 6ea1 ee3f
00000190: 0b75 b73f a12a ab3f c367 b83f 7825 cf3f
000001a0: 3379 d83f 212d 0740 e1f5 a73f 1a26 b13f
000001b0: 003c b33f 8c1e db3f e7ea e93f da96 b03f
000001c0: dbd8 7d3f 8310 eb3f 1315 843f 2cbc dc3f
000001d0: 5a8b da3f 5dfa a03f e33f a53f 014f b93f
000001e0: aff4 ee3f 3a31 fa3f 10bb c53f 2495 c83f
000001f0: d880 a03f 0c9b d23f 0ffe 0940 d9a9 0a40

attention.0.weight f4 [1, 128, 1]
-0.05819449 0.03643449 0.008765571 -0.059931405 -0.05419504 -0.020969858 -0.18085654 -0.06169014
-0.013822076 -0.07138909 -0.032683507 0.12283274 -0.060532212 0.008952934 0.0368005 -0.16781014
0.03811106 -0.07208697 -0.11536621 -0.07257896 -0.21117465 -0.015984578 -0.16587503 -0.06950167
0.025857203 -0.17857616 -0.020872736 0.043522347 -0.031151634 -0.08185797 0.14532587 0.073855646
-0.18792108 -0.10723554 -0.22638148 0.003360799 0.0029444322 0.00044646038 -0.08169871 0.017397989
-0.022202436 0.02725517 -0.09123818 -0.09488249 0.022903563 0.06871274 -0.2854976 0.068691745
-0.1497656 0.17559369 0.111186706 -0.21828124 0.05008038 -0.02550423 0.055867746 -0.08200043
-0.10950723 -0.109050244 0.110634625 -0.06655105 -0.26895458 -0.03439212 -0.061877374 -0.093044385
0.13343659 0.01853316 -0.19303861 -0.069240354 -0.052582208 0.04405786 -0.07409285 0.020155368
-0.08262745 -0.1196749 -0.29389706 0.1700855 -0.099994674 -0.124307185 -0.13379396 -0.27871042
0.055293426 -0.16255316 0.10618062 0.07031972 -0.16730757 -0.09238547 -0.2776584 -0.10294778
-0.25362337 -0.07916395 0.040837754 0.1041786 0.25805345 -0.25474012 -0.0345477 -0.1907646
-0.016793257 -0.16862412 -0.13106875 0.033416048 -0.1427327 0.023796817 -0.033068776 -0.10833877
0.14824218 -0.036405012 -0.14246385 0.038546015 0.03410309 -0.0733923 -0.122066006 0.055113763
-0.055247225 -0.06031441 -0.053098086 -0.061660558 -0.15489633 -0.0047225277 0.07784207 -0.03325324
-0.006283197 -0.006290361 0.028939616 -0.0066844337 -0.05357524 -0.32883248 -0.15437359 0.059482764
00000000: 585d 6ebd 553c 153d 789d 0f3c a27a 75bd
00000010: 9efb 5dbd fbc8 abbc 7532 39be cdae 7cbd
00000020: fd75 62bc 7134 92bd 24df 05bd bb8f fb3d
00000030: a0f0 77bd 54af 123c 1fbc 163d 6cd6 2bbe
00000040: 581a 1c3d 55a2 93bd 1f45 ecbd 47a4 94bd
00000050: 2b3e 58be 17f2 82bc 25db 29be e456 8ebd
00000060: 7cd2 d33c abdc 36be 4dfd aabc 7d44 323d
00000070: b631 ffbc 27a5 a7bd 4ed0 143e a141 973d
00000080: 626e 40be 4f9e dbbd 8cd0 67be da40 5c3b
00000090: 60f7 403b e612 ea39 a751 a7bd 3a86 8e3c
000000a0: e2e1 b5bc 3c46 df3c 15db babd c051 c2bd
000000b0: 41a0 bb3c 44b9 8c3d be2c 92be 42ae 8c3d
000000c0: 275c 19be d5ce 333e dbb5 e33d 1e85 5fbe
000000d0: 1621 4d3d 3fee d0bc 94d5 643d d7ef a7bd
000000e0: 5445 e0bd bc55 dfbd 6894 e23d eb4b 88bd
000000f0: 6ab4 89be c0de 0cbd 2173 7dbd 0e8e bebd
00000100: 9aa3 083e dbd2 973c eaab 45be e3cd 8dbd
00000110: 7160 57bd 0476 343d febd 97bd df1c a53c
00000120: 9538 a9bd 1d18 f5bd ad79 96be e52a 2e3e
00000130: 02ca ccbd c494 febd 4901 09be 22b3 8ebe
00000140: 5c7b 623d 5674 26be 3a75 d93d c903 903d
00000150: ad52 2bbe 9834 bdbd 3e29 8ebe 49d6 d2bd
00000160: ecda 81be b620 a2bd 7d45 273d 975b d53d
00000170: 951f 843e 4c6d 82be e481 0dbd cc57 43be
00000180: 0392 89bc cdab 2cbe e336 06be 44df 083d
00000190: 8528 12be 8bf1 c23c 2073 07bd b8e0 ddbd
000001a0: cccc 173e 6c1d 15bd 0be2 11be 6de2 1d3d
000001b0: afaf 0b3d b44e 96bd befd f9bd f8be 613d
000001c0: ea4a 62bd 3e0c 77bd 617d 59bd c88f 7cbd
000001d0: 259d 1ebe 6fbf 9abb aa6b 9f3d 8d34 08bd
000001e0: 47e3 cdbb 5f1f cebb c612 ed3c 1809 dbbb
000001f0: b671 5bbd bb5c a8be 1c14 1ebe 33a4 733d

classifier.0.weight f4 [256, 128]
-0.022414658 -0.15858391 -0.00094077934 0.07539269 -0.051630888 0.045019083 -0.070766374 0.0530479
-0.040518217 -0.03165345 0.11325943 -0.044621907 -0.11946807 -0.023246218 -0.012168563 0.073756814
0.059239503 -0.13427122 -0.043765403 0.12615147 -0.030691428 0.023905663 -0.07068585 -0.00021313124
0.047231477 0.0021075192 -0.062160484 -0.07606192 0.0970179 -0.078086495 0.0018310891 -0.030465277
-0.16383013 -0.07905247 0.10982686 -0.008013989 -0.11605936 0.112660326 0.03793057 -0.099314146
-0.011129508 -0.19080108 0.07468304 -0.071969256 -0.025297662 0.08007273 -0.19130412 0.06927968
-0.12558302 -0.019369503 -0.07471931 0.03755102 0.012330646 0.13408107 -0.005770774 -0.08414623
-0.03185962 -0.0022387037 0.07847138 0.055632144 -0.043820005 -0.008785171 0.0033024368 0.034669917
-0.08906101 0.09221783 0.04256196 -0.06801103 -0.04815505 -0.023798 -0.071877226 -0.021731893
0.0053819953 -0.019524619 -0.050263945 0.07962048 -0.1399352 -0.051346254 -0.12629287 -0.04161438
-0.037308063 -0.018203702 -0.064226106 -0.026228843 -0.001118946 -0.0032006411 0.008554412 -0.061309077
0.07471681 0.12493771 -0.0764691 -0.06590999 -0.09935357 -0.118813746 -0.07395293 -0.06493042
-0.08988044 -0.06747994 0.0003058968 -0.09921359 -0.018528797 -0.07867463 0.039984316 -0.03857105
0.1084728 -0.010738461 -0.06687412 -0.046534717 0.09791612 0.063858196 -0.047632914 0.18706651
-0.05653682 0.06063859 0.0547355 -0.07590121 -0.044059362 0.025708195 0.07271238 -0.058185488
-0.0751091 0.039307535 -0.042460598 -0.18234947 0.0016728987 0.009134761 -0.013831074 -0.008414803
-0.07028365 0.15029038 -0.12181372 0.10349117 0.12348079 0.0545661 -0.018061006 -0.024230966
0.18299663 -0.036247615 -0.011657112 0.05818926 -0.11838306 -0.060032573 0.16113675 0.11386984
-0.020616138 0.044694096 -0.0047111064 0.06909016 -0.012611806 0.08747675 0.10622247 -0.061227817
-0.017711032 -0.12502508 -0.09223931 -0.040330067 -0.05832938 0.039567996 -0.10482959 -0.08504507
-0.06610566 0.09780132 0.1272765 -0.016016694 -0.016276468 -0.07148185 0.12971318 0.09937293
-0.0681615 0.029020797 0.11899453 -0.06088574 -0.024343224 0.16332252 0.043973505 0.0032764392
-0.032587618 0.12509061 -0.113865614 -0.085055456 -0.09933619 -0.005077439 0.010201881 -0.06507904
-0.0025303424 -0.09443256 -0.050980482 -0.059690185 0.15354522 0.041350786 0.11791355 -0.11702538
0.076394916 -0.000987783 -0.14192376 -0.07689977 -0.002620533 -0.090304725 -0.05509842 -0.04503646
0.12337893 -0.055809014 -0.055579733 0.074643016 -0.065150015 0.08426975 0.031312544 -0.10718123
0.06826871 0.055719953 -0.09758437 -0.07010973 0.050707255 0.017535085 -0.0335476 0.038339138
-0.005973056 -0.022950979 0.17457679 0.16239224 -0.101596 0.03293904 -0.072419316 -0.08655551
-0.08416098 -0.11921604 0.02182302 -0.06509898 0.11514265 -0.02624629 -0.096067086 0.1344476
-0.073513106 0.07199012 -0.14824675 -0.10288925 -0.03510915 -0.042157494 -0.019556994 -0.036963027
-0.10201989 -0.06490441 0.02510702 -0.0053084567 -0.06342546 0.0382641 0.037449207 -0.00809053
0.014643244 -0.04208255 0.035730287 -0.09177001 -0.023242157 0.050511833 0.0085698515 0.0008451084
00000000: f29e b7bc d263 22be a29e 76ba 7c67 9a3d
00000010: e97a 53bd ee65 383d f6ed 90bd c148 593d
00000020: 6ef6 25bd 0ca7 01bd 8ff4 e73d 76c5 36bd
00000030: adab f4bd da6e bebc a75e 47bc d00d 973d
00000040: 1fa5 723d 657e 09be 5a43 33bd da2d 013e
00000050: 976c fbbc cfd5 c33c bec3 90bd fb7b 5fb9
00000060: cb75 413d 4e1e 0a3b fe9b 7ebd 5ac6 9bbd
00000070: 52b1 c63d d0eb 9fbd 2801 f03a 5192 f9bc
00000080: 16c3 27be 43e6 a1bd e8ec e03d 1b4d 03bc
00000090: 88b0 edbd 75ba e63d 165d 1b3d 3765 cbbd
000000a0: 8a58 36bc 5c61 43be 6cf3 983d 9e64 93bd
000000b0: 0b3d cfbc 2cfd a33d 3ae5 43be 81e2 8d3d
000000c0: d698 00be cbac 9ebc 7006 99bd 19cf 193d
000000d0: 7a06 4a3c 8c4c 093e c318 bdbb dc54 acbd
000000e0: 3c7f 02bd 37b7 12bb 9ab5 a03d 88de 633d
000000f0: 9b7c 33bd aeef 0fbc b26d 583b 0b02 0e3d
00000100: 9e65 b6bd b4dc bc3d 7355 2e3d 5e49 8bbd
00000110: 3b3e 45bd 06f4 c2bc 5e34 93bd 1507 b2bc
00000120: 735b b03b 18f2 9fbc 91e1 4dbd 1010 a33d
00000130: 2c4b 0fbe 7350 52bd eb52 01be d773 2abd
00000140: 57d0 18bd ee1f 95bc fa88 83bd dfdd d6bc
00000150: 99a9 92ba d9c1 51bb ce27 0c3c 3a1f 7bbd
00000160: 2005 993d 58df ff3d d59b 9cbd d1fb 86bd
00000170: e279 cbbd 9f54 f3bd a274 97bd 3dfa 84bd
00000180: 3c13 b8bd ec32 8abd c660 a039 7f30 cbbd
00000190: b4c9 97bc 2a20 a1bd 98c6 233d adfc 1dbd
000001a0: fd26 de3d 5ff0 2fbc 4cf5 88bd 309b 3ebd
000001b0: 3f88 c83d 16c8 823d bb1a 43bd 5d8e 3f3e
000001c0: 2793 67bd 2c60 783d 5532 603d 1872 9bbd
000001d0: 9777 34bd fe99 d23c 3aea 943d e853 6ebd
000001e0: cdd2 99bd f000 213d 2aeb 2dbd d2b9 3abe
000001f0: 2a45 db3a f7a9 153c bb9b 62bc 3ede 09bc
00000200: e0f0 8fbd b9e5 193e 7979 f9bd 2ef3 d33d
00000210: 7fe3 fc3d b480 5f3d adf4 93bc 0580 c6bc
00000220: 7863 3b3e 6178 14bd 79fd 3ebc dd57 6e3d
00000230: d172 f2bd b7e4 75bd 0801 253e 9734 e93d
00000240: 2de3 a8bc 2811 373d a05f 9abb 247f 8d3d
00000250: c0a1 4ebc 0327 b33d 2b8b d93d 05ca 7abd
00000260: ba16 91bc 9306 00be f7e7 bcbd 2431 25bd
00000270: caea 6ebd 0d12 223d e5b0 d6bd 1c2c aebd
00000280: 6762 87bd 0f4c c83d c554 023e 7135 83bc
00000290: 3a56 85bc 1465 92bd 88d3 043e 0984 cb3d
000002a0: 4298 8bbd 06bd ed3c 67b3 f33d 5363 79bd
000002b0: 716b c7bc 053e 273e 901d 343d 87b9 563b
000002c0: 987a 05bd c117 003e 6032 e9bd 8e31 aebd
000002d0: c670 cbbd a560 a6bb ca25 273c 2948 85bd
000002e0: 1ad4 25bb dc65 c1bd e9d0 50bd b27d 74bd
000002f0: f53a 1d3e 715f 293d a97c f13d 01ab efbd
00000300: f074 9c3d 7f78 81ba 7654 11be a07d 9dbd
00000310: 40bd 2bbb aff1 b8bd e1ae 61bd 2778 38bd
00000320: 18ae fc3d fe97 64bd 93a7 63bd 70de 983d
00000330: 5f6d 85bd 9e95 ac3d 9541 003d d581 dbbd
00000340: 77d0 8b3d 9b3a 643d 50da c7bd b195 8fbd
00000350: 69b2 4f3d bda5 8f3c 3569 09bd 8009 1d3d
00000360: a0b9 c3bb b103 bcbc 42c4 323e 274a 263e
00000370: 9011 d0bd 16eb 063d 9450 94bd 0444 b1bd
00000380: 985c acbd 8a27 f4bd 31c6 b23c 9d52 85bd
00000390: e9cf eb3d 7602 d7bc d2be c4bd a2ac 093e
000003a0: 0a8e 96bd 8e6f 933d ffcd 17be 99b7 d2bd
000003b0: 9dce 0fbd 56ad 2cbd fd35 a0bc 8b66 17bd
000003c0: ceef d0bd 9aec 84bd 3dad cd3c 90f2 adbb
000003d0: 35e5 81bd d1ba 1c3d 5764 193d 248e 04bc
000003e0: 38ea 6f3c c05e 2cbd ec59 123d eaf1 bbbd
000003f0: 5666 bebc 7fe5 4e3d 9068 0c3c 448a 5d3a
